NTUT_112-2_MTA/code/week3/model_mlp.pth (torch, 113935 bytes, 8 tensors)

weight f4 [32, 784]
00000000: a0fe 5bbc 6637 3ebc a033 893c 9865 75bc
00000010: 6e82 953c d7b1 0f3d 4e4e 0ebd 10a0 3c3c
00000020: ca64 06bd 5c14 c8bc 406e e23b 3339 f0bc
00000030: d01a 323c c0e9 95bc c846 9b3c 78b6 ca3b
00000040: be9b e23c 2321 93bc e285 c23c 127f 46bc
00000050: 5230 ec3c c8a4 963c 013c 063d d858 b8bc
00000060: 8e15 dabc f038 ca3b 8007 d2b9 385e 803b
00000070: 74bf 773c c0e0 64ba d05e 90bc 90cc 153c
00000080: d032 3d3b 58f5 acbc 4377 043d 5877 abbc
00000090: 4047 133c ec1a 6d3d 5de4 e13e 7579 f93e
000000a0: 64ca 993f 656a 5e3f 871f f13f f4a4 fc3f
000000b0: 9639 7d3f f9ec 0f3f f812 d33f 5856 0c3f
000000c0: ceac c8bc 90e0 c13b 2551 0a3d ce17 57bc
000000d0: 3ca5 13bc c060 d43b 009c 153a d0c1 9d3b
000000e0: 386e c43c 4060 e93b f42a b83c da88 a23e
000000f0: 861f 613c 6e28 95bd 9bdb 073e 4838 5b3b
00000100: 2a95 6fbf ce70 7bbf 31dc 93bf 60ee 253f
00000110: 3fa2 dfbf e3c7 813e 3834 d33f 9bde f53f
00000120: 576a 2840 f1b3 1abd c093 debe 95d5 45bf
00000130: 3118 98bf 7820 96bf 88a9 8fbf 0fa8 aebe
00000140: eb28 be3c 4ce0 953c eab0 25bc 154e 0a3d
00000150: 603c a23a 45bf abbc 0a12 8ebc 3203 d43e
00000160: ad47 b0bd 59f1 95bf 9e35 f3bf 27cb 46bf
00000170: b5e3 1cbe f915 ed3d 6bac 4c3e bafd 93bf
00000180: 4f41 2abf 13e7 923f 14d8 8a3f b540 023c
00000190: 6b8a 90bd 95fe 78bf ea5e 87bf 10e0 633f
000001a0: 9e43 03bf 9531 e3bf 41d9 39c0 b1e4 1dc0
000001b0: 60d6 53be f076 94bf fb34 a4bf 3722 a3bc
000001c0: c5f1 c6bc 8cef 823c 3696 4bbc e755 f13e
000001d0: e64e 75bf d28b 2cbf 2c0c a9be fd59 2abf
000001e0: 40f5 043f 441e c53f b7f5 7d3f 1761 003c
000001f0: 1224 27be ff91 b1be 4bdf c8be a1eb f33d
00000200: b4ad 75bd 0158 2ebf 5b9f b2bd daef db3e
00000210: a3b3 b03f 7c4a 833f ab6d 9a3f 4d93 14bf
00000220: e41f 4bbf 2ade 3cbf 66c7 92bf 15cb 88bc
00000230: 48ee a53c 0851 af3b b1f0 69be 451c c3bf
00000240: 9cb0 f7bf 77eb d03e 3290 f3bd 7631 4bbe
00000250: be32 2a3f 440e 433f 9f8f 483f f8c8 a43e
00000260: 3dbb 16bf 9328 bd3d d9a0 cebd f66a 3cbb
00000270: e827 163e c837 a53e 2a76 563e 8816 963a
00000280: eafa 9d3d 3e44 2a3f 855b a63f 9ab7 043f
00000290: 594e 64bf 86da bfbf f389 32bf 54ff 21bf
000002a0: cf24 05bd cf50 d0bc df36 1940 f8b2 efbf
000002b0: 4957 8cbf 8026 dc3d 725c 0dbf a406 303f
000002c0: d443 8f3e 9e14 b3bd 5f03 213f 12a7 fe3e
000002d0: 3904 2b3f dba8 1b3e 6418 733e d0c6 27be
000002e0: c53f 1bbf 9070 b8be df4c 37be ce36 803f
000002f0: de59 2f3f 574d 7b3f 4f05 903f fcc4 adbe
00000300: dffb d33f 98b0 f03f 2106 2d3f 3951 f9bd
00000310: 10df 943b 9e50 afbe f104 0440 5bb3 efbe
00000320: 24f8 a8bf 2191 c3bc 089f 7fbf 8e67 0b3f
00000330: 59f4 c33c c2b0 0f3f 7d1f af3e 566a 883f
00000340: 22c8 613f 36ed 1c3f b27b 8b3f 7e7e 063f
00000350: 406e 953e 5fdb 433e 587f 153f 2c3e 9f3f
00000360: 672d 763f b237 e33e 8397 a6bd 1935 fdbe
00000370: 06f9 16bf 175f f9be c0e1 9a3f d577 c93e
00000380: d01e af3c 7743 90be 96d5 91be d438 223f
00000390: a13a 17c0 f9c9 5abf 3045 013e bc44 893e
000003a0: 8a06 40bd 16cf 3d3d 5b83 4c3e 8ccf 7c3f
000003b0: 830e a23f 49fa 743f df6f 9d3f 4a15 1d3f
000003c0: b1ff 49bd 6b80 143e 4f92 723e 1fb0 4c3e
000003d0: a092 1dbd db70 38be 71e1 c5be fb63 e7bd
000003e0: d8e4 3ebe 6e15 bfbf aa9a 2d3f e30e 993f
000003f0: e818 d23b 9d21 78be d67c 2cbf 78aa 82bf
-0.013427407 -0.011609888 0.01674825 -0.014977835 0.01825067 0.03508171 -0.034742646 0.011512771
-0.032810964 -0.02442377 0.0069101155 -0.02932415 0.01087065 -0.018299937 0.01895465 0.0061863028
0.027662154 -0.017960137 0.02374548 -0.012115257 0.028831635 0.01838912 0.032772068 -0.022503302
-0.026621606 0.0061713383 -0.0004005991 0.0039174818 0.01512133 -0.0008731 -0.017623335 0.00914301
0.0028869398 -0.021113083 0.0323403 -0.020930931 0.008989155 0.057887003 0.4411954 0.48725477
1.201489 0.86881095 1.8837746 1.973784 0.98915994 0.56220967 1.6490164 0.5481925
-0.024496462 0.0059166625 0.03376879 -0.013128234 -0.009011563 0.00648126 0.0005707145 0.004814364
0.023978338 0.0071220696 0.02248142 0.31745034 0.013740426 -0.07283102 0.13267367 0.0033450294
-0.9358698 -0.98219 -1.1551572 0.64816856 -1.7471389 0.25347814 1.6500311 1.9208559
2.6314905 -0.03776926 -0.434721 -0.77279025 -1.1882383 -1.1728659 -1.1223612 -0.34112594
0.02321287 0.01829543 -0.01011298 0.03376587 0.0012377612 -0.020965228 -0.017342586 0.41408688
-0.08607421 -1.1714278 -1.9000738 -0.77653736 -0.15321238 0.115764566 0.19987647 -1.1561806
-0.66505903 1.1476768 1.0847192 0.007949998 -0.07057651 -0.9726346 -1.057584 0.8901377
-0.5127505 -1.7749506 -2.9038851 -2.4670832 -0.20687246 -1.1598797 -1.2828668 -0.019913776
-0.024285207 0.015983365 -0.01242595 0.4713585 -0.95823514 -0.6740085 -0.330171 -0.6654356
0.5193672 1.5399861 0.99203056 0.007835648 -0.16322353 -0.346817 -0.3923286 0.11910177
-0.05998011 -0.68103033 -0.08721801 0.4295643 1.3804821 1.0257106 1.2064718 -0.58037263
-0.79345536 -0.73776495 -1.1467102 -0.0166984 0.020255223 0.005350236 -0.22845723 -1.5243002
-1.9350772 0.40804645 -0.118927374 -0.19843087 0.66483676 0.7619364 0.7834415 0.32184577
-0.5887945 0.092362545 -0.10089273 -0.0028750277 0.1466366 0.3226912 0.20943514 0.0011450807
0.07713874 0.6651038 1.299668 0.51842654 -0.8918205 -1.4988563 -0.69741744 -0.63280225
-0.032505807 -0.025429158 2.393974 -1.8726492 -1.0964137 0.10749531 -0.55219185 0.6876013
0.27981436 -0.08744167 0.6289577 0.4973684 0.6680332 0.15201132 0.23739773 -0.16384435
-0.6064418 -0.36023378 -0.17900418 1.0016725 0.684965 0.98164886 1.125162 -0.3393935
1.656124 1.8803892 0.67587477 -0.12173695 0.0045431927 -0.34241194 2.0628016 -0.46816525
-1.3200727 -0.023872914 -0.9985204 0.54454887 0.023920225 0.56129086 0.3420371 1.0657451
0.88196003 0.61299455 1.0897124 0.5253676 0.29185677 0.19126652 0.58397436 1.2440848
0.9616303 0.4437843 -0.08134367 -0.49454573 -0.5897373 -0.4870536 1.2100143 0.39349237
0.021376997 -0.28176472 -0.28483266 0.6336796 -2.3629534 -0.85464436 0.12624049 0.26810253
-0.046881236 0.04634007 0.19971983 0.9875419 1.2660679 0.95694405 1.2299765 0.6136061
-0.049316112 0.14502113 0.23688625 0.1998906 -0.03846991 -0.18011801 -0.3864856 -0.11298367
-0.18641984 -1.4928415 0.67814124 1.1957668 0.0064116605 -0.24231572 -0.67377985 -1.0208273

bias f4 [32]
00000000: 7560 0740 2b11 c23e 2483 0a3f 777e 20bf
00000010: 71fb 0dbf 9552 be3e e715 bfbe 20d2 d3bf
00000020: 5987 073f 6a8e 33bd 9c44 3fbd 6fa6 7fbf
00000030: 0860 ff3f 13bb 5e3e 88ec 7f3f a14a 843f
00000040: cb60 11be 5c05 61be 7328 013f 56c1 74bd
00000050: 5c76 10bd f122 22be 773b 70bf 835f 943e
00000060: f89f 923e 43cf bcbf f2f0 cebf db0c d3be
00000070: 45bc d4bd 5a1f 943f 1c69 05bd 9ae9 85bf
2.1152623 0.37903723 0.54106355 -0.6269297 -0.55461794 0.3717238 -0.37321398 -1.65485
0.529409 -0.04383699 -0.04669629 -0.9986333 1.9951181 0.2175105 0.99970293 1.0335275
-0.1419708 -0.219747 0.50452346 -0.059754692 -0.035269126 -0.15833642 -0.93840736 0.2897912
0.2863767 -1.4750751 -1.6167281 -0.41220745 -0.10387472 1.1572068 -0.032570943 -1.0461915

weight f4 [32, 32]
00000000: 51ca edbf b240 303f 1f40 b13e 39ea 11bd
00000010: d76b 353f e914 86bf db33 363e 59bd 9cbe
00000020: 2f2f 02c0 6f41 343e 610f 23be cbd5 ccbf
00000030: 07e0 0a3f 1de7 9ebf 6462 18bf 1c49 0b3f
00000040: a504 293e 46b6 093e 7335 f6be 89a7 2dbf
00000050: bf9b 793c da6f ea3e 2b76 15bf 2d15 b3bf
00000060: 67f8 89bf 5f72 fdbe e0de ebbe 9072 72bf
00000070: 1a63 183d 26c9 bdbe 7615 6ebc ccb3 8cbe
00000080: 9fd7 943e 0d4a 5e3d c3ce a13e 3de9 4d3e
00000090: 19c1 e5bc c88c d03e c24d 6f3b 95b2 c73d
000000a0: 1ee7 87bf ca3e a63d 91f9 0dbe 15af 2cbf
000000b0: e5fb a23d 2445 9dbf 6539 e1be 9177 ad3e
000000c0: 5931 db3d 87e0 843d 220f f9bf 8179 26be
000000d0: 3b3f f9bc 1a6e b93d 7051 9a3e c6de be3e
000000e0: 1580 16bf 00cc 9ebf 0f0c 7bbe f852 ba3e
000000f0: 202a d6bd 1609 5c3d 12bb 593e 2017 fcbe
00000100: 3b58 79be 60a7 893d 6e95 8abf 252a ecbe
00000110: 6ec7 32bf 5740 73bf 2d38 493f 469e e43e
00000120: 6ef2 7cbf 4445 003e 0779 5cbf bf22 a2be
00000130: 9424 9f3e 00bd 063e 38df 0fbf 6469 80bf
00000140: a410 5cbe 4528 343f 5cd5 fdbd dc3a b2bf
00000150: fa7e 473d 948e 84bf a693 8fbf 82fe 24be
00000160: 6463 82bf e744 20be b76c c23d 49a7 fbbe
00000170: 0d9a 7a3d 286d bfbf a762 b93d 8e1e 7e3e
00000180: 4606 9fbe 165a 1f3e 0fbe 863f 80c6 19bd
00000190: 830e d53d 4626 bcbf 346a 3c3e 6e6c c3be
000001a0: 0a7a f3bf 416a 33be 2d34 5fbe 1a44 d4bf
000001b0: 658b 34be 057d e7be 5882 193f b877 3d3f
000001c0: 78a8 76bd 14d4 9a3e d028 5bbf f56f 8a3e
000001d0: 08d7 973c 3ad2 493f 7273 adbe 1e65 69bf
000001e0: 33df 61bf 5d10 42be f02b 3dbf 070d 7cbf
000001f0: 2c39 cbbc 0356 08c0 7d05 83bd 10c7 733d
00000200: ab20 2bbf df67 e9be 6149 313f cc5a 52bf
00000210: ce7b 8fbf 12f7 afbe 3297 5bbf d003 a73d
00000220: 7d6b 84be e71d 313e 15e6 0fbe 0c50 ebbd
00000230: 731d e13d a05e 84bf 6899 05bf 3ce3 c03c
00000240: 9bb5 88bd 7de5 16bf 0cec 61bf 94af 6dbe
00000250: ee8b a33d 2e37 fdbe 2d5f a13f 76f2 dcbf
00000260: b8b5 6f3f 68cd 58bd da48 52bf 39eb 84bf
00000270: b8e7 37bd 4540 b1bf 329b 11be cac1 a1be
00000280: 0912 923e afd2 12bd 033d b1bf 6ddb aabe
00000290: cbd4 8ebf 4d68 08be 51bc cb3d 2877 ecbe
000002a0: 5dfb 233f aade c1bd 85fc 52be b4d3 7b3e
000002b0: 70ee 4dc0 32d7 4dbe fe5e f9be 7aa2 2abe
000002c0: 3539 1a3e 3dbb b5be 573d ab3f 1796 d83d
000002d0: 76e3 743d 93f9 f6bf 2281 723f 4e9c 733e
000002e0: d6f3 45bf 6d60 c53e 3536 7b3d db8f fc3e
000002f0: 1da0 32bd ea1e 1cbf 5664 17bc 5de8 5cbf
00000300: 31fc 753f 9b5b 61bf 7f0c 9dbe fa62 b9be
00000310: 63be 103f a5c4 143f 6d79 cd3e 6ce9 c0bd
00000320: aea2 4bbf add8 ad3d f5d7 16c0 1bc6 68bf
00000330: f82c 9c3e 19b7 e1be beb4 f9be 6250 f4be
00000340: 671d 2e3e 372e f4bd ab3b 02bf 3eac cf3d
00000350: e068 9cbc f6e1 2c3f 16ad a3bf 1d9d c93e
00000360: 8239 82bf 1e97 96bf 4813 c0bd f1ad 44bf
00000370: 87b8 08be d5be a63e f053 ff3d 27dc f43e
00000380: 5a4e 32bf b694 dabe 0d06 37be 2a68 e5be
00000390: c19f d9bf c74d 5bbf cea4 bdbe a255 22bf
000003a0: b5df ebbd df1c 5e3d e885 bc3e be17 bdbd
000003b0: 1b17 193f f672 afbf ed5d da3d 867a 5d3d
000003c0: 0989 133e 9aa3 15bf 5482 07bf f4fb 66be
000003d0: 5ae7 af3c 1fad 79be 8f16 033f a75e 39bf
000003e0: 2915 2ebf e9bd bdbd 7d01 18bf 368b 27bf
000003f0: d7ef 0d3e cf09 4ebf 94fb 983d 9dfd 1fbe
-1.8577367 0.6884872 0.34619233 -0.035623763 0.70867676 -1.0475131 0.17793219 -0.3061321
-2.0341299 0.17603086 -0.15923835 -1.6002744 0.5424809 -1.241428 -0.5952513 0.5440843
0.16505678 0.13448438 -0.48087654 -0.67833763 0.015234887 0.4578846 -0.58383435 -1.3990837
-1.0778931 -0.4950132 -0.46068478 -0.9470606 0.037203886 -0.37067527 -0.014531484 -0.27480924
0.29070756 0.05426984 0.3160306 0.20108505 -0.028046178 0.40732408 0.0036514853 0.09750859
-1.0617406 0.08117445 -0.13864733 -0.67454654 0.07958201 -1.2286725 -0.439891 0.33880284
0.10702772 0.06488138 -1.9457743 -0.16257288 -0.030425658 0.09054203 0.30140257 0.37279338
-0.5878919 -1.2406006 -0.24516319 0.36391425 -0.104572535 0.053719603 0.21262768 -0.49236393
-0.24350064 0.067213774 -1.0826852 -0.46125904 -0.69835556 -0.9502005 0.7860134 0.44652003
-0.9880742 0.12526423 -0.86122173 -0.31667134 0.31082594 0.13158035 -0.5619998 -1.0032163
-0.21490723 0.70373946 -0.12394211 -1.3924212 0.04870508 -1.0356011 -1.1216934 -0.16112712
-1.0186582 -0.15651284 0.09493392 -0.49151066 0.06118207 -1.4955187 0.090520196 0.24816343
-0.31059474 0.15561709 1.0526751 -0.03754282 0.104031585 -1.469918 0.18399888 -0.38168663
-1.9021618 -0.17521001 -0.21797247 -1.6583283 -0.176313 -0.4521257 0.59964514 0.740108
-0.060219258 0.30239928 -0.8560915 0.2703854 0.018535152 0.78836405 -0.3387714 -0.9116992
-0.882312 -0.18951555 -0.7389517 -0.9845738 -0.024807535 -2.1302497 -0.06397531 0.059516013
-0.6684672 -0.4558706 0.6925259 -0.82169795 -1.1209657 -0.34368187 -0.8577758 0.08155024
-0.25863257 0.17296563 -0.14052613 -0.11489877 0.10991945 -1.0341377 -0.52187204 0.023545854
-0.066752635 -0.5894392 -0.88250804 -0.23211509 0.07985674 -0.4945616 1.260717 -1.7261493
0.93636656 -0.052930266 -0.8214241 -1.0384284 -0.04489872 -1.3847739 -0.14219359 -0.31593162
0.28529385 -0.035845455 -1.3846744 -0.33370534 -1.1158689 -0.13321038 0.09948028 -0.4618466
0.64055425 -0.09466298 -0.20604141 0.24592477 -3.217678 -0.20101622 -0.48705286 -0.16663542
0.15060885 -0.35494414 1.3378094 0.10575502 0.059787236 -1.9294914 0.9472829 0.23790094
-0.7732519 0.3855013 0.061330993 0.49328503 -0.043609727 -0.6098467 -0.009240231 -0.8629206
0.9608794 -0.88030404 -0.30673596 -0.36208326 0.5654051 0.58112556 0.40131703 -0.09419522
-0.79545105 0.08488593 -2.356931 -0.90927285 0.30503058 -0.44085005 -0.48770708 -0.47717577
0.17003404 -0.11922877 -0.50872296 0.101402745 -0.019092977 0.6753229 -1.2787197 0.3937768
-1.01738 -1.1764867 -0.093786776 -0.76827914 -0.13351642 0.32567468 0.12467182 0.47824213
-0.69650805 -0.42691582 -0.17873402 -0.44806033 -1.7001878 -0.85665554 -0.37039798 -0.63411915
-0.11517278 0.054226752 0.36820912 -0.09233044 0.5980088 -1.3706958 0.10662446 0.054071926
0.14407744 -0.5845276 -0.5293324 -0.2255705 0.021472622 -0.24382447 0.51206297 -0.72410053
-0.6800104 -0.09264738 -0.5937727 -0.65446794 0.13861023 -0.80483717 0.0746986 -0.1562409

bias f4 [32]
00000000: 1c23 873f 4012 17bf 85cc f73f 67b0 f33e
00000010: a3c6 adbf b3d4 4bbf a7df 873f 4c8e 69bf
00000020: 1132 0dbf c9e2 b0bf 429b b4be e089 1340
00000030: 2bb1 a7bf 9664 b5bf 9404 12bf 80a3 1d40
00000040: d71a 0b3f b913 6d3e 0352 3cbf 5d95 ed3e
00000050: 330c a7bf acc9 5d3f 1626 71bf 0435 8fbe
00000060: 99db b5bf 5af8 e0bc 56a5 0abf 1e59 5ebc
00000070: 7ae1 84bf b433 51bf ed07 f2bf b0ea b4be
1.055759 -0.5901222 1.935929 0.47595522 -1.3576244 -0.7962143 1.0615128 -0.9123275
-0.5515452 -1.3819209 -0.35274702 2.3052902 -1.3100942 -1.4171321 -0.57038236 2.4631042
0.5433783 0.23152055 -0.7356264 0.46403018 -1.3050598 0.8663585 -0.9419874 -0.27970135
-1.4207641 -0.027462173 -0.5415853 -0.013571052 -1.038131 -0.8171952 -1.8908669 -0.35335302

weight f4 [32, 32]
00000000: 760b 9abf a274 24bd 7122 21bf 6ff4 94bf
00000010: a964 59bd 6800 5c3e aba4 2fbe badf c1be
00000020: 5e3d 473d 3fc7 56be 6de3 bdbe 17c8 e7be
00000030: 9365 2c3e 4aa3 f9be 9945 32bf 89f3 ccbe
00000040: c3f4 ac3e 4a1a b23e ebbf a73e 5a46 483e
00000050: 2432 5bbe ad4a 53be 7867 acbe e29a 50be
00000060: 63d1 d5be d92b afbe 6b94 cb3d a9fe 4c3d
00000070: 2ea3 f83d aa6c f93e 94d4 db3d 236a b43d
00000080: 929e b4be 3040 913d a2ce 35be 5dc0 efbe
00000090: 715b 1b3e fc03 4cbd 399c 843e ff3b d83e
000000a0: ac48 a1be 907b 09bf cb29 e7be 7ab0 0bbb
000000b0: 3c03 f8be 5210 4cbe f8ce 64be e197 cdbe
000000c0: fee2 453e e2b9 6a3e 20c7 ad3e 6c05 c53e
000000d0: 929f b73e fda7 293e f350 3dbd 629d f63d
000000e0: 9eb9 ea3e b3f2 e7ba eb08 7d3e dafd 7cbe
000000f0: 5d9e 23bf e351 a4be c548 6ebe 480c 623e
00000100: c920 24be da71 123d 4a1d 233e ecd0 f13d
00000110: 3ef4 3cbe aee0 51be 705f fb3b ad6b cb3c
00000120: c375 26bb 3e8e e8be c273 d53e 384e 353e
00000130: 3a12 c2be 3167 efbe ccd9 15bf b3ae 8f3d
00000140: 16e5 aebb 3032 86be 7320 dfbd 4eb6 6ebe
00000150: 529f 79be 39e2 183e e384 1abf edec 5e3e
00000160: da3a 083f a8de 32bd 22ae 14bf a601 0e3d
00000170: 5792 9fbe 8ba8 1ebf 171e ffbe afe7 9d3a
00000180: 9732 62bf e186 25be 2618 f5be e57e e3bf
00000190: 6417 a53e eef2 913e 2302 133d 035b eebd
000001a0: ed93 32bf 58ef 223e 394a 10bf 2b77 52bf
000001b0: 60d7 08be 9f51 89bc fb79 d9bd 0364 c3be
000001c0: dc34 cf3e 4dc4 ac3d 9aae 193f 44f6 9d3e
000001d0: 6100 ecbe d9bb 52be 354c 8ebe a143 e03d
000001e0: 9046 40bf c787 043e 1abf cbbe 655c 7bbc
000001f0: 9b6f 643e 48c4 623e fb86 60be 5851 ee3e
00000200: 4352 70be 228c e03d 2f5a 44bf 5946 f7be
00000210: 4ef0 e4be 5fcf 3cbe 3af7 c63e 17a0 52be
00000220: ae28 9fbe bef7 4fbf 7b14 8cbe c54e c4be
00000230: bbb3 743e 3314 5fbe 8431 3e3e 3d7a abbe
00000240: 98d0 813e f24b 16bf 91e9 89be 4dd5 be3e
00000250: b25a 043f 87bf 2b3e b5fd 383d 3bb1 103d
00000260: e7f8 45bf a979 85be 37d7 adbe ca7c 3abc
00000270: 2e91 b5bd 1c5a 8ebd 532c acbe ea4c a63d
00000280: 8210 603e 27c8 0ebd de27 943d cd89 233e
00000290: 6cf6 a9be d24a 7dbe dd88 53be b4d5 06be
000002a0: a34f 5bbe b5cc 283e 9cdc babf f5f2 063e
000002b0: aa8d 4abf c7f2 b33e b5cb 24be 0c14 353d
000002c0: f2b4 0ebf ec8a c7be 63c3 51be a114 2a3e
000002d0: 7a13 edbe f328 2c3d 05b5 60be cc5c ac3e
000002e0: 4ae2 d9be 15de 18bf eb30 b4be 9337 0f3c
000002f0: 0c1f dbbe 554c ecbe e248 a6be 109b b7bd
00000300: 3d12 ad3e 4b17 f13a d06e c33d aedd c93e
00000310: 7f83 fb3e 04b5 b8be 3ee5 14bf 636d 843e
00000320: 316c 4b3e 9510 c7be eb1f 41bf 1902 043e
00000330: 1c34 cebe 4798 a7be 6624 6bbe 2bb4 8f3e
00000340: 8015 d8be b266 ae3e 6d34 b23e 9bb8 83bf
00000350: 30a1 cfbe e72d 99be 2307 7bbe c60f 803e
00000360: 541b de3d 3cb2 7fbf a687 b13e 96cf 3ebe
00000370: 8abe 0fbf c026 343b 87c3 24be 7f8f a7bf
00000380: 105d 6cbe 37d8 03bf 9351 e23e f568 babf
00000390: e0c7 b9be 8f18 bd3e 230f c5bd a833 ebbe
000003a0: c133 acbe 176c 54be 6257 e7bd a457 853e
000003b0: c695 6f3e dfd0 0fbf 27b3 b9be e936 f83e
000003c0: 2cb2 96be e0ab d8be 48af 1c3f d175 883e
000003d0: 99a8 08bf c47e 29bf 4e1e 3d3d d84e 4e3d
000003e0: 1662 3c3d 952f 2cbe 1269 1cbf f42f 86bd
000003f0: e24b 913e 7b09 f23d 147c 2ebf 81e9 0bbc
-1.2034748 -0.040150292 -0.6294318 -1.1637095 -0.053074513 0.2148453 -0.1715266 -0.37866002
0.04864251 -0.20974444 -0.37087575 -0.45269844 0.16835622 -0.48757392 -0.6963745 -0.40029553
0.33780488 0.34785682 0.3276361 0.19558087 -0.21405846 -0.20633955 -0.3367269 -0.20371583
-0.41761312 -0.3421314 0.09940418 0.05004755 0.12140499 0.48715717 0.107339054 0.088093065
-0.3527723 0.07092321 -0.17754605 -0.4682645 0.15171601 -0.049808487 0.25900438 0.42233273
-0.31500757 -0.53704166 -0.45149073 -0.0021314905 -0.48439968 -0.199281 -0.22344577 -0.40154937
0.19324872 0.22922471 0.33940983 0.384807 0.3586393 0.16567989 -0.046219777 0.12041737
0.4584474 -0.0017696231 0.24710433 -0.24706212 -0.6391352 -0.32093725 -0.23269947 0.22074997
-0.16028132 0.03575311 0.15929142 0.11807427 -0.18452546 -0.20495865 0.007671289 0.024831617
-0.0025399781 -0.45421022 0.4168988 0.1770562 -0.3790453 -0.46758416 -0.58535457 0.07015743
-0.0053373678 -0.26210165 -0.10894861 -0.23311731 -0.24377182 0.14930047 -0.6035902 0.21770068
0.532148 -0.043669373 -0.58078206 0.03466954 -0.31166336 -0.61975926 -0.49827644 0.0012047197
-0.88358444 -0.16164733 -0.47869986 -1.77731 0.32244408 0.28505653 0.03589071 -0.11638453
-0.69756967 0.15911615 -0.56363255 -0.82213086 -0.13363409 -0.016762553 -0.10618969 -0.3816224
0.40470016 0.08435879 0.60032046 0.30851948 -0.4609404 -0.2057947 -0.27792516 0.10950399
-0.7510767 0.1294242 -0.39794236 -0.015341853 0.22308199 0.22145188 -0.21926491 0.46546435
-0.2346888 0.10964228 -0.7670011 -0.48295859 -0.44714588 -0.18438481 0.38860494 -0.20568882
-0.31085724 -0.812374 -0.27359375 -0.38341346 0.23896687 -0.21785049 0.18573576 -0.33491698
0.25354457 -0.58709633 -0.2693601 0.3727211 0.5170089 0.1677228 0.04516383 0.03532527
-0.7733292 -0.26069382 -0.33953258 -0.011382291 -0.088655815 -0.06950781 -0.33627567 0.08120139
0.21881297 -0.03485885 0.072341666 0.15970536 -0.33195817 -0.24735573 -0.20657678 -0.13167459
-0.21417098 0.1648434 -1.4598575 0.13178618 -0.7912241 0.35146162 -0.16093333 0.04420857
-0.5574485 -0.38973176 -0.2048469 0.16609432 -0.46303922 0.04203124 -0.21944053 0.33664548
-0.42555457 -0.5971387 -0.3519357 0.008741277 -0.42797124 -0.46151987 -0.3247748 -0.08965123
0.33802977 0.0018393783 0.0954262 0.3942694 0.4912376 -0.36075604 -0.58162296 0.25864705
0.1986549 -0.3887984 -0.7543933 0.12891425 -0.4027413 -0.32733366 -0.22963104 0.28067145
-0.42203903 0.34062725 0.34805623 -1.0290712 -0.40552664 -0.29917833 -0.24514441 0.25012034
0.10845056 -0.9988134 0.34673804 -0.18633875 -0.56150115 0.0027488917 -0.16090213 -1.3090667
-0.23082376 -0.5150179 0.4420286 -1.456328 -0.36285305 0.369328 -0.09622028 -0.45937848
-0.33633235 -0.20744358 -0.11295964 0.26043427 0.23396978 -0.56178087 -0.36269495 0.48479393
-0.2943281 -0.4231863 0.6120496 0.26652387 -0.5338226 -0.66209054 0.04617148 0.05036816
0.04599198 -0.16815026 -0.61097825 -0.06552115 0.28378206 0.118182145 -0.6815808 -0.008539558

bias f4 [32]
00000000: a958 c43d b4ba 36bd 47ef 8d3e f996 f13e
00000010: 97b4 7dbf a9d5 5f3f a007 2a3f aa07 523f
00000020: 69af 083f c15d 0d3f 7026 d8bf 5b85 c7be
00000030: bfb7 b03e 3263 9ebf 158f 123f d4eb 8bbe
00000040: 4010 a5be 8674 c73e e2f5 afbf d315 0bc0
00000050: b050 193f 9f32 e2bf 1b7c 093f e6e5 033e
00000060: 0518 7bbe 46be c63e ae6b 27bf da2f b73e
00000070: 3020 433f 7f6d c3be 95ac d2bd 2a7c 293f
0.09587223 -0.044611648 0.27721617 0.47185495 -0.99103683 0.87435395 0.66417885 0.82042944
0.53392655 0.5522118 -1.688673 -0.3896893 0.34515187 -1.2374022 0.57249576 -0.2732836
-0.3223896 0.38956088 -1.3746912 -2.173207 0.59888744 -1.7671698 0.53704995 0.12880668
-0.24520881 0.38817042 -0.6539868 0.35778695 0.7622099 -0.38169476 -0.10286824 0.66205084

weight f4 [10, 32]
00000000: 2685 a2be ecb3 daba fefb d5be 802d 09be
00000010: 409f 7d3e bf08 95be e898 b1be b21d 9fbd
00000020: 8f28 26bf 2af7 1cbd 2a8b 35bf fcb4 8e3d
00000030: dae2 4bbe 7291 20bf 7931 fcbe c537 483e
00000040: ac32 67be 9303 c6be 2d1b 17c0 895a e5be
00000050: 37bb 25bf a6bd 41bf fd55 f5be d256 343e
00000060: 0b35 04be f9f1 2b3e d32d 8b3d 2e20 1bbf
00000070: 4e48 353e 72bb 7d3e 4ba5 a83e 3f29 4bbe
00000080: 7c14 0e3e 6cf2 f23d d5ac 49bf d2f9 603c
00000090: 935d 1fbf 85c0 cdbe 8669 883e 2fe6 0fbe
000000a0: e071 5dbe ca93 903d c021 9ebd 5d80 54be
000000b0: 9a55 9ebb 38bd 2abe df71 b63e 8951 9e3d
000000c0: 1d4c 57be e817 01be fffe b7be b5f8 d6be
000000d0: a94d 653e 862f 39be 02e7 c23e adfc adbe
000000e0: 75b0 6e3e bf73 173e 0db4 62bf 372a 45be
000000f0: c6ab 2f3e b445 d3bc 846b 0abd 16cd 023e
00000100: c45b 583e e1c3 cfbd c02e a2be 3e74 1d3e
00000110: 1d08 a2bd 4702 a0be bbac f4bc 0f41 703e
00000120: 696f e5bc 2593 40be f676 3ebf fd8f ddbd
00000130: 06f6 4e3e ad6f 20be 78d4 843e f10c 4bbe
00000140: c3e2 07be bb32 fcbd 375b 94bf e99a 69be
00000150: 64c8 cb3d 009a 5abe dbfd a6be 7fff 3bbe
00000160: b421 3dbe 5550 0b3e bc76 3fbe c23f b2be
00000170: 8e2b 003b 7a03 e53d ae07 e93a 5027 6e3e
00000180: 1131 38bd 8e0f 87bd a6cd fcbe 5139 613c
00000190: 9641 d2bd 5a0f 903e aeba 5fbe 0486 b03b
000001a0: 6376 283e e2eb 863d bf31 e7be 1231 eebe
000001b0: 4b27 223d f1ea 90bf 45e5 653e 4e05 09bf
000001c0: c5ff a13c 455c 393e dbd2 2cbe 5d3e d6be
000001d0: 4c1f febc a887 5bbe ccf6 83be 2231 203e
000001e0: d449 9bbe d972 4bbd c039 d8be 1857 ab3c
000001f0: 3577 3e3e a2e1 0d3c 3475 22bd f521 a13e
00000200: ee29 13be a4e6 63bd e42f 123e 58cc 7cbe
00000210: 3185 8fbe f46d 7bbe 1226 28bb 268c e9be
00000220: 46ce c1be 8262 bdbe cb1e a1be 7b5d 843e
00000230: 3ed1 543e 5a38 36bf 18ab 1dbf 1356 6e3e
00000240: c4cb 303e 650c 6b3e 4ac6 33c0 cf9e 02bf
00000250: 838f 47bd b4e1 afbe 7fa3 b03e 3117 38bd
00000260: f6db 6e3e 534a a5be b81b 2abe cb66 c7be
00000270: 836d e2be 5e94 d2be 2874 1ebe 2555 8e3e
00000280: 82f5 a5bd 9e61 593e 68e2 353e e6c5 7cbe
00000290: d816 1b3e 0664 4f3e 2e2d 5dbc 40ba 9cbe
000002a0: 44ec 863e 7905 8c3e 272c dcbf b5a6 96bd
000002b0: c49f d4be d42b 3cbf fce7 a4be cc50 c6be
000002c0: 3f84 833e 1220 003e 7b1e e7be 6f7b 2ebf
000002d0: a87d dabe baf3 8bbe bdd5 7dbe e009 52be
000002e0: c18f c73c a5b3 98be 8a5c cfbc da6b 083e
000002f0: 53a7 ba3c bcb0 c43d 7a74 253d 191e 70be
00000300: 4fee 523e e19f 693e 466b 8f3d 7c00 103e
00000310: 70ff 873e 01a1 00bf 5e24 f8b8 be7c 9fbe
00000320: 9d2d 56be ccf7 5d3e 28f2 12bf db2b 483e
00000330: 93ca b6bd 2b1c cdbe 075a 86bf 1715 a0be
00000340: d5c7 77be de09 0abf 9e06 67c0 b2ec 5dbf
00000350: 20b0 b2bf 565d acbe 1fe0 cbbe b004 233d
00000360: 58fe 913e d4e4 8abd 6ec6 7dbe 339c 37bf
00000370: b758 8a3b 963c 21bd eae8 5e3c e479 5dbe
00000380: e288 283e f5cd 9dbe 192d cebe f0b7 4fbe
00000390: 51e0 49bd a0e3 94be 33ed 803c 1df3 a4be
000003a0: ac26 7c3e e24c 9dbf ed50 abbd abf8 58be
000003b0: 1171 6e3e df72 cfbe fc73 8f3d 92fc e43d
000003c0: fd1d 7bbe 855d 4a3e f6a3 88bf c525 9fbe
000003d0: 208c 6c3e 19c8 08c0 530d f5bc a0bc 95bd
000003e0: 1f77 31be eb17 a5be 409f 0abf 36d4 0e3e
000003f0: 85d7 03be f366 74be 31ca 453e 5d58 94be
-0.3174221 -0.0016685701 -0.41793817 -0.13396263 0.2476778 -0.29108235 -0.3468697 -0.07769336
-0.6490564 -0.03832165 -0.7091547 0.06968114 -0.19910756 -0.6272193 -0.49256495 0.19552524
-0.22577924 -0.38674602 -2.3610337 -0.44795635 -0.6473879 -0.75680006 -0.47917166 0.17611244
-0.1291086 0.16791524 0.0679585 -0.6059598 0.17703363 0.24778536 0.3293861 -0.19839953
0.13875002 0.118626446 -0.78779346 0.013731437 -0.6225216 -0.40185943 0.26643008 -0.14052652
-0.21625471 0.070594385 -0.07721281 -0.20752092 -0.004831982 -0.16673744 0.35633752 0.07730395
-0.21025129 -0.12606776 -0.35936734 -0.41986623 0.22392906 -0.18084535 0.3806687 -0.3398184
0.233095 0.14790247 -0.88555986 -0.19254385 0.1715537 -0.025790073 -0.03379394 0.12773547
0.21128756 -0.10144783 -0.31676292 0.15376374 -0.07911704 -0.31251737 -0.02986752 0.23462318
-0.028007226 -0.18806131 -0.7440027 -0.10818479 0.20211038 -0.15667601 0.2594335 -0.19829156
-0.13270096 -0.123143636 -1.1590337 -0.22813 0.09950331 -0.21347809 -0.3261555 -0.18359183
-0.18469888 0.13604863 -0.18697637 -0.34814268 0.001955721 0.11182304 0.0017778778 0.23257184
-0.04496867 -0.06594764 -0.49375647 0.013746575 -0.10266416 0.28136712 -0.21848556 0.0053870697
0.16451411 0.0658796 -0.4515514 -0.46521813 0.039588254 -1.1321698 0.2245074 -0.5352372
0.01977528 0.18101604 -0.1687731 -0.41844454 -0.031020783 -0.21438468 -0.2577423 0.15643743
-0.30329764 -0.049670074 -0.4223156 0.020915553 0.18600161 0.008659752 -0.039662555 0.3147122
-0.14371464 -0.055639878 0.14276081 -0.24687326 -0.28031304 -0.24553663 -0.0025657457 -0.45614737
-0.37852687 -0.36989218 -0.31468806 0.2585257 0.20782945 -0.71179736 -0.61589193 0.23275022
0.1726523 0.22953947 -2.8089776 -0.5102357 -0.048720848 -0.34351885 0.34499738 -0.044943992
0.23326096 -0.32283267 -0.16612136 -0.38945612 -0.44224176 -0.4112882 -0.15473998 0.27799335
-0.081034675 0.21228644 0.17762148 -0.24684867 0.15145433 0.20253 -0.013499541 -0.30610847
0.2635213 0.27347925 -1.7200974 -0.073560156 -0.41528141 -0.73504376 -0.3220824 -0.38733518
0.25686833 0.12512234 -0.45140442 -0.68157095 -0.42673993 -0.27334386 -0.24788566 -0.2051158
0.02436054 -0.29824558 -0.02531268 0.13322392 0.022784865 0.09604022 0.040394284 -0.23448981
0.2059872 0.22814895 0.07002883 0.14062685 0.2656207 -0.5024567 -0.000118323354 -0.31149858
-0.20915838 0.21676558 -0.5740075 0.1954798 -0.08925357 -0.40060553 -1.0496224 -0.3126609
-0.24197324 -0.53921306 -3.609779 -0.86689293 -1.3959999 -0.3366496 -0.39819428 0.039799392
0.2851436 -0.06781927 -0.24782726 -0.71722716 0.0042220014 -0.03936442 0.013605336 -0.21628529
0.16458467 -0.30821195 -0.40268782 -0.2028501 -0.04928619 -0.29079914 0.015738105 -0.3221673
0.24624127 -1.2289088 -0.08365045 -0.2118861 0.23285319 -0.40517327 0.07004544 0.111809865
-0.24523158 0.19762237 -1.0675037 -0.31083503 0.23100328 -2.137213 -0.02991358 -0.07311368
-0.17330597 -0.3224481 -0.54149246 0.1394814 -0.12875183 -0.23867397 0.19315411 -0.28973666

bias f4 [10]
00000000: b707 003e 6c1e 07bf d237 853e b9e2 28be
00000010: 800c b4bd aaf2 7ebe 1e34 e3bd a7e1 b13d
00000020: 1f3a ce3e c66c 933e
0.12502943 -0.52780795 0.2601915 -0.16492738 -0.08791447 -0.24897256 -0.11093925 0.08685618
0.40278718 0.28793925
