NTUT_112-2_MTA/code/week3/model_cnn.pth (torch, 47465 bytes, 17 tensors)

weight f4 [16, 1, 3, 3]
0	0xbecf187b	-0.40448365
1	0xbf6c4d72	-0.9230567
2	0xbf98cfe5	-1.1938444
3	0x3f595a00	0.84902954
4	0x3f1122e1	0.56693846
5	0xbf2e7dff	-0.68161005
6	0x3f4cece8	0.8004899
7	0xbe7905dc	-0.24318641
8	0xbfb8f166	-1.4448669
9	0x3f00df2e	0.50340545
10	0x3ef94e9a	0.4869278
11	0x3ee35df1	0.4440761
12	0x3e6d0909	0.23147978
13	0x3eeaaac1	0.458334
14	0xbfa678a6	-1.3005569
15	0xc000483a	-2.0044084
16	0xbf467620	-0.77523994
17	0xbefd12c4	-0.4942838
18	0x3bb6e124	0.005581038
19	0xbea8a69e	-0.3293962
20	0x3f827aad	1.0193688
21	0xbe23c8fe	-0.15994641
22	0xbf8dca65	-1.1077391
23	0x3e3f033e	0.1865358
24	0x3fb211f5	1.391173
25	0xbed227a1	-0.4104586
26	0xbf848800	-1.0354004
27	0x3f73b1e0	0.9519329
28	0xbe4e6ee3	-0.20159487
29	0xbfd6b156	-1.6772869
30	0x3edc9173	0.4307972
31	0x3f0a6370	0.5405798
32	0xbecaa20c	-0.39576757
33	0xbc3c5250	-0.011494234
34	0x3ee24930	0.44196463
35	0xbeec7b85	-0.46187988
36	0xbffe23a9	-1.9854633
37	0xbf29b50a	-0.6629187
38	0xbfb8501d	-1.4399449
39	0xbed0b469	-0.40762642
40	0x3eb79609	0.35856655
41	0xbf3f4098	-0.7470794
42	0x3e8c3e13	0.2739111
43	0x3f17844e	0.59186256
44	0x3ed716f8	0.4200971
45	0xbfa605e3	-1.2970546
46	0xbf3b5642	-0.73178494
47	0xbe34fabb	-0.17673771
48	0x3e070d71	0.13188721
49	0x3f640a6e	0.89078414
50	0x3f85c47c	1.0450587
51	0x3f561220	0.83621407
52	0x3d59256c	0.053014204
53	0xbf80c87f	-1.0061187
54	0xbf7a6f08	-0.9782567
55	0xbf91ec37	-1.1400212
56	0xbf37f2e7	-0.71855015
57	0xbf540492	-0.82819474
58	0x3e9e4bac	0.30917108
59	0x3f4f7701	0.8104096
60	0xbfb965ae	-1.4484155
61	0x3d83ea5e	0.06441186
62	0x3f29fd18	0.66401815
63	0x3f8151a2	1.0103037
64	0x3f16450e	0.5869912
65	0xbe1a6d21	-0.15080692
66	0x3ebc8ac8	0.36824632
67	0x3eadfea7	0.33983347
68	0xbee0d86d	-0.4391512
69	0xbe865e98	-0.26244044
70	0xbed6e031	-0.4196792
71	0xbfe004df	-1.7501487
72	0xbbcf92bc	-0.006334631
73	0xbeaf24b7	-0.342077
74	0x3ef3cdd1	0.47617963
75	0x3edb4593	0.42826518
76	0xbf072e09	-0.5280462
77	0x3c8168a5	0.015796969
78	0x3e378139	0.17920388
79	0xbfe9f2fa	-1.8277276
80	0x3fd2d12f	1.6470088
81	0xbfb7de75	-1.4364763
82	0x3f2f10fe	0.68385303
83	0x3f967995	1.1755854
84	0xbf7ab04d	-0.97925264
85	0x3db6b625	0.0892146
86	0x3df8ebaa	0.12154324
87	0x3f39315b	0.72340935
88	0x3f336b89	0.7008596
89	0x3e8cdf78	0.27514243
90	0xbf3f13b2	-0.7463943
91	0xbf057b5d	-0.5214136
92	0xbf6683f7	-0.9004511
93	0x3ecd3284	0.40077603
94	0xbedc2d07	-0.43003103
95	0xbe04aa81	-0.12955667
96	0x3fac3c64	1.345593
97	0x3ecf06ba	0.4043482
98	0x3f9eacb5	1.2396456
99	0xbdb198bc	-0.0867171
100	0x3ec42280	0.3830757
101	0x3f0ec568	0.5576997
102	0xbf98b9fb	-1.1931757
103	0x3efb36bf	0.49065205
104	0x3f4df54f	0.80452436
105	0xbfde5b2e	-1.7371576
106	0xbfad67a9	-1.354726
107	0xbfa0dc16	-1.2567165
108	0x3e62dfee	0.22155735
109	0x3b0cad78	0.00214657
110	0xbff4d9df	-1.9128989
111	0x3d065c94	0.032803133
112	0x3f08fbbe	0.5350913
113	0x3f2ab9c6	0.6668972
114	0xbebdad51	-0.37046292
115	0xbe730315	-0.23731644
116	0x3f7149f9	0.942535
117	0x3fb568e8	1.417264
118	0xbf56bc47	-0.8388104
119	0xbf3cfd90	-0.73824406
120	0xbe49e7fc	-0.19717401
121	0xbface256	-1.3506572
122	0x3ea061bc	0.31324565
123	0xbe1af4ed	-0.15132494
124	0xbde8e938	-0.11372608
125	0x3f089138	0.53346586
126	0xbd229c6a	-0.03969995
127	0xbe41628c	-0.18885249
128	0xbfc4f18f	-1.5386218
129	0x3f999cf9	1.2001029
130	0x3f2a7e5c	0.6659906
131	0xbf9aad1e	-1.2084081
132	0xbf14a2cd	-0.58060914
133	0xbf8d79ae	-1.1052759
134	0xbf98deeb	-1.1943029
135	0x3fc4904e	1.5356538
136	0xbe2c001b	-0.16796915
137	0x3f2d860d	0.6778267
138	0xbfce74c2	-1.6129382
139	0xbf3ae337	-0.7300295
140	0xbe28414b	-0.16431157
141	0x3edc9191	0.43079808
142	0x3ebe8c8c	0.37216604
143	0x3e6708b1	0.2256191

weight f4 [16]
0	0x400b90b8	2.180708
1	0x4013d777	2.310026
2	0x3f2fcbfd	0.68670636
3	0x3f45b5db	0.77230614
4	0x40230b17	2.5475519
5	0x3f0a9486	0.5413288
6	0x4039810b	2.8985012
7	0x3f46d142	0.7766305
8	0x3f4e3772	0.8055335
9	0x3f8d0267	1.1016358
10	0x3f544d7c	0.8293073
11	0x4023e24b	2.5606868
12	0x3f1ab48b	0.60431737
13	0x3f9261a0	1.1436043
14	0x40320e8e	2.7821383
15	0x3f5ac5c3	0.8545801

bias f4 [16]
0	0xbf09b44e	-0.5379075
1	0xbee68dba	-0.45030004
2	0x3e646a3e	0.22306153
3	0x3f4a5c2c	0.79046893
4	0xbe9d8294	-0.30763686
5	0x3e685ec8	0.22692406
6	0xbf16e649	-0.5894514
7	0x3d7c9ed4	0.061674908
8	0xbe3c9c1d	-0.18418927
9	0xbf94c73d	-1.1623303
10	0x3e70a5a3	0.23500685
11	0xbe468918	-0.19388235
12	0xbe93fe31	-0.2890487
13	0xbe25823c	-0.16162962
14	0xbf29f55d	-0.6639002
15	0xbf86e79d	-1.0539433

running_mean f4 [16]
0	0xbeb473cf	-0.35244605
1	0xbea70ff7	-0.32629368
2	0xbd923131	-0.07138289
3	0xbceb0939	-0.028690921
4	0xbef10946	-0.47077388
5	0xbd1e277a	-0.038611867
6	0xbed1bf38	-0.409662
7	0xbdd04f7a	-0.10171409
8	0xbae528bf	-0.0017483457
9	0x3e238590	0.15968919
10	0x3da2f631	0.079571135
11	0xbee7712a	-0.45203525
12	0xbc579448	-0.013157912
13	0xbe170e13	-0.14751463
14	0xbf0748f3	-0.52845687
15	0x3d67bf3a	0.056578852

running_var f4 [16]
0	0x3f477263	0.77908915
1	0x3f47306a	0.7780825
2	0x3e15a6ce	0.14614412
3	0x3e902db4	0.2815987
4	0x3f9af743	1.2106708
5	0x3e481cc0	0.19542217
6	0x3f854220	1.0410805
7	0x3f09deee	0.5385579
8	0x3dfb739a	0.122779086
9	0x3edb8d33	0.42881164
10	0x3ed5eb3a	0.41781026
11	0x3f9a2018	1.2041044
12	0x3e1405f6	0.14455399
13	0x3e934829	0.2876599
14	0x3fb36848	1.4016199
15	0x3dc7cbf5	0.097556986

weight f4 [32, 16, 3, 3]
0	0xc0244a5a	-2.567038
1	0xbfca502d	-1.5805718
2	0xbf95ac8b	-1.1693281
3	0xbeb5e933	-0.3552948
4	0x3f6ec059	0.9326225
5	0x3f93211a	1.1494477
6	0x3f21c871	0.63196474
7	0xbe0f393b	-0.13986675
8	0x3fbf32af	1.4937342
9	0x3ec0fdbe	0.3769359
10	0x3e75c7d0	0.24002004
11	0x3f6ad98c	0.917382
12	0xbf361af5	-0.71134883
13	0xbefef1ad	-0.4979376
14	0x3e1f15d2	0.15535668
15	0xc0071021	-2.1103594
16	0xbe995f19	-0.29955366
17	0xbe978534	-0.29593813
18	0x3e98db81	0.29854968
19	0x3ec300e6	0.38086623
20	0x3e78e976	0.24307808
21	0x3ef35c7c	0.47531497
22	0x3bfe1769	0.0077542556
23	0x3dc61668	0.096722424
24	0x3ffc8c41	1.9730302
25	0x3ed160e1	0.40894225
26	0x3ecd6c08	0.40121484
27	0xbf6c4397	-0.92290634
28	0xbe95c250	-0.2924981
29	0xbfadbf4b	-1.3574003
30	0x3f011a74	0.5043099
31	0x3f168dee	0.5881032
32	0x3e9f0ef5	0.310661
33	0xbcbedf80	-0.023299932
34	0xbe226bc0	-0.15861416
35	0x3da3e86d	0.08003316
36	0xbdbb59a1	-0.09147955
37	0xbdaf5e07	-0.08562856
38	0x3e9adf30	0.30248404
39	0x3f5df402	0.8670045
40	0x3f3d5d9d	0.7397097
41	0xbf1b1b5a	-0.6058861
42	0x3f25d6ba	0.6478077
43	0x3ead1f06	0.33812732
44	0x3ed1e240	0.40992928
45	0xbfc6434a	-1.5489285
46	0xbfce2470	-1.610487
47	0xbef7ae7f	-0.48375317
48	0x3f7b9a88	0.9828267
49	0xbdf5ebd9	-0.12007875
50	0xbc428585	-0.011872654
51	0x3f2cd8d2	0.6751834
52	0xbea38930	-0.31940603
53	0xbf163124	-0.5866873
54	0xbdbda173	-0.092593096
55	0xbf3bf617	-0.7342238
56	0xbe4941da	-0.19654027
57	0x3e4ad4e0	0.19807768
58	0xbec81eeb	-0.3908609
59	0xbfba33ec	-1.4547095
60	0x3f6de860	0.929327
61	0x3f024981	0.5089341
62	0xbfe762fc	-1.8077083
63	0x3f22ce51	0.63596064
64	0x3ee8c7e0	0.45464993
65	0x3f1d9a70	0.6156378
66	0x3e23785e	0.15963885
67	0x3d6f8d88	0.058484584
68	0xbd4a2b46	-0.049357675
69	0x3f508aeb	0.8146197
70	0xbeb68d9a	-0.35654908
71	0xbf6f656e	-0.93514144
72	0xbf2c30d7	-0.67262024
73	0xbf6dcd48	-0.9289136
74	0xbf9fce5b	-1.248485
75	0xbf4af13e	-0.79274356
76	0xbef144ee	-0.47122902
77	0xbfbb1513	-1.4615806
78	0x3fa52c40	1.2904129
79	0x3ebf0dea	0.37315303
80	0xbfc237f4	-1.5173326
81	0xbe324ebb	-0.17412846
82	0xbf2f9b80	-0.6859665
83	0xbeabeae5	-0.33577648
84	0xbe261743	-0.16219811
85	0xbf323d7d	-0.69625074
86	0xbf81f40f	-1.0152606
87	0x3eb1c32e	0.34719223
88	0x3d184683	0.03717662
89	0xbf9b03b9	-1.2110511
90	0xbf210ddc	-0.6291177
91	0xbf13dc5f	-0.57758135
92	0xbf017ad0	-0.5057802
93	0x3cc8ea24	0.02452571
94	0xbea2b5ce	-0.3177933
95	0xbfb3c005	-1.4042975
96	0x3f1afff8	0.6054683
97	0x3e3f8882	0.18704417
98	0x3e5acbfd	0.21366878
99	0xbe24ae98	-0.16082227
100	0xbeaedefd	-0.34154502
101	0x3e819e1d	0.25315943
102	0x399c0800	0.000297606
103	0x3e22f175	0.15912421
104	0x3efe2762	0.49639422
105	0xc07ee2db	-3.9825962
106	0xbd969ca2	-0.07354094
107	0x3eedc3b9	0.46438387
108	0xbea528d2	-0.32257706
109	0xbe7546a5	-0.2395273
110	0xbf1fc16d	-0.6240452
111	0x3f860a62	1.0471919
112	0xbf0de7d9	-0.55431896
113	0xbfd6b70a	-1.6774609
114	0x3f95b153	1.169474
115	0x3f844c3b	1.0335764
116	0xbf22d9ad	-0.63613397
117	0x3dfb2828	0.122635186
118	0xbefa1004	-0.48840344
119	0xbfdd214d	-1.7275788
120	0xbee45ac7	-0.44600508
121	0xbf77345d	-0.96564275
122	0xbf87d925	-1.0613142
123	0x3e43224f	0.19056056
124	0xbe3dadb1	-0.1852329
125	0xc0172825	-2.3618252
126	0xbf63d31a	-0.8899399
127	0xbf29ba12	-0.66299546
128	0xbf744653	-0.95419806
129	0x3e6e5bfa	0.23277274
130	0x3f50e50d	0.81599504
131	0x3f843a0a	1.0330212
132	0xbe5d36c1	-0.21602918
133	0x3e5bf409	0.21479811
134	0xbd8e03fa	-0.06934352
135	0x3e77c748	0.24197114
136	0xbe7194af	-0.23591875
137	0xbece4dc7	-0.40293714
138	0x3edd90ca	0.43274528
139	0x3d7f8066	0.06237831
140	0xbf65f8f9	-0.8983303
141	0x3f33a7c1	0.7017785
142	0x3f993746	1.1969993
143	0x3f51833a	0.8184086
144	0xbf3f41c8	-0.7470975
145	0x3bc0880d	0.0058755935
146	0x3ebf244c	0.3733238
147	0xbf110325	-0.56645423
148	0xbf2e512d	-0.68092614
149	0x3ea34eb9	0.31895998
150	0x3f3cfdab	0.73824567
151	0x3f6637ce	0.899289
152	0x3f3cd36b	0.737601
153	0x3e63b096	0.22235331
154	0xbe80a2d3	-0.25124225
155	0x3ed66ca7	0.4187977
156	0xbe9394d4	-0.28824484
157	0xbf1cd6a4	-0.61265016
158	0xbf8aabc3	-1.0833668
159	0x3f26e0ea	0.6518694
160	0xbf780c59	-0.9689384
161	0xc0078b17	-2.1178644
162	0xbf0a0d8c	-0.5392692
163	0x3f07cb62	0.5304471
164	0x3f94c05b	1.1621202
165	0x3d2d56f4	0.042319253
166	0xbeaed4ca	-0.3414672
167	0xbe46b2d5	-0.19404157
168	0x3de8ccf5	0.113672175
169	0xbe96ca7f	-0.29451367
170	0xbf3e931a	-0.7444321
171	0x3faf6111	1.3701497
172	0x3f8cd110	1.1001301
173	0x3faddeaa	1.3583577
174	0xbf844e41	-1.0336381
175	0xbe975049	-0.2955344
176	0x3e926900	0.28595734
177	0xbf7aee2a	-0.9801966
178	0xbf805dc2	-1.0028613
179	0xbd8ac70e	-0.06776248
180	0xbf4056bf	-0.75132364
181	0xbf141fa3	-0.57860774
182	0xbfaac24d	-1.3340546
183	0x3fabe694	1.3429742
184	0x3f3b3389	0.7312551
185	0x3f94994f	1.1609286
186	0x3f835a29	1.026189
187	0x3c8cbdcf	0.017180352
188	0x3ee06ad5	0.43831506
189	0xbfd4e30c	-1.6631789
190	0xbefb82a0	-0.49123096
191	0xbf65197d	-0.8949202
192	0x3f182c77	0.5944285
193	0xbe62ece7	-0.22160684
194	0xbdb4fff8	-0.08837885
195	0x3f409266	0.75223386
196	0xbdd8996b	-0.10576137
197	0xbe460b96	-0.19340357
198	0xbf821da7	-1.0165299
199	0xbeca2be9	-0.39486626
200	0xbf3d14c9	-0.7385984
201	0x3f39beee	0.7255696
202	0x3eebf08f	0.4608197
203	0xbee370e4	-0.44422066
204	0x3fef43d3	1.8692573
205	0x3f6a3137	0.91481346
206	0xbe7f991d	-0.24960752
207	0xbe147fad	-0.1450183
208	0xbdd8f23e	-0.10593079
209	0xbf7c90d1	-0.9865847
210	0xbd8260bc	-0.06366107
211	0x3d9e22a9	0.07721455
212	0xbf37b40e	-0.71759117
213	0x3fd76edc	1.6830707
214	0x3e86d75c	0.2633618
215	0xbe17eb65	-0.1483589
216	0xbf75350c	-0.9578407
217	0xbdd457e0	-0.10368323
218	0xbf593cfa	-0.8485867
219	0x3dee60f7	0.11639588
220	0xbe86ea91	-0.26350835
221	0xbf4d9d87	-0.8031849
222	0x3f523f79	0.821281
223	0x3f88afdc	1.0678668
224	0x3f638646	0.8887676
225	0xbf8c39a5	-1.0955092
226	0xbbcee836	-0.006314303
227	0xbf8f0385	-1.1172949
228	0xbf4e485d	-0.8057917
229	0xbf00f780	-0.50377655
230	0xbf4c63ff	-0.7984008
231	0x3d14b26c	0.03630297
232	0xbdb4a1fc	-0.088199586
233	0xbdf66c76	-0.12032406
234	0xbc7faaec	-0.015604716
235	0x3ede9d1e	0.43479246
236	0x3ec7667c	0.38945377
237	0xbf6a80d1	-0.9160281
238	0xbf1b319b	-0.60622567
239	0x3ec9f831	0.39447168
240	0xbfde1f51	-1.7353307
241	0xbfb93767	-1.4470032
242	0xbf7194f2	-0.943679
243	0x3f951272	1.1646254
244	0x3ec41fbe	0.38305467
245	0x3f5cfb13	0.8632061
246	0xbe8e232a	-0.27761203
247	0x3e3b369a	0.18282548
248	0xbe94e639	-0.29081896
249	0xbf968896	-1.1760433
250	0x3e9e95fc	0.30973804
251	0x3f2fa25f	0.68607134
252	0x3d7d72b7	0.06187698
253	0x3d88a85d	0.06672738
254	0x3da38a3f	0.07985353
255	0x3eb074a2	0.34463984

weight f4 [32]
0	0x3f914a05	1.1350714
1	0x3fa1b03c	1.2631907
2	0x3f829ebb	1.0204691
3	0x3f8a9812	1.0827658
4	0x3f9d21e5	1.2275969
5	0x3f357101	0.70875555
6	0x3fe0eb60	1.7571831
7	0x3f9d1edb	1.2275041
8	0x3fa80acb	1.3128294
9	0x3fb80e20	1.4379311
10	0x3f422eb7	0.7585253
11	0x3fa4d2f0	1.2876873
12	0x3f932517	1.1495694
13	0x3fda4e02	1.7055056
14	0x3f99bfb7	1.2011632
15	0x3f707382	0.9392625
16	0x3f980ac1	1.1878282
17	0x3f705ac7	0.93888515
18	0x3f8dd008	1.1079111
19	0x3f6baadb	0.9205758
20	0x3f91b945	1.1384665
21	0x3f804712	1.0021689
22	0x3f536a6c	0.8258426
23	0x3fa7e5ec	1.3117042
24	0x3f857704	1.0426946
25	0x3fbf9550	1.4967442
26	0x3fbaf4b4	1.4605927
27	0x3fc0fb46	1.5076683
28	0x3f8d97e5	1.106198
29	0x3fb5d180	1.4204559
30	0x3f9cf39a	1.2261841
31	0x3f940a56	1.1565654

bias f4 [32]
0	0xbf47e644	-0.7808573
1	0xbf2f0b14	-0.6837628
2	0xbe7a7dc9	-0.24462046
3	0xbf557eeb	-0.83396786
4	0xbe994d0c	-0.29941595
5	0xbee6f0d0	-0.451056
6	0xbf77c3c8	-0.96783113
7	0xbf5c14d7	-0.859693
8	0xc01703ee	-2.3596148
9	0xbfb8a14b	-1.4424223
10	0xbf86731a	-1.0503876
11	0xbf8b5604	-1.0885625
12	0xbffe248f	-1.9854907
13	0xbf902d30	-1.126379
14	0xbfa05721	-1.252659
15	0xbf494115	-0.7861493
16	0xbeb45365	-0.35219875
17	0xbe0c154c	-0.13679999
18	0xbf021895	-0.5081876
19	0xbf60c33d	-0.8779791
20	0xbee33302	-0.44374853
21	0xbfd2120e	-1.641176
22	0xbfb348c1	-1.4006578
23	0xbf0cea1b	-0.55044717
24	0xbf82d652	-1.0221655
25	0xbf0f53a5	-0.55987006
26	0xbf865d68	-1.0497255
27	0xbf737a12	-0.9510814
28	0xbe85ccc5	-0.2613279
29	0xbf4f3795	-0.80944186
30	0xbf92d034	-1.1469789
31	0xbf995cb0	-1.1981411

running_mean f4 [32]
0	0xc0ed7a51	-7.421181
1	0xbf639e50	-0.8891344
2	0xc088cfb6	-4.2753553
3	0xbfb12e98	-1.3842344
4	0x408cd404	4.400881
5	0xc0902ba9	-4.5053296
6	0xc070fca3	-3.7654197
7	0xc0b9f93b	-5.8116736
8	0xc0ef8dd7	-7.4860644
9	0xc00ceaec	-2.2018385
10	0xc145da77	-12.365836
11	0xbfcddc30	-1.6082821
12	0xc11db323	-9.856235
13	0xbffa2001	-1.9541017
14	0xbfe5f309	-1.7964793
15	0xc0e607b2	-7.1884394
16	0xc0adc75a	-5.430585
17	0x4038e21a	2.8888001
18	0x40cb652f	6.3561015
19	0xbff9bfb7	-1.9511632
20	0xc1225bb9	-10.147393
21	0xc0c699b2	-6.2062616
22	0xc12ed815	-10.927754
23	0x40268725	2.6019986
24	0xc0bfd44e	-5.994666
25	0x3f8c4b3c	1.096046
26	0xc031ceef	-2.7782552
27	0xbf5f62f1	-0.8726035
28	0xbf460c44	-0.77362466
29	0xc0438758	-3.0551357
30	0xc09d294c	-4.911291
31	0xc0d552f9	-6.6663785

running_var f4 [32]
0	0x42604faf	56.077816
1	0x4202449c	32.567
2	0x428e09d8	71.019226
3	0x42700d92	60.013252
4	0x42b097aa	88.29622
5	0x4287df2b	67.935875
6	0x4202f85c	32.74254
7	0x420faf18	35.92099
8	0x41bb9d61	23.451845
9	0x420d0ce9	35.262608
10	0x4218e695	38.225178
11	0x423a8c8d	46.637257
12	0x41df3fed	27.906214
13	0x420049b3	32.07197
14	0x41cfb526	25.963451
15	0x420272df	32.61218
16	0x426db655	59.42806
17	0x425a199c	54.52501
18	0x4282d09a	65.407425
19	0x42058ee1	33.38953
20	0x42b0474e	88.13927
21	0x423d0171	47.251408
22	0x4228de3e	42.217033
23	0x4245c7e8	49.44522
24	0x421a20f4	38.53218
25	0x41efa47d	29.955317
26	0x42371f0a	45.78031
27	0x422bdb1a	42.963966
28	0x424a64d1	50.598454
29	0x41f7fad6	30.997478
30	0x41cdbb33	25.716406
31	0x41d3e402	26.486332

weight f4 [16, 32, 3, 3]
0	0xbeaa093a	-0.33210164
1	0xbf043d39	-0.5165592
2	0xbf551286	-0.8323139
3	0xbe94adbf	-0.29038808
4	0xbec6ec46	-0.38852137
5	0xbf5d91ac	-0.865504
6	0x3fb81bb4	1.4383454
7	0xbdc3e091	-0.09564317
8	0xbe64c48e	-0.22340605
9	0x3f7678cc	0.9627807
10	0xbeb0cb2f	-0.34530017
11	0xbd779c04	-0.060451522
12	0x3f0a3d74	0.5400002
13	0xbeb4fbd9	-0.35348395
14	0x3ea61afa	0.32442456
15	0x3f8661c6	1.0498588
16	0x3eb5f0ea	0.35535365
17	0x3fa9a1a0	1.3252449
18	0xbf676dbe	-0.9040183
19	0xbe816a79	-0.25276545
20	0xbe85e4f8	-0.26151252
21	0xbf9c4c54	-1.2210793
22	0xbe3db282	-0.18525127
23	0x3d100693	0.03516252
24	0xc0038b10	-2.0553627
25	0xbfb60e54	-1.4223123
26	0xbfa54124	-1.2910504
27	0xbdf6d8d0	-0.120530725
28	0xbf0c0638	-0.5469699
29	0x3c06cad4	0.008227069
30	0x3dfd6291	0.12372316
31	0xbf02f966	-0.511618
32	0x3e9a77dd	0.30169573
33	0x3f853b47	1.0408715
34	0x3f0cf930	0.5506773
35	0x3f8ceb7e	1.1009367
36	0x3e6518c8	0.22372735
37	0x3ef43aee	0.4770121
38	0x3ee9a4be	0.456335
39	0x3e9f4b97	0.31112358
40	0x3ef6264a	0.48076087
41	0xbf3eac2f	-0.7448148
42	0xbee2f9df	-0.44331262
43	0xbf15f851	-0.58582026
44	0xc0195792	-2.3959699
45	0xbf5ed14c	-0.8703811
46	0xbf1b1cae	-0.60590637
47	0xbec7acdf	-0.38999078
48	0xbde0206d	-0.10943685
49	0xbe87e984	-0.26545346
50	0xbed64dd3	-0.4185625
51	0x3e634079	0.22192563
52	0x3c34b896	0.011030337
53	0xbe8fa445	-0.28055015
54	0xbdd2eb78	-0.10298818
55	0x3f4f6cd1	0.81025416
56	0x3fa7dd50	1.3114414
57	0x3f20e7b7	0.6285357
58	0x3e257508	0.16157925
59	0x3dfd1716	0.12357919
60	0x40003695	2.0033314
61	0x3f5ea2d1	0.8696719
62	0x3f53d355	0.8274434
63	0x3f2ea865	0.682257
64	0xbe3847f8	-0.17996204
65	0x3eb2b2d0	0.34902048
66	0x3f01b897	0.50672287
67	0xbe518f1d	-0.2046475
68	0xbc8c4510	-0.017122775
69	0x3f33cf71	0.70238405
70	0xbeb57559	-0.35441092
71	0xbf7cb4bb	-0.9871327
72	0x40143c89	2.3161948
73	0x3fd77813	1.6833519
74	0x3fe08edc	1.7543597
75	0xbdd6643f	-0.10468339
76	0xbedbeda4	-0.42954743
77	0xbf09ac7f	-0.53778833
78	0xbfea9ba4	-1.8328748
79	0xbfe35815	-1.7761256
80	0xbfb40eb9	-1.4066993
81	0x3e31be34	0.17357713
82	0xbf078f8a	-0.529534
83	0xbe8c2886	-0.27374667
84	0x3e858d73	0.2608448
85	0xbf19854b	-0.59969014
86	0x3ef6f0e3	0.48230657
87	0xbeda83e9	-0.42678764
88	0xbf1cb1c7	-0.61208767
89	0x3f28526d	0.6575077
90	0x3f0c3af3	0.5477745
91	0x3efb5e94	0.49095595
92	0x3e8378bd	0.25678053
93	0x3ebf3f8f	0.3735318
94	0xbd571c9a	-0.05251751
95	0xbd9cf7b6	-0.076644346
96	0x3e737721	0.23775913
97	0xbda8eb8e	-0.082480535
98	0x3e681d95	0.22667535
99	0x3e5ccd2a	0.21562639
100	0x3cbd7354	0.023126282
101	0x3e485d90	0.19566941
102	0xbd31055e	-0.04321801
103	0x3e364b51	0.17802168
104	0x3ec172ec	0.3778299
105	0x3d35ed88	0.04441598
106	0x3e6d6a3c	0.23185056
107	0x3e80a43d	0.25125304
108	0x3e8cf97d	0.27534094
109	0xbe8c51f5	-0.27406278
110	0xbee3fb99	-0.4452789
111	0x3f693cda	0.9110848
112	0x3f32db97	0.6986632
113	0x3f8a7f0e	1.0820024
114	0xbedaab66	-0.42708892
115	0xbea8969f	-0.32927415
116	0x3e5b81c6	0.21436223
117	0x3f38adcf	0.7214021
118	0x3d66ed48	0.056378633
119	0x3f716138	0.9428897
120	0x3edd5f44	0.43236744
121	0xbe2edc33	-0.17076187
122	0x3ee97683	0.4559823
123	0x3ef7cf31	0.48400262
124	0xbd7226cd	-0.059119035
125	0x3f572069	0.8403383
126	0x3fb4632f	1.4092768
127	0x3f50c586	0.81551397
128	0x3fd3dc04	1.6551518
129	0x3f8804d7	1.0626477
130	0x3eed81f1	0.463882
131	0x3fa46c2f	1.2845515
132	0x3f2b540f	0.6692514
133	0x3f0509d7	0.5196814
134	0x3fbdeb58	1.4837446
135	0x3e601741	0.2188387
136	0xbea8068d	-0.32817498
137	0xbf8ff70b	-1.1247267
138	0xbe815716	-0.25261754
139	0xbe8f40bc	-0.27979076
140	0xbf09ce6c	-0.538306
141	0x3e1e484c	0.15457267
142	0x3eb407e2	0.35162264
143	0x3f7c867a	0.98642695
144	0xbfcbc35b	-1.5918993
145	0xbf62955f	-0.8850917
146	0xbf2ab626	-0.66684186
147	0xbfcbe389	-1.5928813
148	0xbf97f93c	-1.1872935
149	0xbf22b6e8	-0.6356034
150	0xbdf5a0b5	-0.11993543
151	0xbf1e2ede	-0.61790264
152	0x3f533c1e	0.82513607
153	0xbfdde900	-1.7336731
154	0xbfc946b4	-1.5724702
155	0xbfd07fdf	-1.6289023
156	0xbfaaaeeb	-1.3334631
157	0xbfc278ff	-1.5193175
158	0xbfcefa86	-1.6170204
159	0x3ed9dc7c	0.4255103
160	0x3f00dd6c	0.5033786
161	0xbedca031	-0.43090966
162	0x3ead7055	0.33874765
163	0x3f8b1455	1.086558
164	0x3fc59198	1.5435057
165	0xbf0eeea2	-0.55832875
166	0xbbcf2d58	-0.006322544
167	0xbdb5eac5	-0.08882669
168	0x3eb9f485	0.36319366
169	0x3ea65c4c	0.32492292
170	0xbee1ddbc	-0.44114482
171	0xbf84f263	-1.038647
172	0xbf0ae4d1	-0.54255396
173	0x3bb9c5e6	0.0056693433
174	0xbdef7c2e	-0.11693607
175	0xbe9cf8ac	-0.30658472
176	0xbeb01558	-0.34391284
177	0x3f2a453e	0.66511905
178	0x3ec0fe7d	0.3769416
179	0x3da12715	0.078687824
180	0xbf46d732	-0.7767211
181	0xbfaefc70	-1.3670788
182	0xbf7e02fe	-0.99223316
183	0xbe3eb9e2	-0.18625596
184	0xbf190664	-0.59775376
185	0xbe347553	-0.1762288
186	0x3f55d65d	0.8353022
187	0x3f1a6972	0.60317147
188	0x3fa27752	1.2692664
189	0x3f7e76dc	0.99400115
190	0xbf249ab1	-0.6429854
191	0xbfeef31a	-1.8667939
192	0x3f9bf25e	1.218334
193	0x3d729478	0.059223622
194	0xbfa40cfd	-1.2816464
195	0xbde3edd3	-0.11129346
196	0xbf0c8c24	-0.5490134
197	0xbfabfaaa	-1.3435872
198	0x3f7736b7	0.96567863
199	0x3ebd524e	0.36976856
200	0xbe46d8f7	-0.19418703
201	0x3f0bcf5e	0.5461329
202	0x3d2b14c8	0.041767865
203	0xbed7d678	-0.42155814
204	0x3f07eaaf	0.53092474
205	0x3d34c01b	0.04412852
206	0xbf271121	-0.6526051
207	0x3f366f74	0.71263814
208	0xbde85bc1	-0.11345626
209	0xbf3b935d	-0.73271734
210	0x3e105c08	0.14097607
211	0xbe410046	-0.1884776
212	0xbe9c22bb	-0.30495247
213	0x3f22545b	0.63409966
214	0x3d482b50	0.04886943
215	0x3f1b5ed2	0.6069156
216	0xbfbae119	-1.4599944
217	0xbf761ca7	-0.9613747
218	0xbf8ba195	-1.0908686
219	0xbf4f7175	-0.81032497
220	0xbec7db80	-0.39034653
221	0xbda69660	-0.081341505
222	0xbf901ac3	-1.1258167
223	0xbee597f5	-0.44842497
224	0xbd4a6c0d	-0.04941945
225	0x3e8a1f42	0.26976973
226	0x3e35d134	0.17755586
227	0xbdc4870a	-0.09596069
228	0xbf2c3719	-0.6727157
229	0x3ed47f06	0.4150316
230	0x3eaaf477	0.33389637
231	0xbff7cc54	-1.9359231
232	0xbf481f36	-0.78172624
233	0xbf5f6526	-0.87263715
234	0x3f624eab	0.8840129
235	0x3eca429a	0.39503938
236	0xbf27e453	-0.6558277
237	0x3f988ee1	1.1918603
238	0x3f6d1c26	0.92621076
239	0xbef5e9d7	-0.48029968
240	0x3f076363	0.5288603
241	0xbe2c355a	-0.16817227
242	0xbf607750	-0.87682056
243	0x3e97a311	0.29616597
244	0xbe887157	-0.2664897
245	0xbea7cd64	-0.32773888
246	0x3f0b60ff	0.5444488
247	0x3dcb5dab	0.09929975
248	0x3f04885a	0.51770556
249	0x3e11058f	0.14162277
250	0xbf0e0a2f	-0.5548429
251	0xbf32cdcc	-0.6984527
252	0xbe3e2c52	-0.18571594
253	0x3ed49cc5	0.41525856
254	0x3fa19f5d	1.2626759
255	0xbd9904d8	-0.07471627

weight f4 [16]
0	0x40bed44e	5.963416
1	0x40c2ced1	6.087746
2	0x40d189a9	6.548054
3	0x40c6f9b4	6.2179813
4	0x40b60cdd	5.68907
5	0x40d60f29	6.6893506
6	0x40b6cbde	5.712386
7	0x40a95687	5.2918124
8	0x40e70dc9	7.2204328
9	0x40c5bf0e	6.179572
10	0x40c79557	6.23698
11	0x40b9a8c9	5.8018537
12	0x40c0f12e	6.029441
13	0x40d41f5a	6.628827
14	0x40d888dd	6.766707
15	0x40c7f1e1	6.248276

bias f4 [16]
0	0xbd8b951f	-0.06815552
1	0x3ef3b59f	0.47599503
2	0xbed96ff3	-0.42468223
3	0xbd6e9f99	-0.058257673
4	0x3e62d228	0.22150481
5	0xbe2a7064	-0.16644436
6	0x3f8ae591	1.0851308
7	0x3fb83f0a	1.4394238
8	0x3f21ccda	0.63203204
9	0xbdac32e2	-0.084081426
10	0xbd2b9fcd	-0.041900445
11	0xbee84b85	-0.45370117
12	0x3f5e7f9d	0.8691347
13	0x3e4c1782	0.19930843
14	0xbe751cf2	-0.23936823
15	0x3e32a2e8	0.17444956

running_mean f4 [16]
0	0xc025a039	-2.5879042
1	0x3ded4f33	0.11587372
2	0x3fca0af0	1.5784588
3	0x3f32e0a6	0.69874036
4	0xbf855c1c	-1.0418735
5	0xc0385bfd	-2.8806145
6	0x3fd7d11a	1.6860688
7	0x406281fc	3.5391836
8	0xc026f7d7	-2.608877
9	0xc0364838	-2.848158
10	0xbf19f017	-0.60131973
11	0xbd146fbb	-0.036239367
12	0x3f15e930	0.5855894
13	0xbe90e6f8	-0.28301215
14	0xbf8c288d	-1.0949875
15	0xbfee1cfc	-1.8602595

running_var f4 [16]
0	0x41f931c9	31.14931
1	0x41f0df57	30.109053
2	0x423d78c7	47.367947
3	0x41d5b406	26.712902
4	0x41f4cbbb	30.599478
5	0x41fe436d	31.782923
6	0x42091491	34.270084
7	0x421d3cf9	39.309544
8	0x42073e78	33.811005
9	0x41f1684f	30.175932
10	0x41bd0112	23.625523
11	0x42045116	33.079185
12	0x42000357	32.00326
13	0x41f880c2	31.06287
14	0x41fb970f	31.44876
15	0x41e8a0f7	29.078596

weight f4 [10, 16]
0	0xbf132358	-0.57475805
1	0x3eaec03b	0.34131035
2	0xc0ac46ce	-5.383643
3	0x3eaf4cc3	0.34238252
4	0xc044244d	-3.0647156
5	0xbf5690be	-0.8381461
6	0x3fe8d19b	1.8188967
7	0xc009b74f	-2.1518133
8	0x4044503b	3.0673969
9	0x3eb0b533	0.34513244
10	0x3fd3f0be	1.6557844
11	0x3ef24829	0.4732068
12	0x3f2539fe	0.64541614
13	0xbf484bae	-0.7824048
14	0xc045b6cb	-3.0892818
15	0x3f890ceb	1.0707067
16	0xc021444d	-2.5197937
17	0xbe7cb5ca	-0.24678722
18	0xbfd1be97	-1.6386288
19	0x4002c37b	2.0431812
20	0xbf381e26	-0.71921
21	0xc06233d4	-3.5344133
22	0x3e0ecee1	0.13946106
23	0x401f0e1c	2.4852362
24	0x3ff6cfcf	1.9282168
25	0xc043974a	-3.056109
26	0xc027ecab	-2.62382
27	0xc0762c28	-3.846445
28	0x3fd362c3	1.6514515
29	0x3fa6031d	1.29697
30	0x3f8203cf	1.0157412
31	0xbff3da4d	-1.9050995
32	0xbfe282b1	-1.7696134
33	0xbe8c3ded	-0.27390996
34	0x3f199e55	0.6000722
35	0x402186bf	2.5238492
36	0x3e9eeaaf	0.31038424
37	0x3f4cd2e3	0.8000929
38	0x40333c30	2.8005486
39	0xbfb63832	-1.42359
40	0xbf1c17da	-0.60973895
41	0x3ffc067c	1.9689479
42	0xc00005ef	-2.0003622
43	0x3fd9ed64	1.7025571
44	0xbfcd87d0	-1.6057072
45	0x3eb59f4f	0.35473105
46	0xbfa95293	-1.3228325
47	0xc03860c1	-2.8809054
48	0x402f6415	2.7404835
49	0xc0034520	-2.051094
50	0x3ff98622	1.9494059
51	0x3fcac847	1.584237
52	0x4044604c	3.0683775
53	0xbd67e7f7	-0.056617703
54	0xc00510ad	-2.0791428
55	0xbfaed12b	-1.3657583
56	0xbfa8cd2b	-1.3187612
57	0xc03bd6cd	-2.9349854
58	0x3ee7b021	0.45251563
59	0x3e044b0b	0.12919252
60	0xc0221ea4	-2.5331202
61	0x402f9043	2.74318
62	0xc03c746a	-2.9446054
63	0x3f0128c7	0.50452846
64	0x3f962903	1.1731266
65	0x4033e4ae	2.8108325
66	0x3e32327e	0.17402074
67	0xbff1ec92	-1.890032
68	0x3eb87fa6	0.36034888
69	0xbe7a8d65	-0.24468
70	0xbfb55b4d	-1.4168488
71	0xbfb38504	-1.4024968
72	0x3fdf3baf	1.7440089
73	0x3fa29057	1.2700299
74	0xc085fcbc	-4.1871014
75	0xc0849526	-4.1432066
76	0xbe065e7c	-0.1312198
77	0x3f77608e	0.96631706
78	0x40011b64	2.0172968
79	0xbfe20551	-1.7657872
80	0x3e8170ae	0.2528128
81	0xbf84dc4f	-1.0379733
82	0xbf207515	-0.62678653
83	0x3dc7ef68	0.0976246
84	0xbf6fa5a9	-0.9361215
85	0xbfaf874c	-1.3713164
86	0xbe436e34	-0.19085008
87	0x3fd2d2ef	1.6470622
88	0xc070b578	-3.761076
89	0xc0032918	-2.0493832
90	0x40301ad3	2.7516372
91	0xbeb03610	-0.34416246
92	0xbfcf73e9	-1.6207248
93	0x3f708ff4	0.93969655
94	0x401bf00a	2.4365258
95	0x3fe632d2	1.7984259
96	0xc05770ea	-3.3662667
97	0x3fd39e1f	1.653263
98	0xc04e9600	-3.2279053
99	0xbf34441c	-0.70416427
100	0xc0730612	-3.7972455
101	0x400921b0	2.1426811
102	0x3f0e62be	0.5561942
103	0xbece3cef	-0.40280864
104	0xc0541b00	-3.314148
105	0x40249785	2.571748
106	0xbec42513	-0.38309535
107	0xbfa3c6de	-1.2795064
108	0x4012f5d2	2.2962537
109	0x3fdc811d	1.7226902
110	0xbe8d6c73	-0.27621803
111	0x3faed7e6	1.3659637
112	0x3f19c828	0.6007104
113	0xbd2fe95a	-0.04294715
114	0x4032a9e3	2.791619
115	0xbf1a79c3	-0.60342044
116	0x3f40fd02	0.7538606
117	0xc0bc1c19	-5.87843
118	0xbffc20e9	-1.9697543
119	0x3ea19432	0.31558377
120	0x3f2ed1b5	0.6828874
121	0xc00b0007	-2.1718767
122	0x3f0caa32	0.549472
123	0x40483ed5	3.128835
124	0x3fe3df2f	1.7802485
125	0xbfadc14b	-1.3574613
126	0x3f449c74	0.7680123
127	0xc042cfe1	-3.043938
128	0x3ffc4e89	1.9711467
129	0xc081a233	-4.0510497
130	0x3eb88fff	0.3604736
131	0xbf6d69e4	-0.927397
132	0xbeefd27a	-0.46840268
133	0x40023122	2.0342488
134	0x3daf19b8	0.08549827
135	0xbf51a61b	-0.8189408
136	0xbf045782	-0.51696026
137	0x3fb0510e	1.3774736
138	0xbf3341ac	-0.7002208
139	0xbed7da25	-0.4215862
140	0xbf3b0ec7	-0.73069423
141	0xc027b371	-2.6203272
142	0x3ecaf7cb	0.39642176
143	0x40416f04	3.0224009
144	0xbd803141	-0.062593944
145	0x3f9df988	1.2341776
146	0x3f7c9b59	0.9867454
147	0xc06250cd	-3.5361817
148	0x3fc54a83	1.5413364
149	0x3fef189e	1.8679388
150	0xbfd5dc34	-1.6707826
151	0x3fc870c6	1.5659416
152	0x3fba2c63	1.4544796
153	0xbf464478	-0.77448225
154	0x3fc17d9f	1.5116462
155	0x3e9263e8	0.28591847
156	0xbf5c2946	-0.8600048
157	0xc0848c4e	-4.142127
158	0xbf97e299	-1.1866027
159	0xbf1c86f9	-0.6114345

bias f4 [10]
0	0x3e3e4470	0.18580794
1	0x3f851f0e	1.0400102
2	0xbeb992d3	-0.3624483
3	0xbec7c8a0	-0.39020252
4	0xbf568344	-0.83794045
5	0xbf0146ad	-0.5049847
6	0x3e807ee9	0.25096825
7	0x3e9cdcb6	0.3063714
8	0xbe105017	-0.14093052
9	0x3e843df8	0.25828528
