NTUT_111-1/Code/mlp.onnx (onnx, 336666 bytes, 8 tensors)

mlp.0.weight f4 [96, 784]
0	0xbc270618	-0.010194324
1	0x3c82ec50	0.015981823
2	0xbc69be8a	-0.014266619
3	0xbcea7f58	-0.028625175
4	0xbc05fe8a	-0.008178363
5	0xbb3a1b30	-0.0028397553
6	0x3cf83dae	0.030302849
7	0xbc9fb113	-0.019493615
8	0x3ca156ee	0.019694772
9	0xbc9eaa43	-0.019368296
10	0x3cc50a6e	0.024052825
11	0x3cabdefa	0.020980347
12	0x3d101427	0.03517547
13	0x3c4a2898	0.01233878
14	0x3c8c57f2	0.01713178
15	0xbc99dfa3	-0.018783396
16	0xbcfdee9c	-0.030997567
17	0xbb169810	-0.002297882
18	0x3b8c61e8	0.0042841323
19	0xbb1ed290	-0.0024234392
20	0x3c7a7a3c	0.015287932
21	0x3becd2f0	0.007227294
22	0x3caddccc	0.021223448
23	0xbcdea763	-0.027179426
24	0xbcadc95a	-0.021214176
25	0xbcd19503	-0.02558375
26	0x3cdd28ca	0.026996989
27	0x3bf07428	0.0073380657
28	0x3c3fcfd0	0.011707261
29	0x3bfd2120	0.007724896
30	0xbb8cdc78	-0.004298743
31	0x3c2cbabc	0.010542568
32	0xbcdbaf23	-0.02681691
33	0x3d06478f	0.032783087
34	0x3c89e304	0.016831882
35	0x3ca9891e	0.020695265
36	0xbcb040e0	-0.02151531
37	0x3c788850	0.015169218
38	0x3bcd9830	0.0062742457
39	0xbcf8ab65	-0.030355165
40	0x3c1b875c	0.009492721
41	0xbc9e43dc	-0.019319467
42	0xbcf86bb8	-0.030324802
43	0xbc5444ee	-0.012955887
44	0xbb8e0ff0	-0.004335396
45	0xbd00561f	-0.03133213
46	0xbcc5f730	-0.02416572
47	0x3cd97f30	0.026549906
48	0x3c25c4f8	0.010117762
49	0xbc023e4a	-0.007949421
50	0xbce90cd1	-0.028448494
51	0x3c1eaf50	0.009685352
52	0x3b99b638	0.0046909116
53	0xbcfe8388	-0.031068578
54	0x3bcaa9e0	0.0061848015
55	0xbcaaf5cc	-0.020869158
56	0xbcf6989c	-0.030102067
57	0xbbd1fd9c	-0.0064084064
58	0xbb2c8ce0	-0.0026329085
59	0xbcd73fd8	-0.02627556
60	0x3cbd56ae	0.023112621
61	0xbc821cb7	-0.015882833
62	0xbc6aa958	-0.014322601
63	0xbb88b558	-0.0041720085
64	0xbc0b3af2	-0.00849794
65	0x3c8ca32a	0.017167646
66	0xbce8f5da	-0.028437544
67	0x3b375980	0.002797693
68	0x3ca4ed26	0.020132612
69	0xbc9e2497	-0.019304557
70	0x3a38f740	0.0007055886
71	0xbc24554a	-0.0100301
72	0xbcc7f63e	-0.02440941
73	0x3c022130	0.007942483
74	0x3d0c1683	0.034201156
75	0xbc5cf672	-0.0134864915
76	0x39312f00	0.00016897544
77	0xbc4a3be6	-0.012343382
78	0xbd017b2f	-0.031611618
79	0x3c868b92	0.016423974
80	0xbcd8f895	-0.02648572
81	0x3c3ec844	0.011644427
82	0x3c83c8d4	0.016086973
83	0x3d10e6b3	0.035376262
84	0x3c91c7b0	0.017795414
85	0xbbd5c414	-0.0065236185
86	0xbc469fc6	-0.012123054
87	0x3c47cc30	0.012194678
88	0xbcfe1a48	-0.031018391
89	0x3cd25ad2	0.025678072
90	0xbd05862a	-0.032598652
91	0xbaba8100	-0.0014229119
92	0x3cd43476	0.025903922
93	0xbd04ab1c	-0.032389745
94	0x3cb7d0cc	0.02243843
95	0xbc517600	-0.012784481
96	0x3cd5daa6	0.026105236
97	0x3cf2caaa	0.029637653
98	0xbd044d5a	-0.03230033
99	0xbb8a4188	-0.0042192377
100	0x3cf5eaf2	0.030019257
101	0xbcde8cae	-0.02716669
102	0x3c4e7314	0.012600679
103	0xbce23913	-0.027615106
104	0x3bab1068	0.0052204616
105	0x3cd1e4bc	0.025621764
106	0xbd0bd42d	-0.034137893
107	0xbd09b11c	-0.03361617
108	0x3d0f1ba9	0.03493849
109	0x3c89d73e	0.016826268
110	0x3cc14f0c	0.023597263
111	0x3bdfbd28	0.006827969
112	0xbb62c650	-0.0034603067
113	0xbc676dd2	-0.014125304
114	0xbc49a4d8	-0.012307368
115	0xbca827f0	-0.020526856
116	0xbafe7660	-0.0019413941
117	0x3d02cb93	0.031932425
118	0x3d05bfaf	0.032653507
119	0xbcc5fe2c	-0.02416905
120	0x3c31815c	0.010834064
121	0x3b9d3278	0.004797276
122	0xbc87446c	-0.016512118
123	0x3d004bbb	0.031322222
124	0xbc6342c6	-0.0138709005
125	0x3cd7efea	0.026359517
126	0x3cd700b2	0.026245449
127	0x3b572270	0.0032826923
128	0x3d032af7	0.032023396
129	0x3ca25142	0.019814137
130	0xbc824025	-0.015899727
131	0xbcf9843a	-0.030458558
132	0xbbd5ad5c	-0.00652091
133	0xbcef6f53	-0.029227888
134	0x3c49fc90	0.012328282
135	0x3c02ebd0	0.007990792
136	0x3c140134	0.00903349
137	0xbbdcee88	-0.0067423023
138	0xbc7c2b7c	-0.015391227
139	0x3c65995c	0.0140136145
140	0x3b05ab10	0.002039615
141	0x3c334918	0.01094272
142	0x3ccc14ba	0.024912227
143	0xbb9c1d54	-0.0047642384
144	0x3c650b48	0.01397974
145	0xbcbfa7de	-0.023395475
146	0xbd083085	-0.033249397
147	0xbba1275c	-0.004918022
148	0xbcd9ba0a	-0.026577968
149	0x3cef1486	0.029184591
150	0xbcc8e5c0	-0.024523616
151	0x3c4cc69c	0.012498524
152	0xbc9f8065	-0.019470403
153	0x3cb421f2	0.021988843
154	0x3baebaf8	0.005332347
155	0xbcb45143	-0.022011405
156	0x3b4af150	0.0030966587
157	0x3b1c5f70	0.0023860596
158	0x3ca8a7d2	0.020587835
159	0x3c208154	0.009796459
160	0xbd01b9ab	-0.031671207
161	0x3ca48c3c	0.0200864
162	0x3ca2ef6c	0.019889556
163	0xbcdad34e	-0.026712086
164	0x3c189b54	0.009314377
165	0xbcc4425e	-0.023957428
166	0xbcb5ca63	-0.022191232
167	0x3c10be30	0.008834407
168	0x3d0b96e7	0.03407946
169	0xbb9da830	-0.0048113093
170	0xbbf27c5c	-0.0074000787
171	0x3cb2744a	0.021783967
172	0xbcec8cb5	-0.028875688
173	0x3c06aaa8	0.008219399
174	0xbcf3f431	-0.029779525
175	0x3bc3dc50	0.005977191
176	0x3d06d5ad	0.03291862
177	0xbc8ed2fa	-0.017434586
178	0xbb80bd70	-0.0039288327
179	0xbce4c971	-0.027928086
180	0x3c100c68	0.00879202
181	0x3c13f6f0	0.009031042
182	0x3ca4f7aa	0.020137627
183	0x3bd027f0	0.006352417
184	0xbb24f450	-0.0025170036
185	0xbbb062c0	-0.0053828657
186	0xbcdf001a	-0.027221728
187	0xbc5a0218	-0.013306163
188	0x3b8cbdd8	0.004295092
189	0x3c2cb1bc	0.010540422
190	0xbcc9cefe	-0.024634834
191	0xbb7c88e0	-0.0038533732
192	0xbc9ce747	-0.01915325
193	0x3d0fd203	0.035112392
194	0xbcdc7c9c	-0.026914887
195	0x3ba167a8	0.004925687
196	0x3c843300	0.0161376
197	0xbcc9f5fc	-0.024653427
198	0x3c03f654	0.008054335
199	0xbbad6d80	-0.0052925944
200	0x3b9bdeb0	0.004756771
201	0xbce57e18	-0.028014228
202	0x3c916a24	0.017750807
203	0xbd08ccbe	-0.033398382
204	0x3cb240e0	0.02175945
205	0x3c548b5c	0.012972679
206	0x3c233a40	0.009962618
207	0x3cc5020c	0.024048828
208	0xbcc47d25	-0.023985455
209	0x3bf8c120	0.0075913817
210	0xbc8d9e87	-0.017287506
211	0x3b6f97d0	0.0036558993
212	0xbcb22ec3	-0.021750813
213	0x3c351464	0.011052225
214	0x3cdf4cca	0.027258296
215	0xbc7d1886	-0.015447741
216	0xbbae6370	-0.0053219125
217	0xbca68e85	-0.02033163
218	0x3cd196da	0.025584627
219	0x3ca97d5e	0.020689663
220	0x3a080c40	0.00051898137
221	0xbcf94988	-0.03043057
222	0x3c999f00	0.018752575
223	0xbc0789ea	-0.008272627
224	0xbd00192b	-0.031274002
225	0xbc21a0c0	-0.009864986
226	0x3c801ab0	0.015637726
227	0xbce00ac3	-0.027348882
228	0x38dfb600	0.00010667369
229	0x3b762190	0.0037556626
230	0x3b11ece0	0.0022266433
231	0xbd0955a7	-0.03352895
232	0x3c0160dc	0.007896628
233	0x3c2def50	0.010616139
234	0xbd0694a0	-0.032856584
235	0xbcebcf7e	-0.028785463
236	0xbccbc33c	-0.024873368
237	0xbcc69958	-0.024243042
238	0xbcf3de75	-0.029769162
239	0x3c9a5686	0.018840086
240	0x3c95c9a2	0.018284623
241	0x3ca2da10	0.01987937
242	0xbd06a46b	-0.032871645
243	0x3d0bb267	0.034105685
244	0x3c26d380	0.0101822615
245	0xbce0386e	-0.027370658
246	0x3d0253fb	0.03181837
247	0x3c305258	0.01076182
248	0x3b1075b0	0.0022042803
249	0x3cec4976	0.028843623
250	0x3b868968	0.0041057356
251	0xbc203d80	-0.009780288
252	0x3bae2e50	0.0053155795
253	0x3be30690	0.0069282725
254	0x3cde63a6	0.027147125
255	0xbcae4a4c	-0.021275662

mlp.0.bias f4 [96]
0	0xbbe99bd4	-0.007129172
1	0xbc9ec12c	-0.01937922
2	0x3d0368d3	0.03208239
3	0x3c0008d0	0.007814601
4	0x3c2950e4	0.010334227
5	0xbc391660	-0.0112968385
6	0x3cd80a98	0.026372239
7	0x3d069af7	0.03286263
8	0xbc759a54	-0.014990408
9	0x3c0a5314	0.008442659
10	0xbc4a57b2	-0.01235001
11	0xbcb175b3	-0.021662569
12	0x3cd26a42	0.025685433
13	0xbcc51a2c	-0.024060331
14	0xbc492e8a	-0.012279162
15	0xbb996cdc	-0.0046821665
16	0x3be3e588	0.0069548525
17	0x3c207450	0.009793356
18	0xbcc0e485	-0.023546467
19	0x3cfc9f66	0.030837726
20	0x3c1f3054	0.009716112
21	0x3c8f4f24	0.017493792
22	0xbbe13808	-0.0068731345
23	0x3cc1ac50	0.023641735
24	0xba0c9980	-0.00053634495
25	0xbc981bb3	-0.018567896
26	0x3c7dc120	0.015487939
27	0x3c398e88	0.011325486
28	0xbd0a4cff	-0.033764835
29	0x3c75403c	0.014968928
30	0x3cbbeda2	0.02294046
31	0xbb50a7a0	-0.0031838194
32	0xbc2cd8fc	-0.01054978
33	0x3ca3a1fc	0.019974701
34	0xbd1001cd	-0.035157967
35	0x3ce02752	0.0273625
36	0xbacf1020	-0.0015797652
37	0xbb6e4b90	-0.0036360957
38	0x3cef0b3e	0.029180165
39	0xbc28b20a	-0.010296354
40	0x3cafd720	0.021464884
41	0x3d00bd45	0.0314305
42	0xbca773c5	-0.020440945
43	0xbbbb45b8	-0.005715098
44	0x3ce8878e	0.02838495
45	0xbadef640	-0.0017010644
46	0x3cfdc082	0.030975584
47	0x3cdca4b6	0.026934009
48	0xbcc7ede8	-0.024405435
49	0xbcebc018	-0.02877812
50	0xbaffec60	-0.0019525401
51	0xbcd3dc4a	-0.025861878
52	0xbc3943ea	-0.011307696
53	0x3caf3f50	0.021392494
54	0xbd00e3ab	-0.03146712
55	0xbb48c3e0	-0.0030634329
56	0x3c421060	0.011844724
57	0xbb702530	-0.003664326
58	0x3c9e910e	0.019356277
59	0x3c765e5c	0.015037145
60	0xbb9b2640	-0.0047347844
61	0x3cfac3be	0.030610915
62	0xbc9db9ea	-0.01925369
63	0xba52a000	-0.0008034706
64	0xbd0994f0	-0.033589303
65	0x3bf8a0c0	0.0075875223
66	0x3cd011a6	0.02539904
67	0xbc547a52	-0.012968617
68	0x3cbba1c6	0.022904288
69	0xbce88578	-0.028383955
70	0xbccc0343	-0.024903899
71	0x3c5ae900	0.013361216
72	0xbca04d2c	-0.019568048
73	0xbc34c918	-0.011034273
74	0xbcb5dc5a	-0.022199798
75	0xbae570e0	-0.0017504953
76	0x3c8bcbce	0.017064955
77	0x3c5ab890	0.013349667
78	0x3bb69030	0.0055713877
79	0x3ce027b2	0.027362678
80	0x3d00ac8b	0.03141455
81	0xbc6c0000	-0.014404297
82	0xbb17e8d0	-0.0023179539
83	0x3cce2528	0.025164202
84	0xbcc32ad3	-0.023824131
85	0xbc6840f2	-0.01417564
86	0xb9245900	-0.00015673414
87	0x3c982c3a	0.018575776
88	0x3c93f39a	0.018060494
89	0x38e42200	0.0001087822
90	0xbccdb350	-0.025109917
91	0x3c78f048	0.015194006
92	0xbcd6c263	-0.026215738
93	0xbd0ef10b	-0.034897845
94	0x3cbd9a4a	0.02314486
95	0x3c4459dc	0.011984315

mlp.2.weight f4 [64, 96]
0	0xbdcff4f2	-0.101541415
1	0x3daa88da	0.083268836
2	0xbaa12500	-0.0012294352
3	0xbdbcba1c	-0.09215185
4	0xbd202656	-0.03909906
5	0xbdb53795	-0.08848492
6	0x3d36b988	0.04461053
7	0x3d37a770	0.044837415
8	0x3da94744	0.08265546
9	0xbd9873be	-0.07443951
10	0xbd2c1182	-0.042008884
11	0x3dc06ba4	0.09395531
12	0x3d209aa0	0.039209962
13	0x3d832fd4	0.06405607
14	0xbcf168c8	-0.029468909
15	0xbcf045b4	-0.029330112
16	0x3c659440	0.014012396
17	0x3d2d7394	0.042346552
18	0xbd8046cc	-0.062635034
19	0x3dc301a4	0.09521797
20	0xbd612617	-0.054967966
21	0x3cc15c40	0.023603559
22	0xbdc9a062	-0.09845044
23	0xbbc79170	-0.0060903355
24	0xbca62db0	-0.020285457
25	0xbca177d4	-0.019710459
26	0x3cdf9dc0	0.0272969
27	0xbdc737cf	-0.097274415
28	0xbbb7b6a0	-0.0056064874
29	0x3dbc6b6c	0.092001766
30	0x3d702084	0.05862476
31	0xbd56df3c	-0.052458987
32	0xbcb30360	-0.021852195
33	0xbcebf640	-0.028803945
34	0x3da97f8e	0.08276282
35	0x3d60b558	0.054860443
36	0x3d4dd30c	0.050250098
37	0xbd2887fd	-0.041145314
38	0x3d21bbcc	0.039485738
39	0xbcbe253c	-0.023211114
40	0x3d47f6d8	0.048819393
41	0xbc8de494	-0.017320909
42	0x3da6bd0a	0.08141525
43	0xbdb08233	-0.086185835
44	0xbdcb2d5e	-0.099207625
45	0xbdc84a60	-0.09779811
46	0x3da49478	0.08036131
47	0xbd0788c2	-0.033089407
48	0xbdaeb208	-0.085300505
49	0xbd9357b5	-0.07194463
50	0xbdca1440	-0.09867144
51	0x3d21c73c	0.039496645
52	0x3cf1fd80	0.029539824
53	0xbd62570d	-0.0552588
54	0x3dcdc6b8	0.10047668
55	0xbda2bc8a	-0.07946117
56	0x3cc6fa00	0.024289131
57	0xbc01d678	-0.0079246685
58	0xbc82fe00	-0.015990257
59	0xbccf4fb0	-0.025306553
60	0x3d00a428	0.03140655
61	0x3bcade10	0.0061910227
62	0x3d95a224	0.073063165
63	0x3da2963c	0.07938811
64	0x3d618300	0.055056572
65	0x3ca81ff0	0.020523041
66	0x3c454cb0	0.0120422095
67	0x3d10bd90	0.03533703
68	0xbc5082a0	-0.012726456
69	0xbdb23c4e	-0.087029085
70	0x3cdc7450	0.02691093
71	0xbb047e20	-0.0020216778
72	0x3c676248	0.014122553
73	0xbc447570	-0.01199089
74	0x3db2d2ea	0.08731635
75	0xbb07dd20	-0.0020731166
76	0x3d63b8cc	0.055596158
77	0xbda6871b	-0.08131238
78	0x396fec00	0.00022880733
79	0x3d3ab120	0.045579076
80	0x3d8f3d0c	0.06994066
81	0xbbb2e700	-0.0054596663
82	0x3cd72640	0.026263356
83	0x3d45f134	0.048325732
84	0xbdcf95e9	-0.10136015
85	0xbda351f1	-0.079746135
86	0x3cca54f0	0.024698704
87	0xbdaff7d7	-0.085921936
88	0xbd42aa1b	-0.047525506
89	0x3dc66176	0.09686558
90	0xbcebec3c	-0.028799169
91	0x3c35aed0	0.011089042
92	0x3d933004	0.07186893
93	0x3d14d44c	0.036335275
94	0x3dcc125a	0.09964438
95	0xbd0102ce	-0.031496815
96	0x3dbe9d62	0.09307362
97	0xbda2bc3e	-0.079460606
98	0x3da96c20	0.08272576
99	0xbd893128	-0.06698829
100	0x3d84ef90	0.064910054
101	0x3db0d7a4	0.0863488
102	0xbd257fe8	-0.040405184
103	0xbd5a36f3	-0.05327506
104	0x3dcf5410	0.101234555
105	0xbd7bcf0f	-0.061476763
106	0x3c3ca050	0.011512831
107	0x3b6fd640	0.0036596209
108	0xbd72bfe7	-0.059265044
109	0xbcaa011c	-0.020752482
110	0x3d756888	0.059914142
111	0xbd4a9b80	-0.049464703
112	0xbd42e585	-0.047582168
113	0xbdbb4c30	-0.09145391
114	0x3d38e7dc	0.045142993
115	0x3d3dbcf8	0.046322793
116	0xbd9038d9	-0.07042093
117	0x3cb05b7c	0.021527998
118	0xbce77d6c	-0.028258048
119	0x3d680098	0.05664119
120	0x3cb24f30	0.021766275
121	0x3aedc500	0.0018140376
122	0xbd951b8b	-0.07280644
123	0xbdbb1863	-0.09135511
124	0x3c8482b4	0.016175605
125	0xbd10f7ee	-0.035392694
126	0xbcec51e0	-0.028847635
127	0xbd275843	-0.040855657
128	0xbdb4c001	-0.08825684
129	0xbdcc1e47	-0.099667124
130	0x3c8c3c14	0.017118491
131	0x3d4062f0	0.046969354
132	0x3db24618	0.087047756
133	0x3da36384	0.079779655
134	0xbcc09db4	-0.023512699
135	0xbdb89db8	-0.090144575
136	0xbc7be6e8	-0.015374877
137	0xbd534a60	-0.0515846
138	0xbd25296f	-0.040322717
139	0x3da1d300	0.07901573
140	0x3c0f0ef0	0.008731589
141	0xbd85247c	-0.065010995
142	0xbdb3f788	-0.08787447
143	0xbdc75a91	-0.09734071
144	0x3d45a304	0.048251167
145	0x3bfd8060	0.0077362508
146	0xbcac5c10	-0.021039993
147	0x3bc05200	0.00586915
148	0x3d29524c	0.04133825
149	0x3dbb0908	0.09132582
150	0x3db73268	0.08945161
151	0x3d57d99c	0.052697763
152	0xbd7fe126	-0.062470578
153	0x3d9b1f44	0.07574323
154	0xbc31f938	-0.010862641
155	0x3db7b6ee	0.08970438
156	0x3d4c5d24	0.049893513
157	0xbd7b1491	-0.06129891
158	0xbd01f948	-0.031731874
159	0xbc96f9c4	-0.018429644
160	0x3dbee5b8	0.09321159
161	0x3d9275c6	0.0715137
162	0xba351400	-0.0006907582
163	0xbd09cac6	-0.033640645
164	0x3d9adda2	0.07561804
165	0xbd89b2f0	-0.06723583
166	0xbdb381f2	-0.087650195
167	0x3cb41760	0.021983802
168	0x3dc10318	0.09424418
169	0xbdcc66ce	-0.09980546
170	0xbd0d79f0	-0.034540117
171	0x3dacd8f8	0.08439821
172	0xbd52c31b	-0.0514556
173	0xbd9075b4	-0.070537
174	0xbd33e0f4	-0.043915704
175	0x3ce8c750	0.028415352
176	0xba63ea00	-0.00086942315
177	0x3cba9da8	0.022780254
178	0x3c874f28	0.016517237
179	0xbbf61cc0	-0.0075107515
180	0x3c4622c0	0.012093246
181	0x3d31a22c	0.04336755
182	0x3cd25648	0.025675908
183	0x3cc18760	0.023624122
184	0x3d811260	0.06302333
185	0x3db9ab2e	0.09065853
186	0x3dbfcb58	0.093649566
187	0xbd929790	-0.071578145
188	0x3b546b40	0.0032412559
189	0x3dcd7854	0.100327164
190	0x3db5f4f0	0.08884609
191	0xbdc8c638	-0.09803432
192	0x3c2ce068	0.0105515495
193	0x3daa813a	0.08325429
194	0x3c883c80	0.016630411
195	0x3d8e57d0	0.06950343
196	0x3da74156	0.08166759
197	0x3daaca3a	0.08339353
198	0x3dbacd44	0.091211826
199	0x3db445bc	0.08802363
200	0x3b50a700	0.003183782
201	0x3dc258d4	0.09489599
202	0xbcbb30cc	-0.022850417
203	0x3d8ec2f4	0.06970778
204	0x3c59f318	0.013302587
205	0x3d7081b8	0.05871746
206	0xbcbe5468	-0.023233607
207	0xbc4d3c60	-0.012526602
208	0xbd68e736	-0.056861125
209	0xbd87e0ca	-0.06634672
210	0x3d815aca	0.06316145
211	0x3cb6afe8	0.022300676
212	0x3cf75570	0.030192107
213	0xbd0b63e0	-0.034030795
214	0xbdb42d6e	-0.087977275
215	0xbd8b36b6	-0.06797545
216	0xbd915b1b	-0.07097455
217	0x3d160b70	0.036632
218	0x3d96d09c	0.07364008
219	0xbd91f7ba	-0.07127328
220	0xbdbd0666	-0.09229736
221	0x3d74ef18	0.05979833
222	0x3d8df73a	0.0693192
223	0x3d6b5600	0.057455063
224	0xbcdfe150	-0.027329117
225	0x3d8761da	0.066104606
226	0x3c5bd5e8	0.013417698
227	0xbd3f194a	-0.046654977
228	0xbd84f0a3	-0.0649121
229	0xbd27cdac	-0.04096763
230	0x3d84e6e6	0.06489353
231	0x3b3dffe0	0.0028991625
232	0x3dcb191c	0.099168986
233	0xbc90455c	-0.017611198
234	0xbca8a68c	-0.020587228
235	0x3d83dfd0	0.06439173
236	0x3d20139c	0.0390812
237	0x3d7bd81c	0.061485395
238	0xbd9111ef	-0.07083499
239	0x3b3347e0	0.0027356073
240	0x3d4f7800	0.05065155
241	0xbdb50de6	-0.088405415
242	0xbdbb24be	-0.091378674
243	0x3d7b6490	0.0613752
244	0x3dbb7350	0.091528535
245	0x3b7ac2c0	0.0038263053
246	0xbd7fabfa	-0.06241987
247	0x3dcc7e80	0.099850655
248	0xbd8deda0	-0.06930089
249	0xbd2b5987	-0.041833427
250	0x3c6712e0	0.014103621
251	0x3d4d1b10	0.050074637
252	0x3d8045e4	0.062633306
253	0xbd164fe4	-0.036697283
254	0x3daa3ec0	0.0831275
255	0xbd8473e6	-0.064674184

mlp.2.bias f4 [64]
0	0x3d096410	0.033542693
1	0x3d8b0dd4	0.06789747
2	0xbd5434c6	-0.05180814
3	0xbd5fab91	-0.054606978
4	0xbd8edb91	-0.06975473
5	0xbd2110f6	-0.039322816
6	0x3d7b6780	0.061378002
7	0xbc84b000	-0.016197205
8	0xbd96a693	-0.0735599
9	0xbc5106b0	-0.012757942
10	0x3c0b6040	0.0085068345
11	0x3d186cf0	0.037213266
12	0xbd2b40fb	-0.041810017
13	0x3b9f6af0	0.004865043
14	0xbb9e5ce0	-0.004832849
15	0x3cb18e4c	0.021674298
16	0x3d97aa12	0.07405485
17	0x3db0cb4e	0.08632527
18	0xbd8b2d61	-0.06795765
19	0xbd549fc6	-0.051910184
20	0xbca81254	-0.020516552
21	0xbd1282ba	-0.0357692
22	0x3d10a28c	0.035311267
23	0xbdbea704	-0.093091995
24	0x3d534f54	0.051589325
25	0x3d040f74	0.0322413
26	0xbd423b82	-0.047420032
27	0xbdcb4304	-0.099248916
28	0xbcebe5cc	-0.0287961
29	0x3da0acbe	0.07845448
30	0x3db15702	0.086591735
31	0xbd086f5a	-0.033309318
32	0xbda8b5f9	-0.082378335
33	0x3c6023c0	0.013680398
34	0x3ca179d0	0.019711405
35	0x3cd9b1d8	0.02657406
36	0xbd821964	-0.06352499
37	0xbd165904	-0.036705986
38	0x3d945a5c	0.07243797
39	0x3d265568	0.040608793
40	0x3cd4c030	0.025970548
41	0xbd9ef390	-0.077612996
42	0xbc81735c	-0.015802078
43	0xbd865d24	-0.06560734
44	0xbc424f70	-0.01185976
45	0x3db22f16	0.08700387
46	0xbd5c6865	-0.053810496
47	0xbd8a2fe2	-0.06747414
48	0x3cc57f80	0.024108648
49	0x3dcb0b86	0.09914307
50	0x3d0fa4d0	0.035069287
51	0x3dcb88b2	0.09938182
52	0x3bc34480	0.0059590936
53	0xbdadb98d	-0.08482657
54	0xbc3f7588	-0.0116857365
55	0x3da97db6	0.082759306
56	0xbd14fb6c	-0.036372587
57	0x3cab20a4	0.020889588
58	0xbd3cb8b4	-0.046074584
59	0xbdb20d03	-0.08693888
60	0x3dab878c	0.08375463
61	0x3d97fb66	0.07420997
62	0xbd4e9d36	-0.050442897
63	0xbd264211	-0.04059035

mlp.4.weight f4 [32, 64]
0	0x3d90a84a	0.070633486
1	0xbdce6a08	-0.100788176
2	0xbdebaf36	-0.11508028
3	0x3ddcaad8	0.10774773
4	0x3dba82c4	0.09106973
5	0x3da21144	0.079134494
6	0x3d7492a8	0.059710175
7	0x3cdd8db8	0.027045116
8	0xbbf62940	-0.0075122416
9	0xbd82282c	-0.063553184
10	0x3dc41f9e	0.09576343
11	0xbdc301ec	-0.09521851
12	0xbd74fdb8	-0.059812278
13	0x3d3b3db0	0.045713127
14	0x3d1768a8	0.036965042
15	0xbcabeb88	-0.020986333
16	0x3d8954f8	0.0670566
17	0xbdd45e5e	-0.103695616
18	0xbd76f79c	-0.060294732
19	0xbdcad95a	-0.09904738
20	0xbd1790f4	-0.037003472
21	0xbd0c8338	-0.034304827
22	0x3c621160	0.013798088
23	0xbdfab0d4	-0.122407585
24	0xbde16ec4	-0.11007455
25	0xbcf0e508	-0.029406086
26	0x3da8c390	0.082404256
27	0x3d62d6e8	0.05538073
28	0x3d904174	0.07043734
29	0xbd2785bc	-0.040899023
30	0xbda55dc2	-0.080745235
31	0xbdd71674	-0.105023295
32	0x3ddc5bdc	0.10759708
33	0x3dd8f680	0.10593891
34	0xbd7210c0	-0.059098005
35	0x3dfb03a8	0.12256557
36	0x3d83d41a	0.064369395
37	0xbc9cf5e8	-0.019160226
38	0xbdd4bc5e	-0.10387491
39	0xbdabe584	-0.08393386
40	0x3ceac908	0.028660312
41	0xbdcdf420	-0.10056329
42	0xbd651cec	-0.055935785
43	0x3d1bace4	0.03800668
44	0xbd4ce980	-0.05002737
45	0x3d837af2	0.06419934
46	0x3dff8846	0.12477164
47	0x3d597ca8	0.053097397
48	0xbcb28140	-0.021790147
49	0x3d52bf60	0.05145204
50	0xbda16e3a	-0.07882352
51	0xbc36d6e0	-0.011159629
52	0xbdcfcb8a	-0.10146244
53	0xbd2f8a58	-0.042856544
54	0xbdc8e8f6	-0.09810059
55	0x3c3dcb60	0.011584133
56	0x3dc64642	0.09681369
57	0xbb81b3c0	-0.0039581954
58	0x3d0e06fc	0.03467463
59	0xbdf07960	-0.117419004
60	0xbda55242	-0.0807233
61	0x3d18c970	0.03730148
62	0xbd925504	-0.07145122
63	0xbdaa9a6c	-0.08330235
64	0x3d22e518	0.039769262
65	0xbdf4f57a	-0.119608834
66	0xbd413a44	-0.047174707
67	0x3dc1a1ea	0.09454711
68	0xbdd7d9e8	-0.10539609
69	0xbd1f5c1c	-0.0389062
70	0x3db32324	0.08746937
71	0xbd6f75b8	-0.058461875
72	0xbdb43608	-0.08799368
73	0xbc941d88	-0.018080488
74	0xbdbd5f26	-0.09246664
75	0x3b15a880	0.002283603
76	0xbda407dc	-0.080093116
77	0xbb337500	-0.002738297
78	0x3d9ba9fc	0.07600781
79	0x3de0b248	0.109715044
80	0x3bcd3d40	0.006263405
81	0xbda9e5de	-0.08295797
82	0x3d0e7550	0.034779847
83	0x3dfcedce	0.12350045
84	0xbde8efb0	-0.11373842
85	0xbd238184	-0.039918438
86	0x3d745158	0.059647888
87	0xbda04920	-0.078264475
88	0x3d3e5860	0.046471
89	0x3cce6878	0.025196299
90	0xbde5dfaa	-0.11224301
91	0x3c4da7e0	0.012552232
92	0x3daf5d30	0.08562696
93	0xbdf8c1fa	-0.12146373
94	0xbcfa59f8	-0.030560479
95	0x3c67ba70	0.014143571
96	0x3dc26d34	0.09493485
97	0x3dec9232	0.11551322
98	0xbd4c36b8	-0.04985687
99	0xbde4d1aa	-0.11172803
100	0x3d7342f4	0.059390023
101	0x3c357c50	0.011077002
102	0xbd3ee77c	-0.04660748
103	0x3db27e0c	0.08715448
104	0x3cca2b68	0.0246789
105	0xbd100188	-0.03515771
106	0xbde5f2a2	-0.11227919
107	0x3d0e9214	0.03480728
108	0x3d7e1efc	0.062041268
109	0x3d7ab63c	0.06120895
110	0x3dac659c	0.08417818
111	0x3dc1f410	0.09470379
112	0xbdd967e0	-0.10615516
113	0x3c482130	0.012214944
114	0xbd0f4184	-0.03497459
115	0x3de272c6	0.110570475
116	0xbb891ba0	-0.0041842014
117	0x3d5f4d0c	0.054516837
118	0x3ce661a8	0.028122738
119	0x3d85c7a0	0.06532216
120	0x3dc3f558	0.0956828
121	0xbc6bcff0	-0.014392838
122	0xbd7df3d4	-0.06200011
123	0xbc8b3b48	-0.016996041
124	0xbd65280c	-0.055946395
125	0xbda276ee	-0.0793284
126	0x3bc08e60	0.0058763474
127	0xbd1092fc	-0.035296425
128	0x3cde3970	0.027126998
129	0x3d037cbc	0.032101378
130	0x3cbcd530	0.023050874
131	0xbcd11370	-0.025521964
132	0x3d2ae9b0	0.041726768
133	0x3d2ac964	0.041695967
134	0xbd8e603c	-0.06951949
135	0x3d8faa36	0.07014887
136	0xbdc63098	-0.09677237
137	0xbdeca6a4	-0.11555222
138	0x3dd27336	0.10275881
139	0xbb0165c0	-0.0019744486
140	0xbd8e9f82	-0.069640175
141	0xbdbabf98	-0.09118575
142	0x3d90cf3a	0.07070775
143	0x3c72f640	0.014829218
144	0xbc263a70	-0.0101457685
145	0x3d96f5de	0.07371114
146	0x3dac49ae	0.08412491
147	0x3ddbe150	0.10736334
148	0x3dca3708	0.09873778
149	0x3dd727e8	0.105056584
150	0x3caac278	0.020844683
151	0xbd0949fc	-0.033517823
152	0xbde8c49a	-0.11365624
153	0xbdd9d4d2	-0.106362954
154	0x3bb8e500	0.0056425333
155	0x3dc87dc4	0.09789613
156	0xbd259fec	-0.040435717
157	0x3d982544	0.07428983
158	0x3dd99576	0.106242105
159	0x3d8f3bb6	0.06993811
160	0xbda72988	-0.08162218
161	0x3d87ce20	0.06631112
162	0xbbf0be80	-0.007346928
163	0xbdc05d06	-0.09392743
164	0x3d05fe24	0.03271307
165	0xbdeb9f06	-0.11504941
166	0xbdb10d66	-0.08645134
167	0xbd56d624	-0.052450314
168	0xbdf7d77c	-0.12101647
169	0x3d20ec48	0.039287835
170	0x3d1a2cf8	0.03764054
171	0xbdbf228e	-0.09332763
172	0xbded8d74	-0.11599246
173	0xbb80e640	-0.003933698
174	0x3af01600	0.0018317103
175	0x3dffacc0	0.12484121
176	0xbd729c24	-0.05923094
177	0x3d8b417e	0.06799601
178	0xbc3c0580	-0.011475921
179	0x3a169400	0.00057440996
180	0xbd313b58	-0.043269485
181	0x3da86164	0.08221701
182	0x3db17b18	0.086660564
183	0xbd5babec	-0.053630754
184	0xbd976e8a	-0.073941305
185	0x3c306a00	0.01076746
186	0x3da7dd60	0.08196521
187	0xbd4791bc	-0.048722968
188	0x3ccc32f8	0.024926648
189	0xbd6263e0	-0.05527103
190	0x3d15b7c0	0.03655219
191	0xbdd26e8a	-0.1027499
192	0xbd8f3aa8	-0.0699361
193	0x3dec7018	0.11544818
194	0xbcf415a0	-0.029795468
195	0xbdcf2404	-0.10114291
196	0xbdaccfde	-0.08438085
197	0xbd9dca52	-0.07704605
198	0xbdae8f48	-0.085234225
199	0x3c876410	0.016527206
200	0x3c518a60	0.012789339
201	0xbc235760	-0.009969562
202	0x3df810e0	0.12112594
203	0x3df7b61c	0.120952815
204	0xbd962d44	-0.073328525
205	0x3de265a0	0.1105454
206	0xbdaef5fe	-0.08543013
207	0xbd7740bc	-0.06036447
208	0x3d87fe32	0.06640281
209	0xbdb4eed6	-0.08834617
210	0xbdd479e0	-0.10374808
211	0x3b94e100	0.0045434237
212	0x3da85030	0.082184196
213	0xbd9787cc	-0.07398948
214	0xbb84f7c0	-0.0040578544
215	0xbd90b1ec	-0.07065186
216	0xba6b9300	-0.0008986443
217	0x3cdd94b8	0.027048454
218	0xbcf50b88	-0.029912725
219	0xbd91e79a	-0.071242526
220	0xbdc47a02	-0.09593584
221	0xbcdd7888	-0.027035013
222	0xbd979e34	-0.07403222
223	0xbb611440	-0.0034344345
224	0x3de7c07a	0.11316009
225	0x3dbfd204	0.09366229
226	0xbd7f1348	-0.062274247
227	0x3dd9a1c6	0.10626559
228	0x3d88291c	0.06648466
229	0x3de64dcc	0.11245307
230	0xbca69768	-0.020335868
231	0xbd4cbd48	-0.0499852
232	0x3dd03196	0.10165708
233	0x3db0fc1c	0.08641836
234	0xbc606570	-0.01369606
235	0xbd1c9178	-0.038224667
236	0x3d7d5288	0.061846286
237	0xbd8549ec	-0.0650824
238	0x3db0b74c	0.08628711
239	0x3d838e7e	0.064236626
240	0xbb13ab40	-0.0022532493
241	0x3cc2b450	0.02376762
242	0xbb9ee3e0	-0.004848942
243	0xbd75d6e0	-0.060019374
244	0x3c620dd0	0.0137972385
245	0x3dd129a0	0.102130175
246	0xbdb7d7ca	-0.08976705
247	0xbdad181e	-0.084518656
248	0x3d842ba6	0.06453638
249	0xbdbcfce6	-0.09227924
250	0xbd804862	-0.06263806
251	0x3da10096	0.0786144
252	0xbdfe072a	-0.1240371
253	0xbddd2c6c	-0.107994884
254	0xbdff04f6	-0.12452118
255	0x3d337ea0	0.04382193

mlp.4.bias f4 [32]
0	0xbd8b70c8	-0.06808621
1	0x3db2dcb6	0.087335035
2	0x3d8aa384	0.067694694
3	0xbdf2a9c8	-0.118487895
4	0xbd6f0a54	-0.05835946
5	0xbb600fc0	-0.0034189075
6	0x3d943b1a	0.07237835
7	0xbd0f0b90	-0.034923136
8	0xbc7c8710	-0.015413061
9	0xbd3420ac	-0.04397647
10	0x3d7284a8	0.059208542
11	0x3d9b1a50	0.07573378
12	0x3d4584e0	0.048222423
13	0xbcb5a368	-0.022172645
14	0xbddfd68c	-0.109295934
15	0xbdc4fcc8	-0.09618527
16	0x3dc9e12c	0.09857401
17	0x3dea55f4	0.114421755
18	0xbcb1e590	-0.02171591
19	0x3d9509da	0.0727727
20	0x3ddbe300	0.10736656
21	0xbb7a4240	-0.003818646
22	0xbbfe19e0	-0.0077545494
23	0xbb242b80	-0.0025050342
24	0x3d9fac6a	0.07796557
25	0x3ddeb284	0.10873893
26	0xbde0bd0e	-0.10973559
27	0xbd6d4758	-0.057929367
28	0x3ddaabba	0.106772855
29	0x3dcdc83c	0.10047957
30	0x3d8545f6	0.065074846
31	0x3ddcdabe	0.10783909

mlp.7.weight f4 [10, 32]
0	0xbd99420a	-0.07483299
1	0x3c32e730	0.010919377
2	0x3d69c1e0	0.05706966
3	0xbdcce2b7	-0.1000418
4	0x3c91f600	0.017817497
5	0x3da037ca	0.07823141
6	0xbdf8050d	-0.12110338
7	0xbd9ff1b9	-0.07809777
8	0x3d0069e8	0.031351
9	0xbe23d1fa	-0.15998068
10	0x3e2ba267	0.1676117
11	0xbd0cb7d8	-0.034355015
12	0x3e079885	0.13241775
13	0xbd1de7c0	-0.038551092
14	0x3de72566	0.1128643
15	0xbdd5be6b	-0.1043671
16	0xbdf2aa78	-0.118489206
17	0xbe0d550d	-0.13801976
18	0xbe167756	-0.1469396
19	0x3d9a74c2	0.07541801
20	0xbdcd690e	-0.10029803
21	0x3bf911a0	0.007600978
22	0xbca94350	-0.02066198
23	0xbdcd5d9c	-0.1002762
24	0x3e2ae3f7	0.16688524
25	0xbbb4f680	-0.005522549
26	0x3dfc9392	0.12332834
27	0xbe28b4c3	-0.16475205
28	0x3de481a6	0.11157541
29	0xbdf10138	-0.117678106
30	0xbdd850ae	-0.105622634
31	0x3d7923b4	0.060825065
32	0x3d6aec74	0.057354406
33	0x3df682e2	0.12036683
34	0x3dcea79a	0.10090561
35	0x3dbff71e	0.09373306
36	0x3e03ed87	0.12883578
37	0x3d95fc32	0.07323493
38	0x3deef92e	0.11668621
39	0x3d425884	0.047447696
40	0xbe169b73	-0.14707737
41	0xbd3d95a0	-0.04628527
42	0x3e2f464d	0.17116661
43	0xbd8544f1	-0.0650729
44	0xbabc9580	-0.0014387816
45	0x3dc2438a	0.09485538
46	0xbe2ecc3c	-0.17070097
47	0xbe11d35c	-0.14240783
48	0xbda97434	-0.08274117
49	0xbde9f3a2	-0.114234224
50	0x3d8f0146	0.06982665
51	0x3ddb332e	0.10703121
52	0xbe12de93	-0.14342718
53	0xbe10cfce	-0.14141771
54	0x3d9ea9da	0.0774724
55	0xbc196760	-0.009363025
56	0xbd75653e	-0.059911005
57	0xbd873ab0	-0.066029906
58	0xbd19b3f8	-0.037525147
59	0x3e13439b	0.14381258
60	0x3de5db36	0.11223452
61	0xbd9f121d	-0.07767127
62	0x3d54de78	0.051969975
63	0xbd8e6651	-0.06953109
64	0xbe116181	-0.14197351
65	0x3e086727	0.133206
66	0xbdc37839	-0.09544415
67	0xbe18dfcd	-0.14929123
68	0xbe127076	-0.14300713
69	0xbdd63810	-0.10459912
70	0xbd902787	-0.07038789
71	0x3e311e37	0.17296682
72	0xbdf8e274	-0.121525675
73	0xbd10114c	-0.035172746
74	0xbd86c913	-0.065813206
75	0xbdb6d7d1	-0.089278825
76	0x3e1478b7	0.14499174
77	0xbd6c8a9c	-0.057749376
78	0x3e1b4b27	0.15165387
79	0xbd9a07ee	-0.07521044
80	0xbe198683	-0.14992718
81	0xbc90af30	-0.01766166
82	0x3b1de440	0.0024092346
83	0x3df80cd6	0.12111823
84	0xbdbb6305	-0.09149746
85	0x3d6d1900	0.05788517
86	0x3d822bca	0.06356008
87	0x3e313907	0.1730691
88	0xbe2a7830	-0.1664741
89	0xbd9b7532	-0.075907126
90	0xbcf983a8	-0.030458286
91	0x3d874508	0.066049635
92	0x3e0f78ed	0.14010973
93	0xbe10c5ea	-0.14137998
94	0xbdcb1ee9	-0.09918005
95	0xbd8370f8	-0.064180315
96	0x3d98307a	0.07431121
97	0xbd9f2bb1	-0.07772005
98	0xbe0f588a	-0.13998619
99	0x3d5eb634	0.05437298
100	0x3dc3616a	0.09540065
101	0x3b6cf280	0.0036155283
102	0xbdf02a76	-0.11726849
103	0xbda97bda	-0.08275576
104	0xbe348a74	-0.1763094
105	0xbc628b20	-0.013827115
106	0xbdedb2de	-0.11606382
107	0x3cfd5018	0.03092198
108	0x3e2163cb	0.15760724
109	0x3e235d9f	0.15953682
110	0xbd931d20	-0.071832895
111	0xbcc561b0	-0.024094433
112	0xbe0e3337	-0.13886724
113	0xbe13ee6e	-0.14446422
114	0x3db0aa1a	0.08626194
115	0x3d67e220	0.056612134
116	0xbd4f7000	-0.05064392
117	0x3d216e44	0.039411798
118	0xbe2e53ec	-0.17024201
119	0xbe277267	-0.16352235
120	0x3d327ce8	0.04357615
121	0x3e09233d	0.13392349
122	0x3dd7cd16	0.10537164
123	0xbd89718e	-0.06711112
124	0xbcfad5d0	-0.030619532
125	0x3dc71f6a	0.09722789
126	0xbe1f7f05	-0.15575798
127	0x3df626de	0.12019132
128	0x3deb9176	0.11502354
129	0xbdeeb4bb	-0.11655565
130	0xbe11e842	-0.14248756
131	0x3e06f291	0.13178469
132	0x3db1b772	0.086775675
133	0xbdff3773	-0.12461748
134	0x3e15398f	0.14572738
135	0xbde7e5e4	-0.11323145
136	0x3de26696	0.11054723
137	0x3e12f4cd	0.14351197
138	0xbd67fd4e	-0.056638055
139	0xbe14af74	-0.14520055
140	0xbe02746d	-0.12739725
141	0xbd5ce404	-0.05392839
142	0xbda1634c	-0.078802675
143	0x3dfbdaca	0.1229759
144	0xbe268e73	-0.16265278
145	0xbe0b7e17	-0.13622318
146	0x3d554fc0	0.05207801
147	0x3e14d319	0.14533652
148	0xbb7f8380	-0.0038988292
149	0xbd8c8b43	-0.068624996
150	0x3d1ad984	0.037805095
151	0x3d986b5a	0.07442351
152	0x3dea43ee	0.11438738
153	0x3bed8360	0.007248327
154	0xbd9a63b0	-0.07538545
155	0xbdea9a4a	-0.114552096
156	0xbc552ae0	-0.0130107105
157	0xbbb5b880	-0.0055456758
158	0x3db8cb6a	0.09023173
159	0x3d9131ca	0.07089575
160	0xbde448dc	-0.11146709
161	0x3d075890	0.033043444
162	0x3e064e8d	0.13115902
163	0x3c9774b0	0.018488258
164	0x3e08cb5d	0.13358827
165	0xbd9cde68	-0.07659608
166	0x3caa9890	0.0208247
167	0x3d69bbf8	0.057064027
168	0x3e189497	0.14900433
169	0xbe25166b	-0.16121833
170	0x3d2292b8	0.039690703
171	0x3d60189c	0.05471097
172	0x3e2da2f3	0.16956691
173	0x3e129c73	0.14317493
174	0xbd5d9cec	-0.05410473
175	0xbd8e184d	-0.06938229
176	0x3d231a4c	0.03982
177	0xbdf3bf64	-0.11901739
178	0xbd88f20e	-0.06686793
179	0xbd4d18c0	-0.05007243
180	0xbd8cdf95	-0.068785824
181	0x3d8a3b62	0.067496076
182	0x3e13d41b	0.1443638
183	0x3dbab85e	0.091171965
184	0xbe026c28	-0.12736571
185	0xbe110b1c	-0.14164394
186	0x3cf4d4a8	0.029886559
187	0x3db51b5a	0.088431075
188	0xbc56fb00	-0.0131213665
189	0x3d98950a	0.07450302
190	0xbdf38b3a	-0.1189179
191	0xbc8db640	-0.017298818
192	0xbc651100	-0.013981104
193	0xbd95fbcc	-0.07323417
194	0xbd9c7583	-0.07639601
195	0xbc30b1d0	-0.010784581
196	0x3c7178b0	0.014738247
197	0x3e04ae11	0.12957026
198	0xbd553e7a	-0.052061535
199	0xbdc2a1f5	-0.09503547
200	0x3d5bbb4c	0.053645417
201	0x3d859154	0.0652186
202	0xbd8897b3	-0.06669559
203	0xbcf35450	-0.02970329
204	0xbcc79338	-0.024362192
205	0x3d46950c	0.048481986
206	0x3ddcd2ba	0.107823804
207	0xbe34c634	-0.17653733
208	0x3db474be	0.08811329
209	0xbcfe9860	-0.031078517
210	0x3d939b90	0.072074056
211	0xbd391404	-0.045185104
212	0x3d8de370	0.06928146
213	0xbd9a7fcc	-0.075439066
214	0x3d6c3b88	0.05767396
215	0x3d429238	0.047502726
216	0xbdb0dbb7	-0.08635657
217	0xbd88598b	-0.06657704
218	0x3e08c59f	0.13356636
219	0x3cd09a10	0.025464088
220	0xbe046628	-0.12929595
221	0xbd075f7c	-0.033050045
222	0xbe034730	-0.12820125
223	0x3cd140c8	0.025543585
224	0xbdecabd6	-0.115562126
225	0x3e113167	0.14179002
226	0x3dc48ad2	0.095967904
227	0x3b662ec0	0.003512308
228	0x3ca37dc8	0.019957438
229	0xbe266621	-0.16249897
230	0xbc58afc0	-0.013225496
231	0x3d5c2870	0.0537495
232	0x3ce5fc98	0.028074548
233	0x3d9a60d6	0.07538001
234	0x3d37b04c	0.044845864
235	0xbc2eae10	-0.010661617
236	0x3d8381f6	0.064212725
237	0xbda0be5e	-0.0784881
238	0x3daa18ea	0.08305533
239	0x3e167297	0.1469215
240	0x3dfa5faa	0.12225278
241	0x3ccbcf80	0.024879217
242	0xbe030798	-0.12795866
243	0x3cebea38	0.028798208
244	0x3e03e0b3	0.12878685
245	0x3df7d33a	0.12100835
246	0xbe1dfdfa	-0.15428916
247	0xbd690b8c	-0.056895778
248	0x3da96e7e	0.08273028
249	0x3d055968	0.032555968
250	0x3d9d58aa	0.07682927
251	0xbe144e2e	-0.14482948
252	0xbd9e646e	-0.07733999
253	0xbe13ada2	-0.14421704
254	0xbe0a6bc3	-0.1351767
255	0x3e05ccc5	0.13066395

mlp.7.bias f4 [10]
0	0x3bb099e0	0.005389437
1	0xbd8e4118	-0.069460094
2	0x3e0acaf5	0.13553984
3	0x3cf2b1c0	0.029625773
4	0x3c185420	0.009297401
5	0x3dcc46aa	0.099744156
6	0x3e2ae4b1	0.16688801
7	0xbdbc566e	-0.09196173
8	0xbe2015b7	-0.15633284
9	0xbdd12eb3	-0.10213985
