NTUT_111-1/Code/mlp_trained.onnx (onnx, 336666 bytes, 8 tensors)

mlp.0.weight f4 [96, 784]
00000000: 88a3 04bd 28bc b9bc caf8 afbc 0875 713c
00000010: 5077 01bd b1fd d83b ad4f 0f3c eb81 5dbc
00000020: 449a 2c3c 21cb 8abc 12b7 dcbc eecd 853c
00000030: 88c4 993c f1e2 043d 0d24 8b3c 283d d03c
00000040: 83dd 09bb 704c 9d3c bc0a 0a3c 8bf0 00bd
00000050: b344 763c ea47 e2bc d5cb 193c b896 ba3c
00000060: ae64 29bc 4632 09bd 50c5 f33b 0408 04bc
00000070: 5c07 debc f087 403c 6e30 c33c 9b4a 0d3d
00000080: 0f81 683c fca0 b5bc 8e45 613c 18d2 0b3d
00000090: 0ac6 2cbc 0995 0d3d 816c 4cbc a9ea 113c
000000a0: d8d6 8f3a 4f79 08bc 1a71 783c 937d f73c
000000b0: 6d16 503b 549f 3dbc 980a 9c3b 8432 06bc
000000c0: 3866 0ebc a9a2 f43c 7aef 9abb e5b8 97bc
000000d0: c381 f6bc 9182 dcbc 628d 4a3c e68e db3c
000000e0: 4c4c cabc 5744 fe3c 4091 77bb f62d ae3c
000000f0: 4a56 74bc 7480 003d 16c6 f03a 3379 10bd
00000100: 7127 09bd 3ebe 89bc bf69 e93c 66e2 15bd
00000110: ba9c afbc 639c efbc 2380 3abc 71cc 84bc
00000120: 01ae 74bc 187a adbc f094 7f3c 8137 fabb
00000130: 3f32 993c b442 a33c f130 de3b 8d6a 09bd
00000140: 5667 f6bb d216 f83c ff6a e1bc 8cf8 e8bc
00000150: 9660 66bc af26 e53c 9aa9 85bc 5bfc cbbc
00000160: 4141 d83c 1f31 46bc 9458 bf3c 5435 a5bc
00000170: f86f 1bbd 31dc a53c 64b0 463c 71d4 f9bc
00000180: 8b6a 20bd 0de1 86bd 465d 22bd 021d ddbc
00000190: 418d 4abd 15aa 893b 7d33 e0bc 93ee 40bc
000001a0: e993 d43c 3ecb a23c 49b9 dc3c 6e45 39bc
000001b0: f6c0 583c fdf1 063d d1dc 843b bfe6 87bc
000001c0: ac04 edbc b999 de3c abee 24bc 7063 01b8
000001d0: 3c56 5c3c 4d98 03bd 1be0 a0bb f143 ce3b
000001e0: fed1 acbc 5901 4dbc 46af e83a 2d04 45bd
000001f0: 2d4e 11bd 5d79 a8bc 5c78 55bc bf9d 2fbd
00000200: a747 04bd df4e e73a 1f6d 5dbc 292d c4bc
00000210: 419f 17bd d8cf b73c a740 143d 87b8 bc3c
00000220: 7660 903c b0b1 c3bc 6d5b 77bb 381c 21bb
00000230: fd18 b33c 612f 013c 3c15 a53c c6be 7f3c
00000240: b951 34bb 27f2 09bd dade 15bd ca42 d6bc
00000250: e5c6 61bc 9957 2bbd d12f c6bc 6b52 ef3c
00000260: edc5 0e3d 9e62 c83c f09a f73c 37f3 b13b
00000270: 6d00 d8bb 5d00 b83c 8f76 12bd e6de 0e3c
00000280: ee0d 8e3b 66ba b0bc d20a b53c 0e92 d33c
00000290: 2646 f3bc 7560 ffbc 3b3a 29bc 3e98 93bc
000002a0: e203 ac3c 61d7 5ebc 880a adbc 2dca 94bc
000002b0: b63b b2bc 2260 05bc 0d6c 9f3c 2c0d 2cbd
000002c0: 5ad4 1dbd 04c3 ac3c c488 0038 ed12 413d
000002d0: 932c b23c 1c0c 593c 79b6 9a3c 8126 873c
000002e0: a5a0 203d 6662 4cbc cd3a 21ba f938 d5bc
000002f0: d5f1 073c b720 cf3b f23f 94bc ff56 0b3c
00000300: 4bf1 c73c 924c 01bd 005d d03b 785d 2b3c
00000310: 518c dc3c 0ab7 ee3c 6b95 4ebb 4431 59bc
00000320: 2d24 94bc 497b 3f3c 6786 73bd 0b9d 7dbd
00000330: 6e2c 00bd af35 5cbc b29c fb3c 9936 19bc
00000340: f154 ae3c cc77 ee3a 0d1c 11bc 5f8c 90bc
00000350: 57ae 443d b738 fa3c 869c af3c 88bc cdba
00000360: 9b05 013d 2e40 343d 9a9c 7ebc 120c f53c
00000370: 532d 95bc 1998 773b 8698 e5bc 28d3 2f3c
00000380: 9c0d b9bc b06e 0cbd 37bd da3c 29ec d6bc
00000390: 5051 b9bc 6f8a 2bbd 9c85 d6bb a600 7ebc
000003a0: 387e 9cbc c730 7f3c 21ce 683d 14ce b53a
000003b0: f260 173d b12b adba 5765 dcbb 216e 7c3c
000003c0: 0b2a a93c a1c2 c83c 04c2 823c fde3 973c
000003d0: e0ac 013d dd41 233d 2acf 4abb 8ab5 373d
000003e0: 86ad 2b3d 8c82 243d 8782 3b3c da7d db3c
000003f0: dc0b a63c fb03 c2bb 3938 ddbc e266 c0ba
-0.032382518 -0.022672728 -0.021480937 0.014737375 -0.031607926 0.0066220392 0.0087470235 -0.013519744
0.010534827 -0.016942563 -0.026942763 0.016333546 0.018770471 0.03244299 0.016984964 0.025419787
-0.0021036572 0.019201487 0.008425411 -0.0314794 0.015031028 -0.027622182 0.009386976 0.022776946
-0.010338945 -0.03349521 0.007439293 -0.008058552 -0.027103119 0.01175116 0.023826804 0.034494977
0.014190926 -0.02217149 0.013749493 0.034135908 -0.010545263 0.03456596 -0.012477041 0.008906045
0.0010974063 -0.0083297035 0.015163684 0.030211246 0.0031751648 -0.011573631 0.004762005 -0.008190755
-0.008691363 0.029862719 -0.004728255 -0.018520782 -0.030091172 -0.026917728 0.01236281 0.026801538
-0.024694584 0.031038446 -0.0037775785 0.02126215 -0.014913151 0.031372502 0.0018369581 -0.035271835
-0.03348488 -0.016814347 0.028492806 -0.036592864 -0.021437038 -0.029249376 -0.011383089 -0.016210767
-0.014934064 -0.021176383 0.015599474 -0.007636011 0.018700717 0.019929267 0.0067807366 -0.03354888
-0.007519643 0.03028432 -0.02751684 -0.028438829 -0.014061114 0.027972547 -0.016316224 -0.024900606
0.026398303 -0.012096672 0.023357667 -0.02016703 -0.03794858 0.020246597 0.012127016 -0.030496808
-0.039164107 -0.06585894 -0.039639734 -0.026991371 -0.049451116 0.0042011836 -0.027368302 -0.0117756305
0.025949435 0.019872304 0.02694382 -0.011308057 0.013229599 0.03294562 0.0040546437 -0.01658952
-0.028932892 0.02717291 -0.0100666685 -3.0848605e-05 0.013448294 -0.032127667 -0.004909528 0.0062947203
-0.021096226 -0.012512528 0.0017752431 -0.048099685 -0.035474945 -0.020565683 -0.013029184 -0.042875048
-0.032294895 0.0017647407 -0.013514786 -0.023947315 -0.03701711 0.022437975 0.03619447 0.023037208
0.017624121 -0.023888439 -0.0037743703 -0.002458347 0.021862501 0.007884831 0.020151727 0.015609449
-0.002751453 -0.0336782 -0.03658948 -0.026154894 -0.01378033 -0.041831587 -0.024192723 0.029214105
0.034856725 0.024461087 0.030225247 0.005430605 -0.0065918476 0.02246111 -0.035757598 0.008720135
0.0043351566 -0.021573257 0.022099886 0.02582648 -0.029696535 -0.031173924 -0.010328825 -0.01801693
0.020997945 -0.013601155 -0.021123186 -0.018162811 -0.021756988 -0.008140596 0.019460702 -0.04200475
-0.038532592 0.021089084 3.064495e-05 0.04713719 0.02174977 0.013247516 0.018885838 0.016497852
0.039215703 -0.012474632 -0.00061504246 -0.026028143 0.008297403 0.0063210386 -0.018096898 0.008504628
0.02440705 -0.031567164 0.0063587427 0.010459296 0.026922377 0.029140014 -0.0031522166 -0.013256375
-0.018083656 0.011687108 -0.059454348 -0.061917346 -0.03129237 -0.013440534 0.030714367 -0.009351396
0.021280738 0.0018193661 -0.0088567855 -0.01764506 0.048017826 0.030544622 0.02143694 -0.0015696445
0.031499486 0.04400652 -0.015540266 0.029912982 -0.018210089 0.0037779866 -0.02802683 0.010731496
-0.022589497 -0.034285247 0.026701553 -0.026235657 -0.02262178 -0.041880067 -0.006546689 -0.015503084
-0.019103155 0.015575594 0.056837205 0.001387062 0.03695769 -0.0013211874 -0.006725948 0.015407116
0.02064993 0.024506869 0.015961654 0.01854133 0.031659007 0.039857734 -0.0030946233 0.044850864
0.04191353 0.04016356 0.011444694 0.02679341 0.020269327 -0.0059208847 -0.027004348 -0.0014679099

mlp.0.bias f4 [96]
00000000: 07d0 b73d 9830 0bbd 6878 a13d bdb7 3dbc
00000010: 5a02 143e b51c b43d 2719 123d 7c5b fbba
00000020: 1b91 cdbc 7767 2f3c 03f7 f5bc 1af6 91bc
00000030: 6525 24bb 0e4e e13c 3399 193d a58f 04bd
00000040: 37e5 0ebd 26c0 403c 2d42 db3c d6d4 853c
00000050: cea0 653c ea20 023d 15dd c0bd dd09 8e3d
00000060: 6187 b63d 9804 e13d 1819 823c b727 b33c
00000070: a37e 01bc 0bd2 b53d 0168 723d c28b 48bc
00000080: 98b0 ce3d eb96 4abd 5062 f23b 9b9a 063b
00000090: 61b1 a1bb 0368 773d 0718 c2bb ae06 0f3d
000000a0: 6470 9e3d 5bab 603c ab04 39bd 00e6 f53c
000000b0: 9eb1 0e3d e202 02bd b73c 91bd 79de 183d
000000c0: e0e8 6e3d 05a4 2a3d d143 b03d 4c27 173d
000000d0: fc67 4abd ca8a 15bd 032d ebbd 38cf 8dbc
000000e0: 9610 01bd 2cad 9abc 92cc fd3c c99e 043e
000000f0: cc9c b63c afad 9b3d 97c1 c13c 0ff9 8e3d
00000100: bcaa b7ba a989 70bc e4e5 df3c 357a d63d
00000110: 926e 86bd ed0c 033d df35 913c f4c8 6abc
00000120: 121d 253d 1183 653d d707 dd3c 14b1 403d
00000130: 917a d53c e0ad 08bd dc69 963c b33e 603d
00000140: ae13 45bd 9e0e 803c 3e53 b33d 6401 24bb
00000150: 6ac1 183e 503b 18bd fe59 133e 0a1c 68bc
00000160: 210d fa3c 3f2c 2c3d dfae a5bc 03b8 5f3d
00000170: 9b79 3bbd 7c4a 42bb 61ab 8d3c f88d 3bbd
0.08975225 -0.03398189 0.07884294 -0.011579451 0.14454022 0.08794538 0.03566852 -0.0019177045
-0.025093606 0.01070582 -0.03002501 -0.017817546 -0.0025046703 0.02750304 0.037499618 -0.032363553
-0.034886565 0.011764562 0.026764954 0.01633684 0.01401539 0.03176967 -0.09417168 0.06935475
0.0891254 0.10987204 0.015881106 0.021869523 -0.007903728 0.08877953 0.059181217 -0.012240352
0.10092276 -0.049460333 0.0073969737 0.002053893 -0.0049344753 0.060401928 -0.0059232744 0.03491848
0.077362806 0.013712729 -0.045170467 0.0300169 0.034837358 -0.03174103 -0.070916586 0.03732154
0.058327556 0.041660327 0.08606685 0.03690271 -0.049415573 -0.036509313 -0.11483195 -0.017310724
-0.03150996 -0.018881403 0.030981336 0.12951197 0.022291563 0.07601487 0.023651881 0.06981098
-0.0014012675 -0.014681258 0.0273313 0.10472528 -0.06564058 0.03199475 0.017725883 -0.0143301375
0.040310927 0.056033198 0.026981277 0.047043875 0.02605942 -0.033368945 0.018361025 0.054747295
-0.04811447 0.01563197 0.087561116 -0.0025025243 0.14917532 -0.03716594 0.14389798 -0.014166841
0.030523838 0.042034384 -0.020224987 0.054618847 -0.04577027 -0.0029646447 0.017293634 -0.04578969

mlp.2.weight f4 [64, 96]
00000000: 555d 29bc a44b 94bc 5335 4abd d864 933d
00000010: 19a5 16bc fde6 f4bd cf6c 803c a1a9 463b
00000020: 8b54 b23d 2062 98bb 7b65 7d3c ef8e 5bbd
00000030: fafe b0bd b13f 713d 136d 8d3c 46a1 793c
00000040: 14fe e93c 368a 23bd fdbe cfbb b4dc 22be
00000050: 0c18 95bd 73ed 55bc 631b d03c 486e 133e
00000060: e1ee 11bd d506 23be d41a 313e cf22 ad3d
00000070: be50 e13d 7d1a 04be 5474 fc3d 8c3e bfbc
00000080: 674e fe3c f574 8fbd 8992 933d bad3 fa3d
00000090: 43a9 c0ba 0ccc 9cbd f45a a93d 609a 96bd
000000a0: b00d c53d 2e67 a7bd 5fa9 823e 6222 6c3e
000000b0: d269 423e 130a 223d 6ce4 073e 5070 08bc
000000c0: 13ea 823e ed4c 31bc 3390 b33c 3653 25bd
000000d0: dea2 f2bd d94b 6abd 8be9 fd3c 8e67 1b3d
000000e0: 2bbb 9dbd 9c14 2a3e 553f ae3d fd71 bfbd
000000f0: de00 c33d bf7f 81bd 0d99 e33d c204 d43b
00000100: 14fe ce3c 8374 1b3d 1759 8abc 4b42 d23c
00000110: 3f30 dabd e10c 393e cad9 2d3d 4682 d13d
00000120: 9eb8 c43c cb65 9ebd d6c8 f33d d55d 3e3e
00000130: 0e36 9abd 144e d13b df53 5fbc c19a b73d
00000140: 2de5 8c3b 133b 033c 12d2 d63d 931a 21bd
00000150: dcc6 e73b 362a a9bd d346 39be f872 c03d
00000160: dbd2 923d 64b2 24be 6f21 bcbd aa26 b93d
00000170: 33b0 cabc c064 c3bd 22cb 2a3d 823d dc3b
00000180: f8ef 103e 8572 013e 875d ec3c 9985 55bd
00000190: ef5b 3dbe 089d e63c 962a febd 2e61 82bd
000001a0: b9f5 2f3e 50c8 edbd f20a cabd 27ec 2abe
000001b0: 417b 2abd a83a 103d 9b2c a13c 84a1 69be
000001c0: 3dfe 943d 50ae 9ebc 41fb 8c3c 7506 24bd
000001d0: 0530 f3ba 22fa 39bd 2120 2fbe b34f 16be
000001e0: 6945 d53c 7cfb c73d 36c5 2c3d 3bba 8fbd
000001f0: fff4 a33d 91fd 7e3d e3c2 9a3d 3855 aa3d
00000200: 759a e1bd e198 04be 7eb6 473c 2c19 44be
00000210: a685 b53b 472a f83c d422 6b3d 60f9 9ebd
00000220: b6e8 923d 40b4 f3bd 5a34 d33d 5a50 22bd
00000230: c9d2 3abd 02ce d23d 94cc 033e 04e8 b53d
00000240: 4ca8 ae3d 8ca3 ce3d 4ac0 86bd 01fb eabd
00000250: b001 723d ac21 523e 5198 563e 555c 9c3d
00000260: 774a 39bd 6aad 99bc 7268 023e aeb1 823b
00000270: 0898 ab3d 5c62 c83d 657c 493d 7915 0a3c
00000280: fcc0 2fbd 52db d5bd d17a 8f3c 3dc0 b93d
00000290: 4ae6 a7bd 6f20 0c3e 4561 0d3e 9759 97bd
000002a0: 3abe 373d 40a7 933d 1f55 25bd 99fb 183e
000002b0: fd25 47bb 1213 5abd 504f 00bd fed9 1f3e
000002c0: de0b 1a3e c6b6 c9bd 1f96 a4b9 e4b9 2ebc
000002d0: fbb3 82bd 2901 97bd f665 9f3c b6d8 acbd
000002e0: fd57 d83d 4128 a1bb 5917 903d 76bc 6b3d
000002f0: 4b01 04bc fc97 16be a3f0 d33d 093d 20bd
00000300: 32ad 59bb 9d39 7abd 0d1d d4bd 3976 7b3d
00000310: a4b9 85bd c641 093e 1f51 8bbc 3c3c cb3d
00000320: 949d 5abd 87fd 80bd 3df6 26bb 0406 52bd
00000330: 87df 343d dd7d 9a3c 29af a2bd 69fd 9c3c
00000340: 4bfd 0dbe 12d0 f93d ba1f 61bd e2c6 343e
00000350: 15ce c03d 13d8 c4bd b54d be3c dd54 90bd
00000360: e7c8 243d 47cf 013e 221b 023d da34 86bd
00000370: 962a 263d d70d ef3d 175f 3e3d ada9 b83d
00000380: a6a5 42bd 37d9 983d fc01 b3bd ffa5 c5bd
00000390: 4221 403d 3da2 aa3d 276b e23c ed57 313e
000003a0: 3e2d 94bc 9f04 063d 2b81 afbd 8747 5a3c
000003b0: af01 54bd abef cd3c 1a46 5fbc eb24 91bd
000003c0: 8530 d43d ba2b 8b3d 1864 df3d 8f1a 6fbd
000003d0: 41e0 75bd c35f 623d bdd5 27be 5d73 ca3d
000003e0: d1b3 c9bd 1943 5dbd 19f6 193e b6d3 263e
000003f0: 2303 a83d 3558 753d 9422 2e3d e9f5 cdbd
-0.0103371935 -0.018102475 -0.04936726 0.07196969 -0.009194636 -0.1195812 0.015676884 0.003031351
0.087075315 -0.0046503693 0.015466089 -0.05360311 -0.08642383 0.05889863 0.017263925 0.0152362045
0.028563537 -0.03992673 -0.0063399062 -0.15904504 -0.07279977 -0.013057101 0.025403684 0.14397538
-0.035628203 -0.15920575 0.1729539 0.08453905 0.110017285 -0.1290073 0.12326875 -0.023345254
0.031043245 -0.0700473 0.07205684 0.12247415 -0.0014698881 -0.07656106 0.08269301 -0.073536634
0.09621751 -0.08173977 0.25519845 0.23059991 0.1898568 0.03956039 0.1327073 -0.008327559
0.2556921 -0.010821563 0.021919345 -0.04036256 -0.11847471 -0.05720124 0.030995151 0.037940554
-0.07701715 0.16609424 0.085081734 -0.093479134 0.0952165 -0.06323194 0.111131765 0.0064702937
0.025267638 0.03795291 -0.016888184 0.025666377 -0.106537335 0.18071319 0.042444028 0.10229926
0.024013814 -0.07734259 0.11903541 0.18590482 -0.07529841 0.0063874815 -0.013630836 0.08965064
0.004299781 0.00800969 0.104892865 -0.039331984 0.0070732664 -0.08260004 -0.18093424 0.093969285
0.07169124 -0.16083676 -0.091860645 0.09040578 -0.024742221 -0.09540701 0.04169763 0.0067211995
0.14154041 0.12641342 0.028853191 -0.05212936 -0.18492101 0.02815105 -0.124104664 -0.06366192
0.1718358 -0.11610472 -0.09865369 -0.16691647 -0.04162145 0.03521219 0.01967459 -0.2281552
0.072750546 -0.019370228 0.017209651 -0.04004522 -0.001855374 -0.04540456 -0.171021 -0.1467884
0.026034074 0.09764764 0.042180263 -0.070179425 0.08005714 0.06225354 0.07556703 0.083170354
-0.110157885 -0.12948944 0.012189506 -0.19150227 0.005539614 0.030293597 0.05740626 -0.07762408
0.07173292 -0.11899614 0.1031272 -0.03962741 -0.045611177 0.10293199 0.12871009 0.08882144
0.08528194 0.10089788 -0.06579645 -0.114736564 0.05908364 0.20520657 0.20956542 0.076347984
-0.04523703 -0.018759448 0.12735155 0.003988466 0.08378607 0.097843856 0.049190897 0.008427971
-0.042908654 -0.10442223 0.017514618 0.0906987 -0.08198221 0.13684247 0.13806637 -0.07390135
0.04485915 0.07209635 -0.04036438 0.14939727 -0.0030387633 -0.053240843 -0.03132564 0.15610501
0.1504359 -0.098493144 -0.00031392367 -0.010664437 -0.06381985 -0.07373268 0.019457798 -0.08439772
0.105636574 -0.0049181287 0.07035703 0.057552777 -0.008056949 -0.14706415 0.10348632 -0.039120708
-0.0033214805 -0.0610901 -0.103571035 0.061392043 -0.06529549 0.13403997 -0.017006455 0.09923598
-0.053372934 -0.062983565 -0.002547636 -0.05127527 0.044158485 0.018858844 -0.079435654 0.019163804
-0.13866155 0.121978894 -0.054961897 0.17653993 0.09414307 -0.096115254 0.023230413 -0.070474364
0.040230658 0.12676726 0.031764157 -0.065530494 0.040567957 0.116725616 0.046477403 0.09016738
-0.047521256 0.074633054 -0.08740613 -0.09650802 0.046906717 0.08331726 0.027638985 0.17318697
-0.01808798 0.03271925 -0.08569559 0.0133227175 -0.051759418 0.025138697 -0.013627553 -0.0708712
0.10360817 0.067954496 0.10907763 -0.058374938 -0.06002832 0.055267107 -0.16390128 0.09885285
-0.098487504 -0.054019067 0.15035285 0.16291699 0.08203723 0.059898574 0.042513445 -0.10056669

mlp.2.bias f4 [64]
00000000: ac97 f23d 6dbe d33c 3a51 b83d 3ef7 a63d
00000010: a6f4 403d 47c3 63bd e166 703d 57b4 35bc
00000020: 7415 02bd c80c b5bc 0bf4 843d 1ace 7dbd
00000030: 1e9d 273d 219f f23d 919a c03d d23c aabd
00000040: d656 73bd 607e 063e 9d64 01bb b3ab 30bd
00000050: 73cd 2bbd 180f 4bbd 3c85 fbbc 4dfa ec3d
00000060: 2721 acbd fff3 b63d b694 363d ed29 b3bd
00000070: 8811 a7bd 2ff1 a03d f2dd 763e aebb cfbd
00000080: d631 c63d dc15 673d de37 093e 1e31 e93c
00000090: c77b 6cbc 0551 3c3b a8a9 0b3e 4cc7 793e
000000a0: 4ce8 0d3e ba37 533e 1bae dfbd ab0d c8bb
000000b0: 659c 273e 78c6 83bc f56e c93d 9302 56bc
000000c0: c5e7 36bd c6bf 2d3d 6e6b cd3d 085e 21bd
000000d0: d135 ed3c 44cc 7a3c d569 523d c007 373e
000000e0: e1f1 c8bd 492b a43d dea2 a8bd ab46 21be
000000f0: a34e c5bd 9735 e83c 79c9 4a3c a94c 143e
0.11845335 0.025847638 0.08999868 0.081526265 0.047108315 -0.055606153 0.058691863 -0.01109036
-0.03175874 -0.022100821 0.0649186 -0.061964132 0.040921323 0.11846758 0.09404481 -0.08312382
-0.059408985 0.13134146 -0.0019743808 -0.043132495 -0.04194398 -0.04957494 -0.03070318 0.115711786
-0.08404761 0.08933257 0.044575416 -0.08748231 -0.08157641 0.07858502 0.24108103 -0.10143219
0.09677474 0.05641733 0.13400218 0.028465804 -0.014433808 0.0028734815 0.13638937 0.24392432
0.13858145 0.20626727 -0.1092188 -0.006105145 0.16368254 -0.016085848 0.098356165 -0.013062137
-0.044654626 0.042419218 0.10030256 -0.039396316 0.028956326 0.01530749 0.05137046 0.1787405
-0.0981176 0.080160685 -0.082341895 -0.15749614 -0.096341394 0.028345866 0.012377136 0.14482369

mlp.4.weight f4 [32, 64]
00000000: a201 cbbd ed49 443e a7f3 103e 142a f3bd
00000010: 4eaa 453e bb63 59be 70c1 093d 4fcf 6ebd
00000020: 1bad 2f3e efa4 bf3d 3a85 8b3e e7f2 dc3d
00000030: ce52 13be 277f 16be 8471 1e3e ac87 3abe
00000040: 777b 753e 4aa4 0ebc da4d e83c 1a19 f03d
00000050: 69bf e63c 40a0 d1bc a165 21bd 8b39 5fbe
00000060: a4e8 dcbd 7cf5 d53d c9f6 973d bbc8 f5bc
00000070: d0ee 84bd 06fb fabd ac85 923e 11f1 f2bd
00000080: 3562 6dbe a109 40be 5463 0b3e 2c0e 0a3e
00000090: 9abe 66bc 9da0 a93d 07d0 97bd f5b5 84be
000000a0: 617b af3d 27d5 56bd d34e d83c a6a9 573e
000000b0: d151 ed3e 95a1 e13c 8c78 bc3c 534e ba3d
000000c0: 58ba 1bbe bf32 09bc 6cbd d73b 97ac a1bd
000000d0: 6c4c cf39 5d2e 85be 166b 83bd 31af 12be
000000e0: ad9f 06bd 761b 1bbe 123b f83d bf3e 5bbe
000000f0: 8899 8b3c 2de2 983d b2bf 963d 5df1 4c3e
00000100: 8556 a2be c039 42be 8fed a63b 3181 903d
00000110: 3631 2ebe 6e0b 05be 7c45 b73e 5f91 273d
00000120: 3fcf 813e c1fd 57bd 64d7 ee3d e89f c93c
00000130: 787e 6e3e a4a3 163d c535 013d 13e9 d8bd
00000140: a3bb 423e f421 53be 3875 1abe c5b6 9dbd
00000150: b57a 7c3d 7fc0 e13d e9a3 15bc 5998 8a3e
00000160: cc85 303d 2887 e93d 3f63 9bbd c5f1 a4bc
00000170: 1015 77bc d92e 603d e759 fa3d 856b c9bc
00000180: 3448 5fbe de99 243d 535a 8abe c5e4 bebd
00000190: a8d6 333d 1416 a2bd 8b1e 8f3e 4128 7f3e
000001a0: b33c ff3d 8dfe 793e 2dcd 2bbd c9e0 2abe
000001b0: ac8c 483c 2d70 feba f7d9 903c cfbc 433e
000001c0: 42d4 34bc 2934 a23d 469a 793d a6bf 353e
000001d0: 3d7a 8f3d 9ed5 d13d d47e 113e 8b67 b93e
000001e0: 7d2c 84bd d0ab 20bc 92d1 eabd 7f66 103d
000001f0: 6d6e 993d 5eab 0cbe 0cbe f73d 64e2 98be
00000200: 55e1 48be bfe9 6d3e 68c4 1ebe 0d16 b4b9
00000210: 44d2 8dbe 8276 903b 3e8b 593e cf23 843d
00000220: 7290 023e fd65 253e d827 a03c b0f7 053e
00000230: 2e08 84be bacf 3d3e 515c 7c3e 6d50 d3bd
00000240: 5e75 9c3e d693 87be 02c5 6b3e b45b f6bd
00000250: e579 80bd 76b8 b43c 2ca9 ac3d 5cbe c9bd
00000260: fa73 1b3c 75d6 dabd ce24 fa3a e90f 9d3d
00000270: 41dd 8fbd 26e6 40be 44ae 7bbd 3c27 c5bd
00000280: c187 e0bd fc77 31bc f4a9 d6bc 6d40 183d
00000290: f815 2b3e 06c7 6f3d 7a2b 92bd dcee f63d
000002a0: d14f a63d cff2 2abc 8f5c af3e 5cbf 24bd
000002b0: a057 8fbe b2a9 f4bd 9b5e 6d3e da43 f33d
000002c0: e12d ec3d 6c99 ba3e f113 a1bd 5a4f f4bd
000002d0: a70f 253e 185d 70bc f58a 2b3e f356 7a3d
000002e0: 291d 94bc 39a8 fa3c e383 b3bd 4126 c93d
000002f0: defa c1bd bdda 143e 237e 8dbd b179 1e3e
00000300: 5712 82bd ae20 f43d 5250 663e 924b 913d
00000310: 60ce 2b3c b183 33be 1aa7 093e 5419 9a3d
00000320: 73d8 623d 58fd e83c fd07 ca3e d4ca 3bbe
00000330: c524 22bc 5c68 a3bc fcab 9d3e c6ca a3bd
00000340: 9e2a df3d 3ed8 c33c 35f0 093e e126 a0bd
00000350: 3d3c b73d 8d16 c4bc 6609 ddbd bffb a9bd
00000360: 0b97 68bd 1557 76be 4a3e 94bd ef42 8bbd
00000370: 43d4 57bd 36b2 4a3e c7a9 17bd a5b0 d8bd
00000380: 060e 20be 4679 13be 8adb e5bd 6f9b 153d
00000390: 8ee6 8abd 155f 2c3c a232 563b 80d1 8ebe
000003a0: 8552 2cbe 83cd 383e ff1f 783c 5da6 d43c
000003b0: 3679 ee3e df75 0a3c d47a b33d 5277 afbd
000003c0: d0f5 843d 8839 9c3e 944e 15be 9f98 23be
000003d0: 1afe ff3d 6c93 86be ca84 64bc 36f0 2fbe
000003e0: 649d 693c 9409 733e d22a f6bc de98 7f3d
000003f0: 1ecf c8bc d0df ca3d d110 2c3d 3b73 6d3e
-0.09912421 0.19168825 0.14155446 -0.1187326 0.19303247 -0.2122945 0.033631742 -0.058303174
0.17155878 0.093576305 0.2725008 0.107885174 -0.14387056 -0.14696942 0.1547299 -0.18215817
0.2397288 -0.008706162 0.028357435 0.11723538 0.028167443 -0.025589108 -0.03940356 -0.21799295
-0.1078656 0.10447213 0.074201174 -0.030002942 -0.06490862 -0.1225491 0.2861761 -0.11862386
-0.23181994 -0.18753673 0.1361211 0.13481969 -0.014083529 0.08282588 -0.07412725 -0.25920072
0.085684545 -0.05244937 0.026404774 0.2106081 0.46351483 0.027542869 0.0230067 0.090969704
-0.15207803 -0.008373915 0.00658386 -0.07894247 0.00039539055 -0.26011935 -0.064169094 -0.14324643
-0.032867122 -0.15147194 0.12120642 -0.21410654 0.017040983 0.074650146 0.07360782 0.20013948
-0.31706634 -0.18967342 0.005094237 0.07055891 -0.1701096 -0.12992641 0.357952 0.04091012
0.2535343 -0.052732233 0.11662176 0.024612382 0.23290431 0.036777154 0.03154542 -0.105913304
0.1901689 -0.20618421 -0.15083778 -0.07700876 0.06164046 0.11023044 -0.0091333175 0.27069357
0.04309635 0.11402732 -0.07587289 -0.020134816 -0.015080705 0.054732177 0.12224179 -0.024587402
-0.21804887 0.0401858 -0.27022037 -0.09320978 0.043905884 -0.07914367 0.2795299 0.249177
0.12462749 0.2441351 -0.041943718 -0.16687311 0.01224057 -0.0019412093 0.017682059 0.19114994
-0.011036934 0.07920105 0.060938142 0.1774889 0.07005737 0.10245822 0.14208537 0.3621181
-0.06453798 -0.009806588 -0.114657536 0.035253998 0.07491765 -0.13737246 0.120967954 -0.29860222
-0.19617207 0.23233698 -0.1550461 -0.00034348705 -0.27699482 0.0044086585 0.21244523 0.064521424
0.12750414 0.16152187 0.019550249 0.13082767 -0.2578749 0.18536273 0.24644591 -0.103180744
0.30558294 -0.26479977 0.23024371 -0.1202921 -0.062732495 0.022060614 0.084307045 -0.09850761
0.0094881 -0.10685436 0.0019084455 0.0766905 -0.07024623 -0.18837795 -0.06144549 -0.09626624
-0.10963393 -0.010831829 -0.026204087 0.037170816 0.16707599 0.058539413 -0.07137199 0.120572776
0.081206925 -0.010433867 0.34250304 -0.040221557 -0.2799654 -0.11946429 0.2318062 0.11878176
0.11532188 0.36445177 -0.07865132 -0.119291976 0.16119252 -0.014670633 0.16752227 0.061118077
-0.01808031 0.030597793 -0.0876539 0.098217495 -0.09471677 0.14536567 -0.06908824 0.15476109
-0.06351154 0.11920296 0.22491577 0.07094492 0.010486215 -0.17530705 0.1344265 0.07524362
0.055382203 0.028441116 0.3945922 -0.18339092 -0.009896462 -0.019947223 0.30795276 -0.0799766
0.108968005 0.023906823 0.13470538 -0.078199156 0.089470364 -0.023936534 -0.10792808 -0.0829997
-0.05678467 -0.24056657 -0.07238443 -0.06799876 -0.052692663 0.19794545 -0.037027147 -0.10580567
-0.1563035 -0.14401731 -0.112235144 0.036525186 -0.06782256 0.010520716 0.0032683988 -0.2789421
-0.16828354 0.18047146 0.015144347 0.025958234 0.46576852 0.008450954 0.08763662 -0.085676804
0.064921975 0.30512643 -0.14580756 -0.15976189 0.12499638 -0.2628435 -0.013947675 -0.17181477
0.014258716 0.23734123 -0.030049715 0.062401645 -0.024512824 0.0990597 0.042008225 0.23188488

mlp.4.bias f4 [32]
00000000: 9628 ed3d 29c9 aa3d 9cb6 93bd 9359 c93d
00000010: e401 543c d529 8ebd 4170 3cbd b127 b5bc
00000020: 19e1 0cbe 969c 69bd fd70 4ebd 04b0 61bd
00000030: 726f 19bd eb8a 693e 9938 033e 7116 51bd
00000040: 435e e43d 9b6e b53c 1596 183e 3dd9 383e
00000050: 141c 393e 715d 423d 98e5 62bd 0b88 07be
00000060: 6037 223d 253f 123e 9233 ce3d 7885 153d
00000070: cb46 963e a203 b13e 61a5 683e cccb a8bd
0.11580007 0.083391495 -0.07212564 0.09831538 0.012939904 -0.069415726 -0.04600549 -0.022113653
-0.13757743 -0.057034098 -0.050400723 -0.055099502 -0.0374598 0.22806899 0.12814559 -0.051046792
0.111507915 0.022147467 0.14901002 0.1805162 0.18077117 0.047452394 -0.05539474 -0.1323549
0.03960359 0.142819 0.1006843 0.03650424 0.29350886 0.34573084 0.22719337 -0.08241996

mlp.7.weight f4 [10, 32]
00000000: aaee f53b 85c3 bd3e b31f 62be ddcf 663e
00000010: 1499 be3e 80cc 893e 5745 283d c3fe 97be
00000020: 59d7 c83e 1f7f 5cbb 929c 1fbe a7eb 7bbe
00000030: 3903 fe3e 022e 00be b0ac e43e 2f90 4bbd
00000040: eb6f 00bf ee0f 883d 73fa 1cbf e8d0 06bf
00000050: 785a a0be 132c aabd 6c08 e93d 4e39 be3e
00000060: 4de8 923e 5cfc df3e 63b4 d3be 5cd6 9abe
00000070: ef3d 04bf bd91 08be ac4a 13be 57a3 d5bd
00000080: 83ad ccbe 3bd7 6dbf 446b cabe e9b5 1dbf
00000090: ed44 73be 039a 09bf 676f 613d fdb2 873e
000000a0: feca e6be 2718 aabd 882f 763e d030 a13e
000000b0: 3a6a 05be 0327 04bf 55ed 36bf 3c20 2e3e
000000c0: c729 8a3e 80d6 e43d e8cb ce3e e0ee 8d3e
000000d0: ca12 be3e 0c3a 84be ad4d 2d3d ef3d e93d
000000e0: 11f5 56bd 1e9c 0bbf c2fb 1d3f ed1b cd3e
000000f0: 67e0 823e 01a5 e73e ba76 223f c08f 57bb
00000100: 0235 8ebd 70c8 8a3d add8 9fbe 7b86 9dbe
00000110: f86c 35be af53 5d3e 041f 2bbd 5f43 153e
00000120: dc76 8f3e 9968 2c3d 2bd8 253e 8694 c33e
00000130: 03cf ed3e f773 373e 27ae 43be a674 fd3d
00000140: 686b 8f3e c0f6 77bd 266e a93e 99aa 8abe
00000150: 92df 3ebd cb59 b33e 5554 c0bd 0d78 07be
00000160: 10ed 4b3e 975c 9d3e b213 c2be 4418 043f
00000170: 5eba a5be 74b6 ebbe cde3 f63e 90f3 20bc
00000180: 0875 6d3e 5008 e8be 981d dc3e 3cbc 453e
00000190: 19ff c63e f1e6 513e ffe7 1abe 97fa 2e3e
000001a0: c5ee 613e 92d2 3b3d 3093 febe 3b70 9d3e
000001b0: a244 48be 995b 99be 74ab 89be 2dec 90bd
000001c0: 28fc 86be d2c1 d7bd 3237 9a3e 1ec2 8b3e
000001d0: 4b43 81be 1804 0abd 6852 263d 9a10 18bc
000001e0: a51a 353e 01fc 53be b2cb f43e 1f93 d13e
000001f0: 107d 05bf b895 0d3f e5c4 47be 3728 d9bd
00000200: 2f47 9ebe 15fc 873e d7a7 d03e 63fa 82be
00000210: 2f12 8f3d 9b98 59bf 1147 2dbe 0b9b 8f3e
00000220: c8ce 8dbe cfad 18bc 93dd e73e 5e20 a2be
00000230: bfb0 7bbd 74d0 063f 7738 a0bb 52ff d13d
00000240: 5a54 9a3e 1cef 563d bf51 b4bc e558 c63e
00000250: 5106 343e e74c c93e 9a35 1ebe adef b83c
00000260: 7094 29bf 9cce ba3d 6e92 84be e320 c7bd
00000270: 8ce9 d83e 6ed7 d3be d436 b1be fa85 31be
00000280: df77 c9bd e586 b53c cafb a83e 4401 a43e
00000290: f2d4 f13e f18e 193e 111e 91bd 5b5b cbbe
000002a0: c309 703e 3ce4 89bd 2899 81be 26b7 f3be
000002b0: ef02 f9bd 2df0 713c c3e9 be3e 1c6d cfbc
000002c0: 4866 43b9 eeda 20be f818 e2be 8192 873e
000002d0: 4a8f bb3e b0c7 a8be d0f3 2fbe 99a5 e9be
000002e0: bace 703e c3d7 bbbe 06bb e23e e8fa c9be
000002f0: f459 b13e d66d 1f3f c7f6 2abd a4c0 b1bd
00000300: 1b29 9bbe bd09 6c3e dc9c 42be da4c eabe
00000310: aec4 c0bd ba3a 3abe 37f5 e43d dd58 5fbf
00000320: 5e09 ab3e e41a 11bd 7e27 923e e581 08bf
00000330: b766 81be cbc1 de3e 79d9 ee3e 7e7e 27bc
00000340: 3247 b73e e360 d4bc 0810 edbe 4bdd 23bf
00000350: 4c13 e83e 7658 44be e0cb 173d a9c2 d6bd
00000360: b9d7 9c3e 3f83 973e 277a debe 7f71 86be
00000370: 5585 b33e 3f99 2b3e 2dae 2c3f 7e16 fbbd
00000380: 0fe1 043f 6837 b1bd dee0 99be 74f5 a53e
00000390: ecfa 2bbe 4c96 7e3d cf4c 0cbc a87f 873e
000003a0: 246c debe 82bd 0c3f 7bdc 60be 518b aa3e
000003b0: 7e4f 16be 46fa aabe d68a b53e 2d3d 223e
000003c0: 259e a4be d5ce 17be f45c bc3e 939e 453e
000003d0: c185 b8be 54f6 033f 8321 623e 6df6 1dbd
000003e0: d6ae 03bf 7210 bc3e be60 e2bd 7378 e13e
000003f0: b407 bbbe a9a0 f1be a577 be3d 48e6 12bd
0.0075052576 0.37063232 -0.22082405 0.22540231 0.37226164 0.26913834 0.041081753 -0.29686555
0.39226797 -0.0033645106 -0.1558707 -0.24601613 0.49611834 -0.1251755 0.44663 -0.04969805
-0.50170773 0.06643663 -0.61319655 -0.52662516 -0.31319022 -0.08309188 0.113785595 0.37153095
0.28692856 0.43747222 -0.41348562 -0.30241668 -0.51657003 -0.13336845 -0.14383954 -0.10431545
-0.3997613 -0.9290654 -0.39534962 -0.616057 -0.23756762 -0.5375063 0.055037882 0.26503745
-0.45076746 -0.08305388 0.24041569 0.31482553 -0.13028803 -0.5162203 -0.7145589 0.17004484
0.26985 0.11173725 0.40389943 0.2772131 0.3712371 -0.25825536 0.042310406 0.11388766
-0.052479807 -0.5453509 0.61712277 0.40060368 0.2556183 0.45243075 0.6346241 -0.0032892078
-0.06943704 0.06776512 -0.31219998 -0.30766663 -0.1771735 0.21613954 -0.041777626 0.14576481
0.2802037 0.04209194 0.16195743 0.38199252 0.46447 0.17915331 -0.19109403 0.123757645
0.28011632 -0.060538054 0.3309185 -0.2708328 -0.046599932 0.35029444 -0.09391085 -0.1322939
0.19914651 0.30734703 -0.3790565 0.51599526 -0.3236875 -0.46037638 0.48220673 -0.009823695
0.23189175 -0.45318842 0.42991328 0.19310087 0.388665 0.20498253 -0.15127562 0.1708778
0.2206374 0.045855112 -0.4972167 0.30749688 -0.19557431 -0.29952696 -0.2688862 -0.07076297
-0.26364255 -0.10535015 0.30120236 0.27296537 -0.25246653 -0.03369531 0.040605932 -0.009281302
0.17685945 -0.207016 0.47811657 0.40932557 -0.52143955 0.5530658 -0.19508703 -0.106033735
-0.30913684 0.2655951 0.40753052 -0.25581655 0.0698589 -0.8499848 -0.16921641 0.28047976
-0.27696824 -0.009318783 0.45286235 -0.3166532 -0.061447855 0.52661824 -0.0048895436 0.102537766
0.3014248 0.052474126 -0.022011636 0.38739696 0.17580535 0.39316484 -0.15450135 0.022575224
-0.6624212 0.09121439 -0.25892967 -0.097230695 0.42365682 -0.41375297 -0.34612143 -0.17336264
-0.09837317 0.02215905 0.330046 0.32032216 0.47232777 0.14995934 -0.07085813 -0.39718136
0.23441224 -0.067329854 -0.2531216 -0.4760067 -0.12158763 0.014766735 0.3728772 -0.025320582
-0.00018634752 -0.15708515 -0.44159675 0.2647896 0.36632758 -0.3296485 -0.17182851 -0.45634153
0.2351636 -0.3668805 0.44283313 -0.3944924 0.3463894 0.6227697 -0.04173925 -0.086793214
-0.30304798 0.2305059 -0.1900515 -0.45761758 -0.09412514 -0.18186465 0.111795835 -0.8724497
0.33405584 -0.035426036 0.28545755 -0.53323203 -0.25273678 0.43507227 0.46650293 -0.010223029
0.35796505 -0.025925105 -0.46301293 -0.6400954 0.45327222 -0.1917437 0.037059665 -0.10486347
0.30633333 0.2959232 -0.4345257 -0.26258466 0.35062662 0.16757677 0.6745327 -0.122601494
0.5190591 -0.08653146 -0.30054373 0.32413828 -0.16794938 0.062155053 -0.0085632345 0.2646458
-0.4344188 0.54976666 -0.21959107 0.33309415 -0.14678761 -0.33394068 0.35457486 0.15843649
-0.32151905 -0.14824994 0.36789668 0.19298773 -0.36039546 0.5154774 0.22083096 -0.038565088
-0.51438653 0.36731297 -0.11053608 0.44037208 -0.36529315 -0.47192886 0.09300164 -0.035864145

mlp.7.bias f4 [10]
00000000: eefa 39be 8c24 263f 9d20 b7be 4267 11be
00000010: 59a5 103e 9dec 983e 0878 f8bd 7917 943e
00000020: 67e6 b3be 705c f13c
-0.18162128 0.64899516 -0.3576707 -0.14199546 0.14125575 0.29868022 -0.12132269 0.28924158
-0.3513672 0.029463023
