NTUT_111-1/Code/Model_ViT_MNIST.pth (torch, 61531 bytes, 115 tensors)

class_token f4 [1, 8]
00000000: c1b1 0a3f da19 cb3f 7285 5b3f 9f26 a9bd
00000010: 95e9 a53d 1cc6 293f 93b5 873d 70a6 92be
0.5417748 1.5867264 0.85750496 -0.082593195 0.08101193 0.66317916 0.066264294 -0.28642607

linear_mapper.weight f4 [8, 16]
00000000: 5d8b 163f 758f cfbe f6de cbbe 21bc 99be
00000010: eff2 073f 4a88 a0bc 820c c5be fd5c 1bbe
00000020: 27da 3b3f f416 a3be 0d79 0dbd ebd2 33bd
00000030: 2a9f be3e a0af c6be cb6b ddbd e14b f9bd
00000040: 6a60 64be c9b8 81bd da99 303e 1fb6 793e
00000050: 9f11 86be 8d6c 483d a0c2 473e 4697 50bc
00000060: 5a8f 94be 857f 3e3e eab4 c03d 4f17 ffbd
00000070: 97b4 06be a494 843e 884c d43c 0374 a7bd
00000080: db08 b73e e6a0 91bd 191a 81bd 875c edbd
00000090: 527e 273e 8077 0dbe 626a 1bbe 92a7 87bd
000000a0: adfe 673e a0f4 11bd 604b aebd ba4c dbbd
000000b0: ab0b af3d b4e4 dcbd 3f3d 32be 622c 223e
000000c0: 0b2f 17bd 4e85 463e 0f45 ec3d eb90 1cbe
000000d0: 4a76 22be 1e45 b63d a2fe d23d a31c f93c
000000e0: adb5 1bbe c21c 5f3e 3b2d e33d ba4b 84bd
000000f0: 3a0e 4cbe b1a4 053e d806 fcbd f8d7 45be
00000100: 472f ddbd 34b1 8b3e ca9e 9ebe 99e7 cabe
00000110: 6ebe a53d 756b 513e 74d1 4fbe 4621 24bf
00000120: 18c8 bf3d 2327 1c3d f804 27be cfa4 19bf
00000130: c442 c23e 94c3 8e3d 61f7 acbe 83b9 15bf
00000140: eed8 543f e19c ce3e fc46 673e f4f8 a33e
00000150: 88bf 5e3e 397a 5ebe 965c 17be 3cc7 4e3c
00000160: 5946 f73e d88a 80bc 4e5e c23d 4221 333d
00000170: e0fc 53be 1ef0 29bf 1d97 07bf 0d9f d8be
00000180: fbd2 1ebe df5a 403e 2d50 853e f243 843e
00000190: 5138 99be 3b9b d03e 5b50 b13e 34cb 693e
000001a0: a35c 43be 1dc7 023f 94b0 843e 1c80 503d
000001b0: b749 203d 58d3 263f b3b7 203f a29d 133f
000001c0: b7b5 18be 00a4 85bf c45a fabe 78c7 efbd
000001d0: ea91 42be 1f0e 3abf 30ed 23be fd68 eb3e
000001e0: 5412 e1be 600a dcbe 0a3d 6abd 6850 bc3e
000001f0: 1969 91bf 59ea e7be 2bcb 3abe 2fdf 1a3f
0.588064 -0.40539137 -0.39818543 -0.30026343 0.5310506 -0.019596238 -0.38486105 -0.15172191
0.7337975 -0.3185345 -0.03453927 -0.04390232 0.37230808 -0.38805866 -0.108115755 -0.12172676
-0.22302404 -0.06334073 0.1724619 0.2438588 -0.2618532 0.048931647 0.19507837 -0.012731379
-0.2901562 0.18603332 0.094095066 -0.12455618 -0.13154827 0.25894654 0.0259154 -0.08176424
0.35748944 -0.07110767 -0.06303806 -0.11589914 0.16356781 -0.13815117 -0.151773 -0.066237584
0.22655745 -0.035633683 -0.085104704 -0.10707994 0.08547147 -0.10785809 -0.17406176 0.15837243
-0.036910098 0.19386789 0.115366094 -0.15289657 -0.15865436 0.08899902 0.103024736 0.030409163
-0.15206023 0.21788314 0.110926114 -0.06459756 -0.19927302 0.13051106 -0.12305993 -0.19320667
-0.10800033 0.27283633 -0.3098052 -0.3962982 0.08092962 0.20451148 -0.20294744 -0.6411327
0.09364337 0.03812326 -0.16310489 -0.600171 0.37941563 0.06970897 -0.33782485 -0.58486193
0.8314351 0.40354064 0.22585672 0.32025874 0.21752751 -0.21726312 -0.14781412 0.012620743
0.48295859 -0.015691206 0.094906434 0.04373289 -0.20701933 -0.66382015 -0.52964956 -0.42308846
-0.1551017 0.18784665 0.26037732 0.25833088 -0.29925779 0.4074343 0.3463162 0.22831422
-0.19078307 0.5108507 0.25915968 0.050903425 0.0391328 0.65166235 0.627803 0.57662404
-0.14913069 -1.0440674 -0.48897374 -0.117079675 -0.19000974 -0.726778 -0.16008449 0.45978537
-0.43959296 -0.42976665 -0.057187118 0.36780095 -1.1360198 -0.4529598 -0.18241565 0.604968

linear_mapper.bias f4 [8]
00000000: 4fcb 50be e126 fcbe 3b55 053f 3fd1 d9bd
00000010: e086 bebd a114 eabe 4aff a8bc a478 f93e
-0.20390056 -0.49248412 0.52083176 -0.10635614 -0.09303069 -0.45718864 -0.020629544 0.48724854

blocks.0.norm1.weight f4 [8]
00000000: 581a 1b3f 8629 3e3f ffd1 4b3f d2d4 733f
00000010: 77bf bc3e a447 1a3f c50d 2d3f ccf0 d43d
0.6058707 0.7428211 0.79617304 0.95246613 0.36864826 0.60265565 0.67599136 0.10397491

blocks.0.norm1.bias f4 [8]
00000000: 92aa 4f3e 9f9f cd3e c6dc 9cbe 7461 113f
00000010: d6bd 303e 7f3e 75be 80c0 92be 394d 94bd
0.20279911 0.40160844 -0.30637187 0.56789327 0.17259917 -0.23949622 -0.2866249 -0.072412916

blocks.0.mha.q_mappings.0.weight f4 [8, 8]
00000000: e976 d43d c2c2 a83f ff5f c6be bb2c ca3f
00000010: 2560 61be 2977 cabe 7d76 abbf c620 b0be
00000020: de0c dcbd f8e1 80bf ec68 d93e 9ec4 cdbf
00000030: 9513 c43e b6be e73e 3115 6b3f ff86 903e
00000040: da74 6d3e 1732 8a3f 52ad fb3e b335 ac3e
00000050: a0de 18bf 785a 4c3e 02be 61bf 696d aabe
00000060: dc29 ab3d f3cf e33d 658c 1b3d 2268 cb3d
00000070: 64b4 cc3e 61ef 843e d8d5 00bd be0f 2ebc
00000080: 8692 8abf 81fb 58bf 5950 87bf f7d7 63be
00000090: 5888 5e3f 010e 013f 433b 0a3f afeb b83e
000000a0: 6349 97bf 05ee 94be 7f22 13bf eddf 4bbe
000000b0: 681e 4a3f 4b4b d23e 128b 273f 842e 313f
000000c0: bf65 e7bd 5347 c33d 5dde 373e ed71 16bd
000000d0: 07bc 1b3e 1142 b3be dc5b 863d 9bdd 2c3d
000000e0: 3799 1f3f 4850 813e 7add c13e cf69 1abf
000000f0: 8fcd 75bf 3b09 46be 8f4b 1cbe 08c9 78be
0.10374243 1.3184435 -0.38745114 1.5794901 -0.22009332 -0.39544037 -1.3395535 -0.34400004
-0.10744642 -1.006896 0.42462862 -1.6075628 0.3829619 0.45262688 0.9182921 0.28227994
0.23189107 1.0796536 0.4915567 0.3363472 -0.597147 0.19956386 -0.88180554 -0.33286598
0.083575934 0.111236475 0.037975688 0.09931971 0.39981377 0.25963882 -0.031453937 -0.01062387
-1.0825965 -0.84758765 -1.0571395 -0.22250353 0.86926794 0.50411993 0.53996676 0.36117312
-1.1819271 -0.29087844 -0.5747451 -0.1990964 0.78952646 0.4107307 0.6544658 0.692116
-0.112987034 0.095350884 0.17955919 -0.03672974 0.15208445 -0.35011342 0.065604895 0.042203527
0.6234316 0.25256562 0.37864286 -0.603177 -0.9601678 -0.19339459 -0.15263198 -0.24295437

blocks.0.mha.q_mappings.0.bias f4 [8]
00000000: d718 073f 6493 10bf 8786 cdbe 14c7 a3bd
00000010: c38d 813e c358 0f3d 10c8 44be 1c94 8bbe
0.5277228 -0.564749 -0.401417 -0.079969555 0.25303468 0.03499676 -0.19216943 -0.27261436

blocks.0.mha.q_mappings.1.weight f4 [8, 8]
00000000: a663 cebe 6688 1cbf ca21 af3e 393a f6bc
00000010: 048f 1bbd e5e7 a6be 4c4b f4bd 93cc fe3e
00000020: 0a89 653e e2a3 23bf 9273 2dbf 4d96 163f
00000030: b304 853f 6009 9cbd 5bd4 e53c cc70 87be
00000040: 96e3 afbd a4c0 a5be 5b6d 87be 964f b33d
00000050: bb92 0e3c 20c1 0abf 62cf 47be c187 44bd
00000060: 0986 e23e ae6b b93f 1a5f 9e3d b5e8 513f
00000070: c3b3 853e e2e1 d3be a43f 4bbf 382c 6abf
00000080: d101 ef3e c921 4f3f 0891 b2be 79c0 42bd
00000090: 08ac 0c3f 0c56 333f e964 293e ed84 b6be
000000a0: f628 a53e 61c1 4dbf a39d 4cbd 89d6 8a3e
000000b0: 14ce 323f 8763 51bf 8ab1 00bf 56bf 9e3e
000000c0: 90c9 79be 37b6 7fbe d8be f6bf 45ac 3e3e
000000d0: af03 543f 8887 1a3f c14c 973c d5a8 4dbe
000000e0: 8aa9 76be fd15 ff3d 2cc5 88bd 74ac 31bd
000000f0: 63ef fbbe 0201 14bf 22f8 8dbe 6af6 e9bd
-0.403104 -0.6114563 0.34205467 -0.03005706 -0.037978187 -0.32598796 -0.11928424 0.49765453
0.22415558 -0.6392194 -0.6775447 0.5882309 1.0392059 -0.07618976 0.02805536 -0.26453245
-0.085883304 -0.32373536 -0.2645062 0.08755414 0.008701975 -0.54200935 -0.19512704 -0.047981028
0.44242886 1.4485986 0.07732983 0.8199571 0.2611371 -0.41383272 -0.7939398 -0.9147372
0.46681073 0.8091093 -0.34876275 -0.047546837 0.5495 0.7005317 0.165424 -0.3564829
0.32257813 -0.803732 -0.04995502 0.27116802 0.698457 -0.8179249 -0.50270903 0.31005353
-0.24393296 -0.24971853 -1.9276991 0.18620403 0.8281812 0.60363054 0.018469216 -0.20083936
-0.24088112 0.12455366 -0.066782326 -0.043377355 -0.49206075 -0.5781404 -0.27728373 -0.11423953

blocks.0.mha.q_mappings.1.bias f4 [8]
00000000: 5378 48bf 459e b23f 07be 623e a6c5 eb3d
00000010: c36c bebd fad9 30bf 1cc9 893f 47cc 33be
-0.783086 1.395455 0.22142802 0.11512308 -0.092980884 -0.69082606 1.0764499 -0.17558394

blocks.0.mha.k_mappings.0.weight f4 [8, 8]
00000000: 481b b73f 052d 2f3e d6eb 95bf 584e 713e
00000010: 4d30 cbbe ff31 1fbf 885c 713f d470 b7be
00000020: 742a 6abf ee1a 9bbd bbd7 8c3f 5abd 81bd
00000030: af17 153f 5a90 4d3e 3cb8 8bbf e4b5 193f
00000040: b7a9 9a3f 0ffe 6bbe ff0e 53bf 3c28 173f
00000050: 28cb 93bd 1254 82bd c561 493e 6cf9 21be
00000060: 1d0e 203e 9469 25be 8d6c b63d b655 0d3d
00000070: 14be a4be 550f fb3e 6001 55bc aa3e 063f
00000080: 7412 dc3b 1b7b 313f ff00 c63f 75e0 bfbd
00000090: 5a99 85be fe75 07bf fda2 3fbe 4535 4bbf
000000a0: ece2 fabe 0205 6b3e 756b 813f fca8 94be
000000b0: 03c0 a73e 8076 9abe f92c b63d a06e 08bf
000000c0: 3693 36be 3076 9bbe a6be ed3d 31e4 9b3c
000000d0: d88f 043f 9896 1ebe f892 ea3d ee48 3fbe
000000e0: e2b2 af3e 36db dc3d 173b dcbe 8589 8c3e
000000f0: 99be 2c3f 4c75 13bf c1ea 3dbe 6db3 b53e
1.43052 0.17107017 -1.1712596 0.23565042 -0.39685288 -0.62185663 0.94281816 -0.3582827
-0.9147103 -0.07573496 1.1003336 -0.06334944 0.58239263 0.20074597 -1.0915599 0.6004317
1.2083043 -0.23046134 -0.8244476 0.5904577 -0.07216483 -0.063636914 0.19666202 -0.15817803
0.15630384 -0.16153556 0.08907423 0.03450557 -0.32176268 0.49035135 -0.013000816 0.5243937
0.006716067 0.6932847 1.5469054 -0.09368984 -0.2609356 -0.52914417 -0.18714519 -0.7937816
-0.49001253 0.22951129 1.0110918 -0.29035175 0.3276368 -0.30168533 0.088952966 -0.532938
-0.17829594 -0.30363607 0.11608629 0.019029709 0.5178199 -0.15487134 0.11453813 -0.18680164
0.34316164 0.10783999 -0.43013832 0.2744867 0.6747833 -0.57600856 -0.18546583 0.35488454

blocks.0.mha.k_mappings.0.bias f4 [8]
00000000: 6ed7 823c 89ed 1e3e 53ef 81be d5ea 3c3c
00000010: 8d7e 943e 320b e53e 7a04 8bbe d3b3 18be
0.015971866 0.155203 -0.25377902 0.011530598 0.290028 0.44735104 -0.27151853 -0.14912347

blocks.0.mha.k_mappings.1.weight f4 [8, 8]
00000000: 386a 7d3d 7e9f a53e a3eb df3d 48da b03e
00000010: ac55 8f3e 4510 20bf 9476 92bf 166c 673f
00000020: 4ed5 d53e 463e dd3e f209 dabd d50b 45bd
00000030: 58e8 95bf 8dc4 3cbf bc6e bc3f 0602 5bbf
00000040: 26f0 14bd 924d ee3d ac12 c9bd 3408 ab3d
00000050: 4254 853d dbdc 34bf 14d3 22bd a726 b73e
00000060: 97bf 66be 6fe4 febe 7af3 e03e b49f 8bbf
00000070: 3a10 debe 955c 943f 9018 843f 10b5 c73e
00000080: bd42 1fbe 64e8 04bf 147d eb3e 349c c0bd
00000090: 76e3 863e 6843 b73f ec1d 1f3f f722 41bf
000000a0: 10c2 44bf 8c4f 3c3e 4e69 163f 4bc1 9a3e
000000b0: f0ec c13d 5295 31bf e6b5 72bf 8fe8 88be
000000c0: 2aa5 033f 9853 00bf e446 1b3f 4e28 d13e
000000d0: 825a b1bf 5118 493f 9c8a b13f fad8 8dbf
000000e0: a446 b1be 5d72 41be c2f6 073d 7bfe 1a3e
000000f0: ea49 9a3d 0ab2 2d3e 0c65 973c 6770 293f
0.061868876 0.32348245 0.10933616 0.34541535 0.2799505 -0.62524825 -1.1442437 0.903993
0.417643 0.43211573 -0.10646428 -0.048106987 -1.1711531 -0.7373741 1.4721293 -0.8554996
-0.036361836 0.11635889 -0.098180145 0.08351174 0.065102115 -0.706495 -0.03975208 0.35771677
-0.22534023 -0.49783656 0.43935758 -1.0908113 -0.43371755 1.1590754 1.0319996 0.39005327
-0.15552802 -0.519171 0.45993865 -0.094047934 0.26345414 1.4317446 0.6215503 -0.7544398
-0.76858616 0.1838972 0.5875443 0.30225596 0.0946902 -0.6936847 -0.94808805 -0.26739928
0.51423895 -0.50127554 0.60655046 0.40851063 -1.3855746 0.7855273 1.3870425 -1.1081841
-0.34624207 -0.18891282 0.03319431 0.15136139 0.07533629 0.16962448 0.0184808 0.6618714

blocks.0.mha.k_mappings.1.bias f4 [8]
00000000: 6adf 24be 9221 b63e 3eae c03d 3c1b 3d3e
00000010: b4d6 593e a759 643e cd45 3cbe 85cc a7be
-0.1610085 0.35572487 0.09408234 0.1846742 0.21273309 0.22299825 -0.18386002 -0.32773224

blocks.0.mha.v_mappings.0.weight f4 [8, 8]
00000000: a171 c5be c09f 1abf 19b6 cebd 8b3a 33be
00000010: b13c 87be ece9 253e 4b2d b83e db6e e1bc
00000020: 8be1 883d 2b5b b23d e06c 143f a062 c3be
00000030: 64fe 71be eeb9 08bf 2ac0 96be 46f8 00be
00000040: a4d4 a9be 9418 3bbb 3ede 89bd 5f8d 2a3f
00000050: d8eb bbbc 7e78 403c 87d2 e43d 9bd1 d0be
00000060: fcd3 303e 75cc da3d 2a99 973d 81c4 2abe
00000070: 7f49 ae3e 3d11 28be 6586 adbd 702d 47be
00000080: 93b5 3dbd 31e8 1d3e 7fb9 69bd ab9d 253b
00000090: 685a a4be 2202 20be ad12 39be 8048 87bc
000000a0: dbc0 213f 09b2 10be a6e4 363e 3951 5fbf
000000b0: ce22 8abe 15b3 11bb 1bfb 6e3f 10f0 ebbc
000000c0: 2398 70bc 4a5b a63c 3589 013d 43f7 debc
000000d0: 3585 09bc 0011 633d 9956 4dbd 57e4 813d
000000e0: ae51 c73e 4790 6bbc 5e30 793d 2d1e b2be
000000f0: e1ed e63e 2d90 70bf d2aa a7be 93f8 94be
-0.38563254 -0.6040001 -0.10093326 -0.17502801 -0.2641349 0.16202515 0.35972056 -0.02751868
0.06683644 0.08708795 0.5797863 -0.38161182 -0.23632199 -0.53408706 -0.29443485 -0.12594709
-0.33170044 -0.0028548585 -0.067318425 0.66621965 -0.022939608 0.011747478 0.111729674 -0.40784916
0.17268366 0.10683528 0.074022606 -0.16676523 0.34040448 -0.16412826 -0.08472899 -0.19450927
-0.04631574 0.15420605 -0.05706167 0.002527098 -0.32100224 -0.15625814 -0.1807353 -0.016514063
0.631849 -0.14130415 0.1786066 -0.8723331 -0.2697968 -0.0022231985 0.93351907 -0.028800994
-0.01468471 0.020307202 0.03162499 -0.027217513 -0.008393575 0.055436134 -0.050131414 0.063423805
0.38929504 -0.01437766 0.060837142 -0.34788647 0.45103362 -0.93969995 -0.32747513 -0.29095897

blocks.0.mha.v_mappings.0.bias f4 [8]
00000000: 0c49 46bd 6b7c 0cbd 5170 6ebb bda5 8abb
00000010: 931b 8e3c f735 333e 0d65 193c 680c 0fbd
-0.048409507 -0.03429834 -0.0036382864 -0.0042311833 0.017347133 0.17501055 0.009362471 -0.03492394

blocks.0.mha.v_mappings.1.weight f4 [8, 8]
00000000: 3efa 7f3e 36e2 803d ab26 873f bed2 5abf
00000010: e8be f1be 93aa 863e 47e5 9c3d 5629 97bc
00000020: 2efa 9d3d d057 cabc 44b8 ae3d 474d 843d
00000030: 690d 81bc 6443 a93d 4fb3 943a 68d1 8c3d
00000040: 39c5 64bf 90ee 883e 9024 dabe 990f 9fbf
00000050: f870 3c3e 84a8 333e 7e96 643d 8d20 c83d
00000060: a063 89bd ebff 37bd cc9c 963d dead f63c
00000070: 49cd 91bd d594 953d 209b a13c 589b 203e
00000080: 52ba 2bbf e444 7dbf 4717 a83d 147e 0abf
00000090: f4f5 a83e 8e6f 2ebd 7522 aa3e 8096 c73d
000000a0: cc55 883d 6916 a43d adf9 6c3d 9d93 aa3d
000000b0: 3748 ee3d d9ea 043e 70af e7b9 b329 8b3e
000000c0: 5676 a23c c2ff 9dbd cc54 253e 875b 0a3d
000000d0: 6ae9 12be 5ef8 8f3d 9d48 593b d9a3 8a3d
000000e0: 32ef 483f c13f 53bf 60ef 6ebf 8c16 3fbe
000000f0: 8f21 ec3c dcc3 de3c 27ed eb3e 4f4e d13d
0.24997804 0.06293146 1.0558676 -0.8547782 -0.47215962 0.26302013 0.07660919 -0.018452328
0.077137336 -0.024700075 0.0853124 0.06460052 -0.015753465 0.08264807 0.0011344942 0.068758786
-0.8936344 0.2674451 -0.4260602 -1.2426635 0.18402469 0.17544752 0.055807583 0.097718336
-0.06708455 -0.044921797 0.073541254 0.030112203 -0.07119233 0.07303778 0.01972729 0.15684259
-0.6708118 -0.98933244 0.08207565 -0.5409863 0.33000147 -0.042586856 0.33229414 0.097455025
0.066569895 0.08012087 0.057855297 0.08328936 0.11634868 0.12980212 -0.00044190465 0.2718025
0.019831818 -0.077147976 0.16145629 0.033778694 -0.14346853 0.07029794 0.0033154853 0.06769533
0.78489983 -0.82519156 -0.9333401 -0.18660945 0.028824596 0.027193002 0.4607937 0.10220014

blocks.0.mha.v_mappings.1.bias f4 [8]
00000000: 1da6 1fbd cc55 1abb a90d 95bc f623 58bc
00000010: 3161 eabc 941a 113c 1263 98bc 41ec 37be
-0.038976777 -0.0023549674 -0.01819499 -0.0131921675 -0.028610798 0.008856434 -0.018601928 -0.17961217

blocks.0.mha.o_mappings.weight f4 [8, 16]
00000000: 5e59 b8bc b97b a0bd dc83 853e f273 03be
00000010: b2bf 95bc 0020 67be a6b7 d7bc bd12 9bbe
00000020: 0bd4 183e ca0a 2dbd 5a5b 7b3e 9c4e 95bd
00000030: c4fd 79be 8791 963b 8db8 10bc 926b 4ebf
00000040: b3eb 80bc 8e47 ccbe 397d e13c 2b5d debd
00000050: 3f8a 973c 5188 883b 3a17 ac3c b4e2 98be
00000060: a3ce 613e 2161 c1bc a188 223d 81c8 b3bd
00000070: 010c f23e a0dc de3d 2f76 4ebd 56bb e23e
00000080: 421d d3bc 45c6 4d3c 6306 103e 6b65 04be
00000090: ca76 01bc b6d0 4a3d c0d1 d93b f4df 2abe
000000a0: a918 6dbe 9fe0 37bd dfbe 3dbe 91d2 97bd
000000b0: 7fbe 38be ce85 2d3d cdd4 23bc 69ca f63d
000000c0: 8845 c2bd 8640 9ebe 6758 de3d 8a67 17be
000000d0: 067b e43b e418 663e b57f 893c 7b0d 5abe
000000e0: effb 5c3e 0e09 94bd ba7a 863e 8104 b1bd
000000f0: 70a0 4c3d dc1e 913d e273 89bd fbf8 b93d
00000100: 27c5 1b3d cd3c 0cbe 7c3e 0c3e 5e80 39be
00000110: 48ef c93c b26c 743f 0a1d ee3b 80d9 e8be
00000120: bcfd ef3e 58a1 e8bc d2cf 0ebd ae17 7abd
00000130: 4cfb d5be 4bd9 4c3d 9ea9 673c 6997 28bc
00000140: cc3a ebbd 2fbf bc3e da4c 4ebd 9176 75bd
00000150: 0682 a2bc a4c7 1abe 5c12 1fbd 33a0 a93d
00000160: abb0 33bd edb9 b6bc 0fe4 4cbd e601 2ebd
00000170: de2a 92be 50b3 003d a6ff 3c3d a53a a33d
00000180: 4f78 1dbe 4fe5 3b3f d600 c03e ca5b 5abe
00000190: a91a ba3d 4fc3 64bf e574 af3d 689d cebe
000001a0: 5de2 f23e f6a4 47bd e958 d5be 0d9f 97bd
000001b0: 4f61 463e 54e3 b93d ad4f debc f46a a63e
000001c0: f638 ffbc afe2 493e 83b4 083d d1ee 97bd
000001d0: 48ab 963b 837d e0be f316 7a3d 213b 61bd
000001e0: 0ecd edbe c45c 1abd 9c25 edbe ea1d b4bd
000001f0: f74a aabe b7c3 883d 7df6 41bd 6598 12bf
-0.022503551 -0.07836098 0.26077163 -0.12837198 -0.018279884 -0.22570801 -0.026332688 -0.30287734
0.14924638 -0.042246617 0.24546567 -0.07290384 -0.2441321 0.004594985 -0.008833063 -0.8063289
-0.01573739 -0.39898342 0.027525531 -0.10857614 0.018498538 0.004166641 0.021007169 -0.2986046
0.22051482 -0.023605885 0.03968108 -0.087784775 0.47274783 0.10881925 -0.050405677 0.4428355
-0.025770787 0.012559478 0.14064936 -0.12929313 -0.007901857 0.04951545 0.0066473186 -0.16686994
-0.23153938 -0.04489195 -0.18529843 -0.07413209 -0.18041418 0.042363934 -0.009999466 0.120503254
-0.09485918 -0.30908602 0.10856705 -0.14785591 0.0069726733 0.22470433 0.016784528 -0.21294205
0.2158048 -0.072282895 0.26265508 -0.08643437 0.049957693 0.07085964 -0.06711556 0.090806924
0.038029816 -0.13695069 0.13695711 -0.18115374 0.024650231 0.95478356 0.0072666453 -0.4547844
0.4687327 -0.028397247 -0.03486616 -0.06105774 -0.41793287 0.050011914 0.014139561 -0.010290005
-0.11485824 0.36864612 -0.05036626 -0.059927527 -0.01983739 -0.1511522 -0.03883587 0.08282509
-0.043869656 -0.022305453 -0.05002218 -0.04248228 -0.2854833 0.031421006 0.046142243 0.0797017
-0.15377925 0.7339677 0.37500638 -0.21324077 0.09087116 -0.8936052 0.08567218 -0.40354466
0.47438326 -0.048741303 -0.41669396 -0.074033834 0.19373058 0.090765625 -0.027137602 0.32503474
-0.03115509 0.19715379 0.033375274 -0.074185975 0.004598055 -0.43845758 0.061057042 -0.05498803
-0.46445507 -0.037686124 -0.46317756 -0.08794768 -0.3326032 0.06677955 -0.04735421 -0.57263786

blocks.0.mha.o_mappings.bias f4 [8]
00000000: f42d 263e d0a2 0c3e 1680 09be aad8 423e
00000010: c7fe f83c ee9b 8cbe 3081 10bf b33b 9abd
0.16228467 0.13733983 -0.13427767 0.19027963 0.030394925 -0.27462715 -0.56447124 -0.07530918

blocks.0.norm2.weight f4 [8]
00000000: 0522 7a3f 3b04 5b3f 7518 e23f b755 9f3f
00000010: 5681 823f 7f2d 993f e107 213f 9d42 213f
0.9770816 0.8555333 1.7663714 1.2448033 1.019572 1.1967009 0.6290265 0.6299227

blocks.0.norm2.bias f4 [8]
00000000: 47d8 c83d 1ed3 52be 59fa 13bf 370e 8d3e
00000010: 877f 003f 038b 3a3d 708f d33b 91af b2be
0.09806877 -0.20588347 -0.57803875 0.27549908 0.5019459 0.04554273 0.006456308 -0.34899572

blocks.0.mlp.0.weight f4 [32, 8]
00000000: 8261 363f e8e8 bebe dfcc 7abf e4cd 0c3f
00000010: 45e8 b4be 5572 b03e 166b 0e3f 9d9a 51be
00000020: 8577 b83f 989e 98be 456e 5c3e 53ef b93e
00000030: 486c 80be fc33 753c 514d 84bf aa04 f63e
00000040: 62a4 1ebf a35d 82bf 6c53 893d b01f 1abe
00000050: 2862 2d3e 7d3a 02be 2980 5b3f 1d29 3f3f
00000060: 9748 703d fd6a 86bf bf51 fbbe da48 46bd
00000070: f942 a4be d2a6 4f3f 61fb 803f 4258 6a3e
00000080: 9041 2abf e510 0fbf f16c 22bf 6924 253f
00000090: af64 893f c2aa e83e 1cb5 c4bd 10c0 4e3f
000000a0: ed3c 2f3e 3691 823f 47ef 773f a633 733f
000000b0: 87bd 92bf 3a58 cbbe ac35 92be eb73 69be
000000c0: 5db7 243f c31f 063f 0f54 14bf 62ef 89bf
000000d0: 73cb 5b3e 53f8 afbf 6038 0f3f 67f8 833f
000000e0: c2de 61bf 7cb3 653e fa13 653e 22da 3d3e
000000f0: 36f4 67bf 7a89 a23f 337a 4bbe a3cc 1ebe
00000100: 215d f23e 3f2d 80be 8151 6cbe 53e8 2bbf
00000110: 09d0 053f 389a 673f 74de 2dbf b027 ecbe
00000120: b359 2cbf 6ae5 1b3f f469 8b3f 3962 d33d
00000130: ae66 e7be eb3d 73bf 0e67 fdbb 4159 2e3f
00000140: d3b5 8a3f 2ca2 debe b385 863f 933f b1bd
00000150: 47c1 39bf 87ba a1bf ee9f ec3e 988f 31be
00000160: d42b f3bd e8e5 0cbf 46cd f33e bcea 9e3f
00000170: a04c 6fbf 0692 2bbf d8c4 f53e f18a c2be
00000180: dad0 6abf 3196 9e3e 2a86 37bf 6f6e 923e
00000190: 8e22 dabe f609 ebbe 6669 d6be 0f6c b03f
000001a0: 9c92 f83d fcc3 c83e 3c97 373f f63f 683d
000001b0: effd 5abe 275b aabf 8831 0dbf 928e 2f3f
000001c0: 4519 803f edab 70be 102e 1a3f 4824 bd3f
000001d0: 3851 183e dd21 a0bf 7a31 46be 6e75 3abf
000001e0: d3b7 a43d d2b4 2c3e 44e6 c73f c820 4f3e
000001f0: 8127 27bf e50f 82be 338c 82be 7a19 50bf
00000200: eb4b 3e3f 7b6a 4dbe 0e69 19bf 6d98 733f
00000210: af90 8abf d9e6 53be 718f a8bf ccbf b23f
00000220: c33f bf3e f7bf d63e d9a7 64bf 3f20 69bf
00000230: 9d8f 22bf 7f27 b63e 2337 483f 98b3 94bc
00000240: 3b64 ba3f 0af6 8a3f ff82 0e3f 8eed 3fbf
00000250: 1636 adbf fa6d 67bf 8609 eaba 4209 373f
00000260: c7b5 9e3e 64ba 7e3f ab94 f83e 5a46 87bd
00000270: ee46 debf 1610 2a3e 9015 b6be ea22 49bf
00000280: 047c 973f 933f b8be ab4c 25bf a9df dcbe
00000290: c418 07bf 96b0 07bf fe4a 363f fc4a 823e
000002a0: 0bd3 963f 7ea7 eabe 0bb9 0b3f e72a 2e3f
000002b0: 6e18 213e c32c 9cbf 96c5 29bf 0f47 b93d
000002c0: 3245 553f b425 373f 405f 63bf 1d48 863f
000002d0: 6d65 50bf 1e39 9fbf 4808 e03e 4d97 d3be
000002e0: 5efc febe 8eb3 92bf f5a9 e03e b8a0 913f
000002f0: 106e 3fbf 8b0b 163f 8fce 873e e2ca 643d
00000300: 1377 113f 3591 41be 02ac 7abe f55a 5ebf
00000310: 802d ac3e 908b 97bf 8d8f 823f 8214 c5be
00000320: 7c94 d6bd d417 903e f90f 3c3f 9d49 1dbe
00000330: 09b6 bc3e 8eaf 22bd 2529 9dbf 4852 a53e
00000340: fff3 2abf 5b4f 75be f41a c2bf 442c 633e
00000350: ac87 163f 4fbe 443f f8cd e63e 653d d73e
00000360: b88f 583f 3cad 1d3a e136 b8bf c5e9 723f
00000370: e342 4a3e 5b8e 07bf 890f 6c3e e167 26bf
00000380: 1b68 433f de2f f83c 1ccc 02bf 0c87 893e
00000390: 1399 913e 102a 803e 3a1e 193f 6585 64bf
000003a0: 3984 c43f dc93 5a3f 5831 08bc abd4 bc3c
000003b0: ef49 94be bef2 63bd 5e11 03bf 9686 6bbf
000003c0: 6638 00be 9bf2 6e3f 0098 903f bc55 87bf
000003d0: f37c 913a b1d2 b13e 5978 3c3f d741 8cbe
000003e0: ea66 a73e c69c 11be e5d5 d2be f5bd b93f
000003f0: a14e f2be b502 a13e d6a6 a0bf 61b7 fcbd
0.71242535 -0.37287068 -0.9796886 0.55001664 -0.35333458 0.34462228 0.5563215 -0.20469137
1.4411474 -0.29808497 0.2152644 0.36315402 -0.25082612 0.014966007 -1.0336095 0.48050433
-0.6196958 -1.0184826 0.067053646 -0.1505115 0.16931975 -0.12717624 0.8574243 0.7467211
0.058662977 -1.05014 -0.49085805 -0.04840932 -0.32082346 0.8111392 1.0076715 0.2288523
-0.6650629 -0.55885154 -0.6344748 0.6450868 1.0733851 0.45442778 -0.09604856 0.80761814
0.17113085 1.0200565 0.96849483 0.95000684 -1.1464089 -0.3971575 -0.28556573 -0.22798125
0.6434229 0.52392215 -0.57940763 -1.0776179 0.21464328 -1.3747658 0.55945396 1.0310181
-0.88230526 0.22431749 0.22370902 0.18540242 -0.9060701 1.2698205 -0.19870834 -0.1550775
0.47336677 -0.2503452 -0.23077966 -0.67151374 0.5227056 0.90469694 -0.6791756 -0.4612403
-0.6732437 0.60896933 1.0891709 0.10321469 -0.45195526 -0.95016354 -0.0077332323 0.6810494
1.0836738 -0.43483102 1.0509552 -0.08654704 -0.7256054 -1.2635049 0.46215767 -0.17339933
-0.11873594 -0.5503831 0.4761755 1.2415385 -0.93476295 -0.6701969 0.48001742 -0.3799663
-0.9172493 0.30973962 -0.71689093 0.2859988 -0.42604488 -0.45906037 -0.41877288 1.3782977
0.121373385 0.39212024 0.7171514 0.056701623 -0.2138593 -1.3309067 -0.55153704 0.6857692
1.0007712 -0.23503084 0.60226536 1.4776697 0.14874732 -1.2510334 -0.19354811 -0.72835433
0.08042874 0.16865852 1.5617146 0.20227349 -0.65294653 -0.25402752 -0.2549759 -0.81288874
0.7433459 -0.2006015 -0.59925926 0.9515446 -1.0825404 -0.2069353 -1.3168775 1.3964782
0.37353334 0.41943333 -0.89318615 -0.9106483 -0.63500386 0.35577008 0.7820913 -0.018152043
1.4561838 1.0856335 0.55668634 -0.74971855 -1.3532131 -0.90402186 -0.0017855621 0.714985
0.3099806 0.9950316 0.48550925 -0.06605215 -1.7365396 0.16607699 -0.35563326 -0.785689
1.1834722 -0.35986003 -0.6457011 -0.4313939 -0.52772164 -0.53003824 0.7120818 0.25447834
1.1783155 -0.4583091 0.5457923 0.68034214 0.15731975 -1.220116 -0.6631712 0.090467565
0.8330871 0.71541905 -0.88817215 1.0490757 -0.81404763 -1.2439306 0.43756318 -0.4132637
-0.49801916 -1.1461046 0.43879667 1.1377172 -0.7477732 0.58611363 0.2652478 0.055857547
0.5682232 -0.18903048 -0.24479678 -0.8685754 0.33628464 -1.1839466 1.0200058 -0.3849221
-0.1047754 0.2814318 0.7346187 -0.15360112 0.36857632 -0.039718203 -1.2278181 0.32289338
-0.6677856 -0.23956053 -1.5164475 0.22184855 0.5880077 0.7685289 0.45079017 0.42039028
0.845943 0.00060148886 -1.4391748 0.94887954 0.19752078 -0.5295159 0.23052801 -0.65002257
0.7633073 0.030296262 -0.51092696 0.26860845 0.284371 0.2503209 0.5981175 -0.89266044
1.5352851 0.85381866 -0.008312546 0.023050627 -0.28962657 -0.05565142 -0.51198375 -0.92002237
-0.12521514 0.93338937 1.1296387 -1.0573039 0.001109986 0.34731057 0.73621136 -0.27393982
0.32695705 -0.1421996 -0.41178814 1.4511095 -0.47325614 0.31447378 -1.2550914 -0.12339664

blocks.0.mlp.0.bias f4 [32]
00000000: 362c 4cbf e552 e6be c9b7 9a3e 2c14 d6be
00000010: 9758 8abf a694 853e 3217 c6be aac1 2fbf
00000020: da7d e3bf db70 94be 5866 8dbf 0f9b 32bf
00000030: 178b 2bbf e640 16bf e1ae edbe 3572 63be
00000040: 5f9e 93bd 10f3 82bf 2b90 70bf 232d 0a3e
00000050: 9c60 7cbf c129 88be d900 29bf d792 7abf
00000060: f472 1dbf 3d42 cdbd a8e5 c6be 626a 86bf
00000070: c273 55be c686 14be 4e3a 0fbf 92e2 3c3e
-0.7975496 -0.44985119 0.30218342 -0.41812265 -1.0808285 0.26089972 -0.38689572 -0.6865488
-1.7772782 -0.28992352 -1.1046858 -0.6976785 -0.6700911 -0.5869278 -0.46422485 -0.22211535
-0.07207941 -1.0230427 -0.9396998 0.13493781 -0.98584914 -0.26594356 -0.6601692 -0.9788031
-0.6150353 -0.100223996 -0.3884709 -1.0501215 -0.2084494 -0.14504537 -0.5594834 0.18445805

blocks.0.mlp.2.weight f4 [8, 32]
00000000: d238 d1bb 3fc6 af3f 3de3 bbbe 2328 753e
00000010: 1c5a c83f cc70 e13e b266 64bf 3c98 99bf
00000020: c2ac 25be ba6b 2cbf 26cd 363e 4702 5bbe
00000030: 9903 153d 0572 073f 93dd 4c3f 78d6 433f
00000040: 0aaa 113e 1eeb 26bf 29a5 b03f 67bc a0bd
00000050: 2dc5 a0be f55a 543f 0664 093f a909 8ebf
00000060: 3cca 1ebd b1d0 dd3e 343c 593f e37f f93f
00000070: 4270 953e 2a1c 5c3f f03f 1bbf a75f 483f
00000080: d70a 0dbf e2ce 98be 74e6 b8be 9aaf 67bf
00000090: f234 27bf 76aa 1fbe e1d8 c23f af35 4ebd
000000a0: a663 e13e 6d1a a5bd 3ff8 68bf 3a7e 56bf
000000b0: f602 283e fca7 4dbe 44c2 90be 1110 36bf
000000c0: 7faf 8d3f d77e b53d 164b 6b3f fb67 833f
000000d0: 0dc4 38bf 2d51 cbbf 983b a53f 0567 94bf
000000e0: 9d1d 16bf 32da 75bd 38c2 6c3c 5a65 89bf
000000f0: 0d2e 1bbe 1a03 483f 2d81 923f df56 a73e
00000100: 191e 42be 8526 87be cd68 4fbd b341 ddbe
00000110: 75dd 613b 0ed6 0b3f e755 ccbe 5301 853e
00000120: 7fb6 06bd 7c83 573f 4202 593f 7819 d7be
00000130: 9a07 d2be 2b1b e73e 7b37 b7bf b482 af3f
00000140: f081 88bf 4920 42bf 36c6 f33e d00f 813e
00000150: f0a1 8f3e c00e 303d 765d d8be 5b7f 0f3f
00000160: 6006 133f b32d 3a3f a304 84bf bb16 573f
00000170: 4c6c 4cbf f1be 78bf 5ccc f43e 733b 073e
00000180: b169 d1be 4d68 41bf fe1f 3fbe 1942 033f
00000190: bd9b 3bbd a9ce 5d3f 675e 03bf 2f3f 8a3e
000001a0: 17c0 873e 7143 9dbe 63f3 023f 6802 cd3f
000001b0: 8803 b63e 0282 f73d c4bb 4d3f 71da 4b3e
000001c0: d1ef 30bf 27a2 413f 492f d63b b447 4d3f
000001d0: 3422 2bbd b416 d0be e7b9 02bf a659 423f
000001e0: bdf5 74bf bafc 5cbf 2957 2f3f 43e2 18bf
000001f0: bd52 393f dc22 a93e feea 58bf 2800 f5bd
00000200: ffc3 fc3e 3b46 843d a4f9 10bf 91b1 b3be
00000210: b7bd b6be abd6 ad3e 9fec 99be 3d93 5d3f
00000220: de20 6dbf 84d9 af3d 2546 463f 4763 183e
00000230: dc62 8d3f 457b 53bf aa8c 383f ad9a 053f
00000240: 9620 e33e ee0f 4dbe 8aa3 b9bf 8672 8fbf
00000250: 87c2 773f 8daf 553f 0f9b e3bf b195 5f3f
00000260: 5f88 133f 4236 ae3e 58dc 963f eba9 4d3f
00000270: 4e95 2c3e c7d5 e03d 183e 613c 184a 6b3f
00000280: bc95 343d 2b7d ab3d 69e1 183e 0618 753f
00000290: 7711 00bf 50eb a8bf aa7e 293f 3ad2 463f
000002a0: ff33 eb3d 40d9 90bf f154 38bf 9108 febe
000002b0: b103 a4bf 4244 1fbf 2bf8 5b3f 5f7f 67bf
000002c0: 7eb7 9cbe acfd 453f e902 8e3e 9c5e 51bf
000002d0: b592 d63f 9315 6d3e bf83 b53b e9df 033f
000002e0: 7a57 8b3f 3367 863e c9d4 9ebf 8052 873f
000002f0: 4912 1bbf 355e 07bf fff0 233f d881 023f
00000300: 455e 333e 1798 ef3e 6b9b 243f 56e2 993e
00000310: c602 bebb e8bf 1abf 406b 43be e52b febe
00000320: d24c b03f 14de 8f3e afc8 f93e e859 693e
00000330: ed3b d0bd 7be6 b3be aa3a 2dbf 71c3 2d3d
00000340: c751 53be 16fb 913e 333e 4dbf 14f9 10bf
00000350: 2f19 213d 8952 8e3e 9e90 3fbe 3998 823c
00000360: 0d45 69bd 5e58 31bf b212 5ebe b8a1 9dbe
00000370: 0d76 4e3f 222e f5be 3b21 803e d1b2 c1bf
00000380: 62c4 063f bc24 a53e 681b 893f 7453 043f
00000390: 2ce7 1d3f aa3b 03bf 70ac b5be b5f5 92be
000003a0: ccf5 76bf f50b bf3e bb39 83bf 8ef8 afbe
000003b0: ab32 a73e f773 033f 8112 f93e 4fa1 1fbf
000003c0: e9eb c93f 2529 3cbf 6280 54bf 5f6f 08bf
000003d0: 98ac 6bbf d549 b53e 476b ef3e a008 28be
000003e0: 8035 ddbd dd0c c83e f496 68be 0fb0 10be
000003f0: 4505 98be 0c0f f5bc f16a 62bf cf75 423e
-0.0063849473 1.3732375 -0.36696807 0.23941092 1.5652499 0.4403137 -0.892192 -1.1999583
-0.16179183 -0.6735188 0.17851695 -0.21387587 0.036380384 0.52908355 0.80025595 0.7649913
0.14225021 -0.6520251 1.3800403 -0.07848435 -0.31400433 0.8295129 0.5366825 -1.1096698
-0.038767084 0.4332328 0.8485749 1.9492153 0.29187208 0.85980475 -0.60644436 0.78270954
-0.55094665 -0.2984534 -0.36113322 -0.9050232 -0.65315163 -0.1559237 1.5222436 -0.050344165
0.44021338 -0.08061681 -0.91003793 -0.83786356 0.1640738 -0.20083612 -0.28273213 -0.71118265
1.1069182 0.088620834 0.9191145 1.0266107 -0.7217415 -1.5884148 1.2908812 -1.1593939
-0.58638936 -0.06002254 0.014450602 -1.0734055 -0.15154286 0.7812973 1.1445671 0.32683465
-0.18956794 -0.26396576 -0.050637055 -0.43214187 0.0034464274 0.54623497 -0.39909288 0.25977573
-0.032888886 0.84185004 0.8476907 -0.4201162 -0.41021425 0.45137915 -1.4313806 1.3711762
-1.0664654 -0.75830513 0.4761216 0.25207376 0.28053236 0.042982817 -0.42258805 0.56053704
0.574316 0.7272598 -1.0313915 0.8401906 -0.7985275 -0.97166353 0.47812164 0.13206272
-0.4090095 -0.75549775 -0.18664548 0.5127273 -0.04580282 0.86643463 -0.5131592 0.2700133
0.2651374 -0.30715516 0.5115263 1.6016359 0.3554957 0.12085344 0.8036463 0.19907548
-0.6911593 0.7563805 0.0065363985 0.80187535 -0.041780666 -0.4064232 -0.51064914 0.7591804
-0.95687467 -0.8632313 0.6849237 -0.5972025 0.72391874 0.33034408 -0.8473357 -0.119629204
0.49368283 0.06458708 -0.5663092 -0.3509641 -0.35691616 0.3395284 -0.3006334 0.8655279
-0.92628276 0.0858641 0.7745078 0.14881621 1.1045794 -0.8260997 0.72089636 0.5218914
0.443608 -0.20025608 -1.4503033 -1.1206825 0.967812 0.83470994 -1.7781695 0.87337786
0.5762996 0.3402577 1.1785994 0.803374 0.1685383 0.10978275 0.013747714 0.91909933
0.04408811 0.08373483 0.14929737 0.9573978 -0.5002665 -1.3196812 0.662089 0.7766453
0.11484527 -1.13163 -0.7200461 -0.4961591 -1.2813627 -0.6221353 0.8592555 -0.9042873
-0.30608743 0.773402 0.27736595 -0.8178499 1.6763521 0.23152761 0.005539387 0.51513535
1.0886071 0.2625061 -1.2408687 1.0572052 -0.60574776 -0.52878124 0.64039606 0.50979376
0.1751643 0.46795723 0.6429965 0.30055493 -0.0057986705 -0.60449076 -0.19083881 -0.49642864
1.3773444 0.2809912 0.48785922 0.22788203 -0.1016768 -0.3513678 -0.6766764 0.042422716
-0.20636664 0.28511876 -0.80173033 -0.56630063 0.039330658 0.27797344 -0.18707511 0.015941726
-0.056950618 -0.6927546 -0.21686819 -0.30787444 0.8064888 -0.4788676 0.25025353 -1.5132695
0.52643406 0.3225459 1.0711489 0.5168984 0.61680865 -0.51262915 -0.35483122 -0.28703085
-0.96468806 0.3731381 -1.0251993 -0.3436932 0.32655844 0.51348823 0.4864693 -0.6235551
1.5775119 -0.7350028 -0.83008397 -0.5329494 -0.9206023 0.35407892 0.46761534 -0.1640954
-0.1080122 0.39072314 -0.22713834 -0.14129661 -0.2969152 -0.029914401 -0.8844443 0.18990253

blocks.0.mlp.2.bias f4 [8]
00000000: 6694 c0be 16d5 ca3e 012a a9be fa61 4ebe
00000010: 4f4f e2be 6626 4cbe bbf9 213e a7d7 563f
-0.3761322 0.39615697 -0.3303986 -0.20154563 -0.44201133 -0.19936523 0.15817921 0.8392281

blocks.1.norm1.weight f4 [8]
00000000: 7558 223f 1511 5e3f 0a73 513f 0cd4 523f
00000010: 5da2 0d3f 32a4 3c3f 1f61 4f3f 6b7a f13e
0.63416225 0.86744815 0.8181616 0.8235481 0.5532587 0.7368804 0.8100757 0.4716371

blocks.1.norm1.bias f4 [8]
00000000: 8ea8 aa3c f0cb 5fbd e95a 9fbd 240a 28bd
00000010: 59a5 0dbc cd82 813e 505b aa3d 5f23 5cbe
0.020832326 -0.05463785 -0.077810116 -0.041025296 -0.008645379 0.25295106 0.08318198 -0.21497868

blocks.1.mha.q_mappings.0.weight f4 [8, 8]
00000000: 1bcb ffbe 0b76 4a3f 063f 20bf 341d 19be
00000010: d1b1 913e 7b25 113e 2022 fcbd b89e 33bf
00000020: 09a4 733f b113 003e 458e 473d 7c2e c23e
00000030: 627a 633f 1a4d 7dbf 0cdd e1bf 8564 f63e
00000040: 49f9 8ebf 08f4 333e 8f7a 1abf 309c 953e
00000050: b703 c83e 1094 503f 6203 0cbf 9079 ac3e
00000060: e2ca 69be 2bd8 153f 3dae 4fbf 083c b6be
00000070: a524 05be 3c35 ac3e 7e74 b53d 02cf f03e
00000080: df4b e0bd cb91 533f 8351 d4be 8562 34bf
00000090: bef7 513d 6e88 cf3e 65ef 193e 4e43 2cbf
000000a0: 5ac6 033f 794e 22be 6f80 f33e 7b4f a4be
000000b0: d96f 86be 44ad 56be b9a5 0dbe cdf5 4d3e
000000c0: 2152 2abe 00ae 4abe 9c67 4abd 725d f23e
000000d0: 487c e33e 5149 f83e 65bc 2ebf ba99 023f
000000e0: d321 a83f 1df8 d1bf 6bcd 58bf e220 a53f
000000f0: afd6 bd3d f39a 31bf b0f0 d53e f3ad 23bd
-0.49959645 0.7908637 -0.62596166 -0.14952546 0.28455976 0.14174454 -0.12311196 -0.7016406
0.9517217 0.12507512 0.048719663 0.3792609 0.88858616 -0.9894577 -1.7645583 0.48123565
-1.1169826 0.1757356 -0.6034326 0.29220724 0.39065334 0.81475925 -0.5469266 0.33686495
-0.228313 0.5853297 -0.8112524 -0.35592675 -0.1300226 0.33634365 0.0886011 0.47032934
-0.10951971 0.8264434 -0.41468439 -0.7046283 0.051261656 0.40533775 0.15032728 -0.672902
0.51474535 -0.15850247 0.47558925 -0.3209189 -0.26257208 -0.20964533 -0.1383275 0.20113297
-0.16632892 -0.19792938 -0.049415216 0.47336918 0.44430757 0.48493436 -0.6825622 0.5101582
1.3135322 -1.6403843 -0.8468844 1.290066 0.09269463 -0.6937706 0.41785192 -0.039960813

blocks.1.mha.q_mappings.0.bias f4 [8]
00000000: 8b88 443f 2020 423e cdc7 06be 7eb5 98bf
00000010: 43a7 fb3e 2b57 73be 084f 84bd cc10 cdbc
0.7677085 0.18957567 -0.13162155 -1.1930387 0.49151048 -0.2376372 -0.064603865 -0.025032423

blocks.1.mha.q_mappings.1.weight f4 [8, 8]
00000000: 01b8 36be 58a5 65be ad1a f6bd 041f 133e
00000010: eaf0 86be a4ae e3bb a135 21be 2708 a9bd
00000020: e504 823e 07f3 813f f3f2 53bf dc2f f9bd
00000030: 851f a6bd ecd8 f03e ddff 7ebf a15a 563f
00000040: 43e3 13bf 31ff c43e 082c e5be cdbb 17bf
00000050: 4fe1 fabe 5c80 723f cc3a 223e 2483 123f
00000060: 2a9b f5be 04bf a13e e3ba ba3e be88 2a3f
00000070: 99da 4abe 1e4a 9cbe c421 82be 27b3 f9be
00000080: 43fe 143e ba9f 993e 3d49 d53c 5677 963e
00000090: 2d74 4b3e dd49 1f3e 427a 08bf 4c90 d83d
000000a0: fcba a8be f5d7 b6be 97aa 0dbf 8ccf f93e
000000b0: b3fe b83e 69b7 04be d172 f53e 563e 243f
000000c0: 564f bd3e 48d4 07bf bd70 acbd 2199 6ebe
000000d0: e5b2 ac3e b80a 2cbf d37f 153e 1bfb 313f
000000e0: a80d e43e 6162 91be 3be5 98bf f827 8a3e
000000f0: 7a64 d83d d02a 1abe d2e5 673d 9775 32be
-0.1784363 -0.22426355 -0.12016807 0.143673 -0.26355678 -0.006948309 -0.15743114 -0.08253508
0.2539436 1.0152291 -0.82792586 -0.121673316 -0.081114806 0.47040498 -0.99609166 0.8373204
-0.5776865 0.38475946 -0.44760156 -0.59270936 -0.49000022 0.9472711 0.15842742 0.57231355
-0.47969943 0.31591046 0.36470708 0.666149 -0.19809951 -0.30525297 -0.25416386 -0.48769495
0.14550118 0.30004674 0.0260359 0.2938792 0.19868536 0.1555552 -0.5331155 0.105743974
-0.32955158 -0.35711637 -0.55338424 0.48791158 0.3613182 -0.1296059 0.4793916 0.6415762
0.3697459 -0.5305829 -0.084199406 -0.23300602 0.33730236 -0.67203856 0.14599542 0.6952378
0.4454167 -0.2839537 -1.1944956 0.2698362 0.105660394 -0.15055394 0.056615658 -0.1742767

blocks.1.mha.q_mappings.1.bias f4 [8]
00000000: e631 3fbd 5e18 803e 8d4c 7a3e 7574 0d3f
00000010: 22fe 09bf a5c6 c23e db0e e43e 0334 603d
-0.046678446 0.2501859 0.24443264 0.55255824 -0.539034 0.3804218 0.44542584 0.054737102

blocks.1.mha.k_mappings.0.weight f4 [8, 8]
00000000: c25c 2cbf edac ae3f 9e13 873e 7c61 59be
00000010: feb6 a8bd 22d2 ef3b f6ad 563e d878 dabe
00000020: 01f7 98bf 2028 053f f8b5 77bf 3940 d4be
00000030: b4d2 f23f d514 8dbe 5ec7 553f 092b 763e
00000040: b6b2 6cbf 1fdd b2bd 8c0d 273f 6203 863e
00000050: 9e54 293f 979e 323f 4578 9a3e ab81 b6be
00000060: 4002 9ebd bc8e 8bbf 456f 723f 53ba 04bf
00000070: b4d5 fcbd 0fe4 133f d812 123e a549 0c3f
00000080: 77fe 843d 9750 873f d671 223f c4eb febe
00000090: 0645 10be 8229 cbbd 2378 8c3e b510 01bf
000000a0: f314 ed3e 071d 8cbd 8be6 bbbd 1efc 81be
000000b0: 5b6b 993e 075b abbe 0366 313d a68a 593e
000000c0: 759e 6abf 40f3 93bd bce8 f5be f661 8fbd
000000d0: 1363 763f 4df9 163e ec5a 2c3f f162 1ebe
000000e0: 9129 cbbc c747 95bf 54ff eebf 58f4 283e
000000f0: 53a2 95bc 07b8 9d3f 8b74 f0bd 9c45 e23e
-0.6732904 1.3646523 0.26382154 -0.21228594 -0.08238028 0.007318751 0.20964798 -0.4267032
-1.195038 0.5201435 -0.9676204 -0.41455248 1.8970551 -0.27554956 0.83507335 0.24039854
-0.9246019 -0.08733582 0.65255046 0.26174456 0.6614474 0.6977324 0.30169883 -0.35645804
-0.07715273 -1.0902934 0.94701034 -0.5184681 -0.12345448 0.57769865 0.14265001 0.5479987
0.06493848 1.0571469 0.6345495 -0.4978925 -0.1408883 -0.09920026 0.27435407 -0.5041612
0.46305045 -0.06841474 -0.09174832 -0.25387663 0.29964718 -0.33467886 0.043310177 0.21244296
-0.91648036 -0.07224131 -0.48029125 -0.070011064 0.96244925 0.14743538 0.67326236 -0.1546743
-0.024800094 -1.166253 -1.867167 0.1649946 -0.018265879 1.2321786 -0.11740979 0.44193733

blocks.1.mha.k_mappings.0.bias f4 [8]
00000000: 8389 8bbd 89b7 d93d 7b16 d33e 6bb1 3bbd
00000010: 3a59 303e 870a bb3b e739 94be ae24 c4bd
-0.06813338 0.1063071 0.4122809 -0.045823496 0.17221537 0.005708042 -0.28950426 -0.095773086

blocks.1.mha.k_mappings.1.weight f4 [8, 8]
00000000: ebdb b5bd 7b2c 12bd 1d0f 46bd ee4f f53d
00000010: caee b0be 4a98 4bbd fe15 08be 4b30 b73c
00000020: e02c 2a3f ff3c e93f fa36 9bbe 5f44 efbe
00000030: 0b62 79bc d9d9 1d3f 0f73 c93e 1f3b c9be
00000040: a45a 0b3e e562 72bd 5032 91bd 08da 40bf
00000050: bd87 59be 8d4c d63d 132d 1f3f 54de 4c3f
00000060: 8261 89bf 4de5 873e 6cf8 ea3e bd9e 7fbc
00000070: 7681 f13e 1c03 0cbd 1df0 d03e 904f f3be
00000080: ce8b 873e ab83 943f 2524 02bf 0cb7 a8bc
00000090: c73e aabd d518 41bd c164 12bf f7dc 2ebd
000000a0: f0f8 bf3e 3f45 03bf 44ad 1b3f ea44 5b3e
000000b0: 4730 5cbe ec38 a93d e31b c8be c102 c6be
000000c0: 8e98 883e 6dbb 78bf 5ef4 da3e 1faa 8b3e
000000d0: 3da7 aa3e 6857 0c3f 2b4e a53d e942 58bf
000000e0: 074f a23f b74d 9d3f ca99 34be 96d6 5ebe
000000f0: 2afc 81be 980e b7be fa05 18bf c249 4fbf
-0.08879837 -0.03568695 -0.048354257 0.11978136 -0.34557182 -0.04970578 -0.1328964 0.022361895
0.66474724 1.822174 -0.3031538 -0.4673185 -0.015221129 0.61660534 0.39345595 -0.39302918
0.13608795 -0.059176344 -0.070896745 -0.7533269 -0.21243186 0.1046382 0.6217815 0.80026746
-1.0732882 0.2654213 0.45892656 -0.015601811 0.47169083 -0.034182653 0.40808192 -0.4752164
0.2647385 1.1602682 -0.508364 -0.020595096 -0.08312755 -0.047142822 -0.5718499 -0.042691197
0.37494612 -0.51277536 0.6081126 0.21413007 -0.21502791 0.0826281 -0.39083776 -0.38673976
0.2667889 -0.9716099 0.42764562 0.2727823 0.33330718 0.5482087 0.0807155 -0.84477097
1.2680367 1.2289342 -0.17636791 -0.21761546 -0.25387698 -0.35753322 -0.5938412 -0.8097192

blocks.1.mha.k_mappings.1.bias f4 [8]
00000000: 300f 9ebd 9ce6 fabe 4073 c0be 1ea4 f5bd
00000010: 8313 b93e 1271 2a3e 8512 153e eef3 8b3e
-0.077177405 -0.49004066 -0.3758793 -0.119941935 0.361477 0.16644695 0.14557846 0.2733454

blocks.1.mha.v_mappings.0.weight f4 [8, 8]
00000000: b933 da3e c588 a83e 9c9a 9bbe 4dd1 443d
00000010: 9d60 30bf 2cc6 91bd 44ae 823e 3e32 0e3e
00000020: 1883 98be aa5e 84be 373e 403d 025a bdbd
00000030: bd2a 843f 767b a5be 6cda 99bd c370 0fbf
00000040: 3f22 213f 7203 0a3f 173e 17bf 8b26 c73e
00000050: 2215 8abf c523 c8be f74e 58bf 0eef 263e
00000060: 00e7 10be 4755 563f 569b 9cbe afad 44bf
00000070: afb8 9ebf 8fa8 81bd 9787 2cbf 2aa3 b93f
00000080: e350 19bf 9ff6 d6bd dba7 783e ebce 2d3f
00000090: 7156 983e d70f 433e dd94 93bf f981 193e
000000a0: 9ee4 59bf 905b 023f 6ba5 b6be adf5 8fbf
000000b0: 73f8 d63e fcc1 c7bc 7d90 3fbe 9461 8c3f
000000c0: 89fd 33bf 726c d73e cf68 b6bd 8d40 a8bf
000000d0: 2cdd f63e 7452 6a3f 6e3c 83bf e989 383e
000000e0: c05b cabd aa72 7bbd 9791 69bd 5bf8 36bc
000000f0: 45e0 5bbd 326e 9abd db2d a1bd 02aa 57bd
0.42617586 0.32916847 -0.30391395 0.048051167 -0.6889742 -0.071178764 0.2552358 0.13886353
-0.29787517 -0.25853473 0.046934333 -0.09245683 1.0325543 -0.32320756 -0.07512364 -0.56031436
0.6294288 0.5391151 -0.59079117 0.38896593 -1.0787699 -0.3908979 -0.8449549 0.1630213
-0.1415062 0.8372387 -0.30587262 -0.7682752 -1.2400111 -0.06330978 -0.67394394 1.4502919
-0.5988905 -0.10496258 0.24282782 0.67893857 0.2975345 0.19049011 -1.1529804 0.14990987
-0.8511447 0.50920963 -0.3567308 -1.1246849 0.41986427 -0.024384491 -0.18707462 1.0967278
-0.7030874 0.42074925 -0.089067094 -1.3144699 0.48215616 0.91532063 -1.0252817 0.18021359
-0.09880781 -0.06138865 -0.05702361 -0.011167611 -0.053680677 -0.07540549 -0.07870074 -0.052652366

blocks.1.mha.v_mappings.0.bias f4 [8]
00000000: 9791 49be b430 a13c 1cfe afbe 4a33 d5bd
00000010: 3270 673e 338c c7bc a7c6 123e 86f3 fab9
-0.19684444 0.019676544 -0.34373558 -0.10410173 0.22601393 -0.024358844 0.14333592 -0.00047865155

blocks.1.mha.v_mappings.1.weight f4 [8, 8]
00000000: 4786 7dbe 084d 2e3e b97c 0ebe 0cc7 63bf
00000010: 5cb9 1bbf 06dd ec3f f971 8b3e 450f fc3d
00000020: 5c7a 15be 0183 66bc b2d3 7abf 8843 09bd
00000030: 817c a23e c37d b5be f594 953f dcec ccbc
00000040: 366d c43e c196 cabd 19b5 9f3f ae95 6cbf
00000050: 2faf cebe 6394 553f b1e0 d1bf 0ff5 803d
00000060: cdcd a93e 2646 e0bc 177c 47be 92a6 47bf
00000070: 8cbb fd3e 79c0 57bf f704 f83e d551 ca3e
00000080: 88f3 abbc 6a86 a0be 04b0 97bf b348 c23d
00000090: 793f 343f c78f 98be f70c e9be 1a3f ad3f
000000a0: cd8b f73e 0c5e 993e 0ab0 3c3f 424d 3cbf
000000b0: ea44 d03d 0530 12bf e144 333f e2f2 49bd
000000c0: d5b9 da3e 8fa2 b33e 1cc0 973f e778 d2bf
000000d0: 7b20 02bf e399 cabf aa9c 0abf d256 c03e
000000e0: ac85 6f3d fc98 1d3e 1976 67bc a8b2 c23e
000000f0: 8d56 fabe 5512 18bf 5da1 a03e c0e9 2fbe
-0.24758254 0.17021573 -0.13914765 -0.88975596 -0.6082971 1.8504951 0.27235392 0.123076
-0.14597458 -0.01406932 -0.9797927 -0.03351167 0.31735614 -0.3544751 1.1686083 -0.025015287
0.3836457 -0.09892035 1.2477142 -0.92415893 -0.4036803 0.83429545 -1.6396695 0.06296741
0.33164826 -0.0273772 -0.1948093 -0.7798854 0.4955715 -0.84278065 0.48441288 0.39515558
-0.020990148 -0.3135255 -1.1850591 0.094865225 0.7040935 -0.29797193 -0.45517704 1.3534882
0.48348847 0.29954565 0.73706114 -0.73555386 0.10169394 -0.5710452 0.70026976 -0.049303897
0.42719904 0.3508496 1.1855502 -1.6443146 -0.5083081 -1.5828212 -0.541453 0.3756624
0.05847709 0.1539039 -0.014127278 0.3802693 -0.48894158 -0.5940297 0.3137311 -0.17179012

blocks.1.mha.v_mappings.1.bias f4 [8]
00000000: d44c f4bd f99d 3a3d 1cc1 61be af23 65bd
00000010: 5866 04be adf4 9a3c 7530 833e 99ed 203e
-0.11928716 0.04556081 -0.22046322 -0.055942234 -0.12929666 0.018915499 0.25622907 0.15715636

blocks.1.mha.o_mappings.weight f4 [8, 16]
00000000: 2c82 89be ca93 963e 9760 c13d 4684 753e
00000010: 0ed6 a33e f214 833f 0354 333f 652b 0f3b
00000020: 7d74 dcbb e688 dc3e c7df 84bf 941e e23a
00000030: 9fc2 c43e 639b d9be 5a36 62bf 5224 533e
00000040: 6e5d abbe 7736 37bd 8ec8 9b3e 7f68 c5be
00000050: 4872 303f 5b7d e9be ab7d ae3c c8a3 993b
00000060: 00b6 e9be ece3 753c 8dd5 d1be 9d8a 1d3e
00000070: 3e6c d53e de2a e8be 8024 4bbe f193 31bd
00000080: 98ae 183d 59b2 bdbe 1158 e63e 824f 8d3f
00000090: fe44 92be b9aa 123f fd60 fc3e 34d3 3cba
000000a0: b30a 173e 5e2b 9f3e b16a 1fbf ce45 823e
000000b0: a7d1 b53e 92f5 91be 045d 94bf faaf 30be
000000c0: b436 c9be 72ed e6bd bc9d 48bf ce7e c53d
000000d0: f46e 383e 4446 5e3e 8a2c d33e 52d0 ac3c
000000e0: 00e6 073e c15e ba3c bcc1 033e fcc1 e43e
000000f0: 48a9 a6bd 5d3c 2a3e 2352 923f 6ad9 f9bc
00000100: d49b 19be e7fe 053e 138c acbe 649e 98bf
00000110: ca03 98be 6972 22bf e07e 81bf 8e93 033d
00000120: 1b1d 8f3e beb3 cfbe 6bcb 293f 73a1 afbe
00000130: 9673 cfbe e1b8 c9be b374 643d 28a4 84bc
00000140: 495f a1bd 0c5e bbbe 42a8 e33c 84bb 2e3f
00000150: 52a8 2a3e a2ea 373e 1ba3 b13e 55e7 d4b8
00000160: 4d8c 25bf 047c 8b3e 8c73 20bf c577 2f3f
00000170: 0ea5 1d3f 76a6 343c e6e0 443f 0c15 cebd
00000180: 5eb6 36be 14b0 93bd 54f1 f73e b81d a33d
00000190: 9c3f 9b3d 590a 08bf c066 26bf 3006 283c
000001a0: d9b5 9abf 6852 dcbe 0e42 dd3e 7256 ed3d
000001b0: af02 263f 1975 02bf 2332 173d b481 123e
000001c0: ddc6 74be bb36 b0bd cbe7 c5be fcb1 6b3d
000001d0: 81b4 2c3e c6b5 873e a313 733f 958b 043c
000001e0: 730c 4c3f 0878 bebd cb3e 5a3f e29f f23e
000001f0: a14b 253f 2b83 85bd a868 3e3f 3ab6 ecbe
-0.26857126 0.2940963 0.09442251 0.2397624 0.31999248 1.0240767 0.70050067 0.0021845934
-0.0067277537 0.43073195 -1.0380791 0.0017251545 0.38429734 -0.42501363 -0.88364184 0.20619324
-0.3346972 -0.044729676 0.3042645 -0.38556287 0.6892438 -0.4560345 0.021300158 0.0046887137
-0.45646667 0.015007954 -0.4098324 0.15384908 0.41684145 -0.45345205 -0.19838142 -0.04335398
0.03727588 -0.3705013 0.44989064 1.1039889 -0.28568262 0.5729175 0.49292746 -0.00072031026
0.14750175 0.31087774 -0.62272173 0.25443882 0.35511515 -0.28507668 -1.1590886 -0.1725463
-0.39299548 -0.11275758 -0.78365684 0.09643327 0.18011075 0.21706492 0.41244918 0.021095429
0.13271332 0.02275026 0.12866873 0.44679248 -0.081377566 0.1662459 1.1431316 -0.030499179
-0.1500085 0.13085519 -0.33700618 -1.1923337 -0.2969039 -0.63455826 -1.0116844 0.03212314
0.27951893 -0.4056682 0.66326016 -0.34302863 -0.40517873 -0.39398864 0.055775356 -0.016191557
-0.07879502 -0.3659519 0.027790193 0.68254876 0.16665772 0.17960599 0.34694752 -0.00010152037
-0.64667207 0.27243054 -0.6267631 0.6854213 0.6157998 0.0110260155 0.7690567 -0.10062608
-0.17843005 -0.072113186 0.48426306 0.07964653 0.07580492 -0.5314079 -0.65000534 0.010255381
-1.2086746 -0.4303162 0.43214458 0.11588754 0.64847845 -0.50959927 0.03691305 0.1430729
-0.23903985 -0.08604189 -0.38653407 0.057542786 0.16865732 0.2650587 0.9495184 0.00808992
0.79706496 -0.09300238 0.85252064 0.47387606 0.64568526 -0.06519159 0.7437844 -0.46232778

blocks.1.mha.o_mappings.bias f4 [8]
00000000: 981e 843d 2842 be3e 3a5e cdbe 8441 b73d
00000010: ce99 4dbe a56c 943e 5db9 e1be b5b1 503e
0.06451148 0.37159848 -0.40110952 0.08948043 -0.20078203 0.2898914 -0.44086733 0.2038029

blocks.1.norm2.weight f4 [8]
00000000: 1561 013f 4fdb 913f ee38 623f 0d43 8a3f
00000010: c5a0 5f3f b2fa 913f dcb3 703f afaf 793f
0.5053876 1.1395053 0.8836812 1.0801712 0.8735469 1.1404631 0.94024444 0.97533697

blocks.1.norm2.bias f4 [8]
00000000: fba7 0e3e 7379 35be a99c a4be 2fe9 913e
00000010: 9f16 1d3e be74 4fbe fae8 26be 750e cebe
0.13931267 -0.1772211 -0.32150772 0.28498217 0.1534066 -0.20259377 -0.16299811 -0.40245405
