NTUT_111-1/Code/restnet18_.onnx (onnx, 447242 bytes, 42 tensors)

fc.weight f4 [10, 51]
00000000: 9a13 07bd 564a 04be 7e5c 4ebd 00db 853d
00000010: eb73 9bbd 249f 333d 02a6 0bbd 2478 a9bc
00000020: 844c e0bd cc29 e2bd 858f 9fbd 98dc a6bc
00000030: 7622 d0bd 10cc 32bd c935 e9bd 28c9 cb3c
00000040: f8d6 77bc 40dc 6c3b 4eee 96bd 40c3 45bc
00000050: cc71 9cbc 84bc 4a3d 12b0 c63d 7a08 e83d
00000060: 80a7 c93c be2f d6bd 001c 38b9 01ea 00be
00000070: 04bd 63bd 4328 0a3e d7de 00be 5a73 a7bd
00000080: 9c0a 0e3d 6894 3f3d b66e f4bd 5204 833d
00000090: 007f 7a3a fab1 fb3d d70d 0a3e 3200 ef3d
000000a0: a22a eabd a6c9 05be 94c6 423d e0ff a3bd
000000b0: b35e 88bd 8ef1 e93d e225 03be 884d b1bd
000000c0: 22d9 c93d 7814 5b3d 9083 443d 4a56 b4bd
000000d0: a611 1cbd ac85 533d c0be d53b 40e0 7c3d
000000e0: 9e51 8a3d 080b 073d cc0a 1a3d 8edc e63d
000000f0: 78cd 033d 44ed 613d 1031 efbd a832 a8bd
00000100: a004 fa3c ec98 8fbc b2eb ffbd 609f 9c3c
00000110: 383f 2bbd 9e69 e33d beae f0bd d509 dfbd
00000120: ecc4 0c3d 090b 8bbd ae52 af3d 5393 093e
00000130: 7c40 cfbd a266 b7bd 14fc 86bd 9055 11bc
00000140: 103d cf3d ec41 d23d aa91 c9bd 6827 d13d
00000150: 0006 a2b9 0656 00be 2e38 06bd 8091 1c3c
00000160: 74e7 733d e2d6 903d 8f15 04be f0c0 8d3d
00000170: 08aa 98bc 84e2 0a3d 3952 ffbd d059 3e3c
00000180: a288 823d a02f 5d3d c584 85bd ca7b ae3d
00000190: fc23 4c3d 9288 e13d 1c47 cebd 12b1 b33d
000001a0: 5e8d b53d a877 81bc c884 c1bd 0ec3 9abd
000001b0: 8808 5dbd 6491 35bd a0d3 6bbd 2fc3 bdbd
000001c0: 3aed d63d 06a1 cfbd b162 8bbd c09e 993b
000001d0: 44a8 223d 40f5 6fbc 04b8 b4bd 00b2 3b3d
000001e0: d9e0 043e b8e5 ca3d ac64 a03d 10b9 c8bd
000001f0: bcae 303d b267 89bd 766e 7dbd 60aa 21bc
00000200: 5c4c 2d3d bc3b 8f3d 603f 08be 3ce7 0e3d
00000210: ee7c f63d 7c4f adbc 0e68 ee3d 22d2 76bd
00000220: c013 993d fce8 1a3d 642c 1f3d c28a 973d
00000230: 22b2 e83d 80ef f0bb dc9f 7e3d f61b 91bd
00000240: 4415 d0bd 3c7d 9c3d dcf3 713d dc31 103d
00000250: c0d0 ecbc a883 723d 2579 053e 70e4 06bc
00000260: 1487 00be 00a0 d7b9 9fd3 013e 430f 093e
00000270: 40d4 17bc 54da c1bd fe33 abbd 1098 583d
00000280: bebd ea3d 5802 d23d 8225 75bd 8ebe b83d
00000290: 8e33 933d ee8e 803d e047 be3b 58f9 ca3d
000002a0: dc8d d8bc 8000 57bd c61a 8f3d c3f0 d2bd
000002b0: bc35 853d 98ab fe3c 40ed 4fbd a049 d53c
000002c0: 1619 e43d 2493 1d3d 48be 853c 4043 adbd
000002d0: 0013 4dba d168 0b3e a852 943c 702c d23d
000002e0: 560f f63d 8ecc f2bd 189e fdbc 5a14 5dbd
000002f0: c695 e5bd a0a2 b7bb 7c4d 7b3d f009 d63c
00000300: d086 69bc 9c29 823d 1674 e73d 2db4 febd
00000310: 0c3d b3bc d012 27bc 8445 493d 09ae 96bd
00000320: c00b 513d 8151 c9bd a042 6abc 941d b73d
00000330: d83a c13c f074 893d b072 ffbc 008b 313c
00000340: bcff aebd e045 4e3d 3289 b03d 13a6 e0bd
00000350: 4871 adbd 000e 07bb 6706 e6bd b022 c9bd
00000360: 24bd 593d 345c 0fbe e0d1 a13c e84d 603d
00000370: 38b5 413d 0ede d93d a27a d6bd dce0 2c3d
00000380: 4c85 873d 8a57 fb3d 66b4 68bd 2e17 efbd
00000390: 800b 143d a021 c73b 7d12 02be eef2 01be
000003a0: 70c9 b4bd f010 cabd 179a bfbd a83f a63d
000003b0: 6cae e8bd e0d9 b3bd 86ca 22bd f7c3 013e
000003c0: 210b 0e3e f07a 843d a764 d0bd a2eb 56bd
000003d0: 2fd6 073e c697 75bd bc65 d6bc ae76 b73d
000003e0: b415 6fbd 96f0 bf3d a8c0 b23c 48bb ce3d
000003f0: 40fc 753c db7d 073e 12cf 1ebd da29 f83d
-0.032977678 -0.12918982 -0.050381176 0.065359116 -0.07590469 0.04385294 -0.034093864 -0.02068717
-0.10952094 -0.11043128 -0.07791046 -0.02036886 -0.10162823 -0.04365164 -0.11387212 0.024876192
-0.015126936 0.0036142021 -0.07369672 -0.012070477 -0.019097231 0.04949619 0.097015515 0.11329742
0.024616003 -0.10458325 -0.00017558038 -0.12589265 -0.05560018 0.13491921 -0.12585007 -0.081762984
0.034678087 0.04677239 -0.11935179 0.063973084 0.00095556676 0.12289806 0.13481842 0.11669959
-0.11433913 -0.13065204 0.04755266 -0.08007789 -0.066586874 0.11423026 -0.1280742 -0.08657366
0.09855868 0.053486317 0.04797703 -0.08805521 -0.03810277 0.05164115 0.0065229833 0.0617373
0.067538485 0.032969505 0.037607953 0.11272536 0.032178372 0.055157915 -0.1167928 -0.08212787
0.030519783 -0.017528974 -0.12496127 0.019118965 -0.041808337 0.11104129 -0.117520794 -0.10890547
0.034367487 -0.06789214 0.08560692 0.13435106 -0.10119721 -0.089551225 -0.06591049 -0.008870497
0.101190686 0.1026648 -0.09842236 0.10212594 -0.00030903518 -0.12532815 -0.03276842 0.009556174
0.059546903 0.07072236 -0.12898849 0.069215655 -0.018635765 0.03390743 -0.124668546 0.011618093
0.06373717 0.054000497 -0.065194644 0.08519705 0.049839005 0.11012377 -0.10072157 0.08774008
0.08864854 -0.015804127 -0.09449154 -0.07556735 -0.053963214 -0.04432811 -0.05757487 -0.09265744
0.10494466 -0.10138135 -0.06805933 0.004688114 0.03971125 -0.0146458745 -0.08824161 0.04582405
0.12976398 0.099070966 0.07831702 -0.09800923 0.04313539 -0.067092314 -0.061872922 -0.009867281
0.04230915 0.06993815 -0.13305426 0.03488849 0.12035547 -0.021156065 0.116409406 -0.060258992
0.0747447 0.037819847 0.038860694 0.07399513 0.11362101 -0.0073527694 0.062164173 -0.07085411
-0.10160306 0.07641074 0.059070453 0.0352038 -0.028908134 0.05920759 0.13034494 -0.008233175
-0.12551528 -0.00041127205 0.12678383 0.13384728 -0.009266913 -0.09465471 -0.08359526 0.052879393
0.11461972 0.10254353 -0.059850223 0.090207204 0.07187568 0.06277262 0.005806908 0.0991084
-0.026434831 -0.05249071 0.069875285 -0.10299828 0.0650439 0.031087682 -0.05076337 0.026036084
0.11137597 0.038470402 0.016326085 -0.084600925 -0.00078229606 0.13614203 0.01810582 0.10262382
0.12014644 -0.11855422 -0.030959174 -0.053974487 -0.11210208 -0.005604103 0.06135319 0.026127785
-0.014253333 0.063555926 0.113014385 -0.124367096 -0.021879695 -0.010197356 0.04913856 -0.07357413
0.051036596 -0.09829999 -0.014298111 0.089411885 0.02358763 0.06711757 -0.031182617 0.010836363
-0.08544871 0.050359607 0.08619918 -0.10969176 -0.08468872 -0.002060771 -0.1123169 -0.09821069
0.053158894 -0.14000016 0.019753397 0.054761797 0.047291964 0.10638057 -0.10472609 0.04220663
0.06617221 0.12272556 -0.056812666 -0.11674343 0.03614378 0.0060770065 -0.12702365 -0.12690327
-0.08827484 -0.09866512 -0.09355562 0.0811761 -0.11361393 -0.08781791 -0.039743923 0.12672411
0.13871433 0.06468761 -0.10175448 -0.05247081 0.13265298 -0.059959196 -0.026171558 0.08958183
-0.058370307 0.0937206 0.021820381 0.10094315 0.015013754 0.13231604 -0.038771696 0.121173576

fc.bias f4 [10]
00000000: 8067 40bc 0bb1 0abe 0ca3 3e3d a42d 02be
00000010: a65f 68bd 38df be3c b219 fe3d 09c4 073e
00000020: 2402 06be 0407 af3d
-0.011743426 -0.13544099 0.046542212 -0.12712723 -0.056731842 0.023299798 0.12407245 0.13258375
-0.13086754 0.0854626

200 f4 [6, 3, 7, 7]
00000000: 0ee6 c33c 904f 35ba e8f8 96bc 4045 80bc
00000010: 056b 19bd de26 953d f8af 20bd bc00 83bd
00000020: 97f4 b73c 3fa5 1dbd e67d ddbd c8af 7f3b
00000030: d786 fdbc c0bc adbd 9a11 313e 541c 393e
00000040: 079c 0d3d 329a d93d 43db 37bd 58f4 ffbb
00000050: 72ef 87bd 955f d63d 8c45 063d cf2b 15bd
00000060: 0777 4cbd ca3c 85bd 0ebf 603d 47bd d03d
00000070: f7bb f43d bf07 993d 8f42 89bd cb95 ab3c
00000080: 15af 07bb ee9c 2d3d ca24 8dbd e7e4 a2bc
00000090: 1b02 593e 9d5f 333e 661c 91bc c6c2 6ebd
000000a0: 8bb0 03be 66b5 ec3b 555f 353e c062 d83d
000000b0: dddb 81bd 8a73 ea3d 0c05 1b3e 3463 223e
000000c0: b3ae b43d 1c0c 3ebd c3fc 523d bc04 e8bd
000000d0: 93ed 54bd 7f98 593d c52b aabd 9d67 c83d
000000e0: acb9 293d e379 1c3e 50b6 713d 8847 013e
000000f0: 8062 7b3c 6837 18bd 08ac 03bd 6baa 92bd
00000100: b5b8 a43d e553 7e3d b2a7 d5bd c714 163d
00000110: a169 213e 8bbf 213e e1ca 833d 8e13 d43b
00000120: 19b4 963d d1de 193d dbd6 a1bc 7737 e3bc
00000130: 6b7b 29bc 9c08 a53c 06db 053d 24fb e6bb
00000140: 635e 933c 54d6 a63c 484d be3c 30fb 223a
00000150: 5b6e f63c 3cd2 963d f737 6fbd f8fa 9fbd
00000160: 0cd6 903d bd39 943d 25a6 253c ebb9 1c3c
00000170: 2955 4ebb e4e9 ed3c 45a0 c63d 04e1 5cbd
00000180: 47d8 423d d249 063d 6912 4cbd dda9 c63c
00000190: 9e7a f83d 95e7 a2bd e869 9bbd 5a6b 2bbe
000001a0: 4755 683a 8e7f 82bd f4ec d73d b07c cb3d
000001b0: 6743 813d bcc4 2b3e ee13 f9bd b217 f1bd
000001c0: 27fd b93c f1cb f6bd 69e9 543d 4f34 55be
000001d0: 2cd1 0f3d b459 603d 1968 e23d 8273 e3bd
000001e0: 9ede 4abd 73d3 953d a7f9 62bd a454 f7bd
000001f0: 60ee ddbd bafe 2e3d 413e c23c 4c05 7dbd
00000200: 2d2f 06be 296f 37bd be8a 5f3d 563d 923d
00000210: 3423 1bbe 86ca ebbd c435 8cbd 8f22 29bd
00000220: 0b0b 283d a36c e4bb 4a46 95bc 0f6f 9fbd
00000230: 53f3 20bd ad76 213e 4943 a5b9 b7a2 82bd
00000240: c2b6 953c 6b7c 023e aad5 60bd d3c2 35bd
00000250: 4606 83bc 7e85 0bbc a3d0 b2bd 07eb 123e
00000260: 2a71 91bd cfb4 213e 09bf 8e3d 38b9 bd3d
00000270: 05bd cfbd 1abe 13bd b099 83bd 34de 383e
00000280: e55c dabb 8c6e 033e b4eb 45be 495d 613c
00000290: 0fbf 0e3e 6fce e6bb acb8 e33c 0053 0e3d
000002a0: dc20 9cbd 2547 123e b997 b3bd 078d 2f3d
000002b0: a399 e8bd bef7 a1bd 5300 94bd 0265 e83d
000002c0: fbdf 403c 306a bebd 572b c73d deb5 433d
000002d0: d38e 013e 6a60 a4bc 01f4 d7bd 45f5 823c
000002e0: 0d3e ba3d 0e68 8f3d 8d8b b23c f6df 25bd
000002f0: 35dc 003c c576 823c 83ce 23bd 86d7 79bd
00000300: fd77 37be f6cb 75bd e2df ad3d 4970 a53d
00000310: f94b e3bc 8f1b 84bd 10ff ee3d 163d 143e
00000320: d4ff 8ebc 091c 063e cc8d d53d 4666 ddbc
00000330: db12 8abd 1caf 85bd c17a 623d 62c4 afbd
00000340: 10e1 1ebe 17ad 4dbc 8bb4 c1bd 7295 6bbd
00000350: 4dae 09bd 1c1f b1bd aa58 77bc 175d 7dbc
00000360: b724 093e e7f7 52bd 6c8e bd3d df38 5f3c
00000370: 1595 fe3d 7e2a e23a 2c80 8ebd 30f0 d6bd
00000380: 54b2 d13c e4ae e33d ee49 13be ae3f fe3d
00000390: c83e 703c e241 313d 7b09 8c3d b388 4ebd
000003a0: 4bfa 163e d119 213e 6091 943d dfaa c73d
000003b0: 764e e03d 80d9 a73c ac22 90bd a16d 0b3d
000003c0: 1dcd 9bbd ee0f 9abd bdc7 003e 564f 3d3d
000003d0: 9c94 0cbe cec8 503d 4b82 ba3c a020 1fbd
000003e0: 955d d6bd d70f 65bd ee66 1dbd 0e86 e13d
000003f0: bfca 0fbd 9b55 a6bb 9c6d 9fbd c1f3 54bd
0.02391341 -0.0006916458 -0.018429235 -0.015658021 -0.037455577 0.07282804 -0.039230317 -0.063966244
0.022455497 -0.03848767 -0.10815029 0.0039014686 -0.030948086 -0.08483267 0.1729187 0.18077213
0.034572627 0.106251135 -0.04488684 -0.0078111105 -0.066374674 0.104674496 0.03278117 -0.036418732
-0.0499182 -0.06505735 0.054869704 0.10192352 0.11949914 0.074721806 -0.06702148 0.02094545
-0.0020703722 0.042385988 -0.068917826 -0.01988454 0.2119221 0.17516942 -0.017713737 -0.05829122
-0.12860315 0.007223773 0.17712148 0.1056571 -0.06340764 0.114478186 0.15138644 0.15858155
0.08822384 -0.046398267 0.051510584 -0.11329028 -0.05198438 0.053123947 -0.083091296 0.09785388
0.041436836 0.15280871 0.059011757 0.12624943 0.015343308 -0.037162215 -0.032146484 -0.07161411
0.080430426 0.062091727 -0.10432376 0.03664091 0.1576295 0.15795724 0.064351805 0.0064720577
0.0735857 0.03756601 -0.019755771 -0.027736409 -0.010344367 0.020145707 0.03267958 -0.0070489813
0.017989343 0.020365871 0.02323021 0.00062172394 0.030081918 0.07364318 -0.05840298 -0.0781154
0.07072076 0.07237575 0.010110413 0.009565811 -0.0031483865 0.029042192 0.09698538 -0.05392553
0.04756954 0.032785244 -0.049822245 0.024250919 0.12132762 -0.07954327 -0.075885594 -0.1674017
0.0008862805 -0.063719854 0.10543242 0.09935892 0.06311684 0.16774267 -0.121620044 -0.11772098
0.02270372 -0.120506175 0.05198041 -0.20820735 0.03511159 0.054773048 0.11055011 -0.11106016
-0.04952871 0.07315721 -0.05541387 -0.12076691 -0.10836482 0.042723395 0.023711326 -0.06177263
-0.13103934 -0.044783745 0.054575674 0.07140605 -0.15150148 -0.11513238 -0.068461925 -0.041292723
0.041026156 -0.0069709583 -0.018221993 -0.077848546 -0.039294552 0.15767927 -0.00031521384 -0.06378692
0.018275622 0.12742774 -0.054891266 -0.044375252 -0.015994202 -0.008515714 -0.087312005 0.14347468
-0.071016625 0.15791629 0.06970031 0.09263843 -0.101434745 -0.036069967 -0.06425798 0.18053514
-0.006663906 0.12835139 -0.19328195 0.013755151 0.1394007 -0.007043652 0.02779802 0.034747124
-0.07623455 0.14284952 -0.08769173 0.042859104 -0.11357429 -0.07908581 -0.07226624 0.11347391
0.011772151 -0.092975974 0.09725063 0.047780864 0.1265214 -0.020065505 -0.10544587 0.015986094
0.090938665 0.07002269 0.021795059 -0.04049679 0.007865001 0.015925774 -0.039991867 -0.060996555
-0.17916866 -0.060008965 0.08489968 0.08078057 -0.027746188 -0.06450569 0.11669743 0.14476427
-0.017455973 0.13096632 0.10427436 -0.027026307 -0.06741878 -0.0652754 0.05529285 -0.08582379
-0.15515542 -0.012553475 -0.09458264 -0.05751557 -0.03361349 -0.08648512 -0.015096823 -0.015464089
0.13392912 -0.05150595 0.092556804 0.013624399 0.12430779 0.0017255095 -0.069580406 -0.10495031
0.025597729 0.11117342 -0.1438367 0.1241449 0.014663406 0.04327572 0.06837746 -0.050423335
0.14743917 0.15732504 0.072542906 0.09749388 0.10952465 0.020489454 -0.07037863 0.034040097
-0.07607482 -0.075225696 0.12576194 0.04621824 -0.13728565 0.050972752 0.022767207 -0.038849473
-0.10467068 -0.05592331 -0.03842824 0.11011897 -0.035105463 -0.005076123 -0.07784578 -0.051990274

201 f4 [6]
00000000: ce40 83ba a7ac 7c3a 93d0 84b9 a95c 9aba
00000010: d031 03b9 8a37 d3b9
-0.001001382 0.00096387643 -0.00025332402 -0.0011776882 -0.0001251169 -0.00040286436

203 f4 [6, 6, 3, 3]
00000000: 1ddf 71be 8677 99bc 06df eebd 4f20 4c3d
00000010: cc35 ba3e ff6c 5cbc b47a a5bc 767e ba3d
00000020: 4807 2e3c 8998 b63d 064c c23d 5ee8 92bd
00000030: 1a54 d13d 3914 873c 4650 2dbe b400 cbbd
00000040: 8cd3 d5bc 7986 02be c23b b6bd b79d 743e
00000050: 68db 1f3b 2a8b 9e3e d676 8c3d e93c a5be
00000060: 3420 36be 87a1 683d 3aad a03d fdc2 193e
00000070: 5cbf 673e f122 5b3c dd88 1ebe a9de 5f3c
00000080: 1316 52bd a61f 8b3d 1f5f 46be 2e27 abbd
00000090: 5a7a 883d b3c4 4eba b58f 723e bc46 34bd
000000a0: cd64 523c 80d0 a3bd 97ef 3cbe 8318 803d
000000b0: 694d 933d 4693 483d ed75 453c 1cc6 dfbc
000000c0: e4c8 03be a211 a13e da5d 60be 36fa 033d
000000d0: 1153 26bd 923f 26be 8fde da3b 29f5 453c
000000e0: 15a0 b7be 2fe0 dabc ac4b 1e3e b31f 9b3e
000000f0: eb92 20be 8f12 00be 9bdb 7cbd f9a0 9ebd
00000100: 5488 ec3d b5b3 a0be c4cb ba3e 0ce1 113e
00000110: d5cd 8c3e 1bbd c6bd 62f6 693e 9783 2bbe
00000120: 9de8 a43d 2336 b6bd f6ea 923e 9722 153e
00000130: 6219 da3d 88ab 4f3e 751e e5bd 4e9a 713e
00000140: 2348 743c 6e61 c9be b82b 55bc 6897 5d3e
00000150: 54b8 1d3d 613b 41be cd4a e93e 2922 953b
00000160: 3042 0e3b 205e 993b 1f7d 15be ddef 7e3e
00000170: 885a 0a3d b561 09be 33da ad3e 9b8b ccbe
00000180: 37fc 7f3e a4e5 1dbe 5878 62bc d6af 943d
00000190: aa51 2d3e 35fb c93e 7c1a 40be 9630 cc3a
000001a0: f475 60be 0ffd d73e bd9c 6fbd b8e9 0e3d
000001b0: 4eb0 87be bb37 753e a267 b73d c2c9 283d
000001c0: 7a34 eb3e c0ff 32be e98e ea3e 474f 73be
000001d0: 5c75 babd 05a0 873e 420b 3abe 7255 b23e
000001e0: 030c 813e 98b5 493e 125c 763e d1f0 b83b
000001f0: fd55 a2bc 3db0 41be 2920 8f3e 17b9 843d
00000200: 58fd 72be e7a3 e1bd 09ef fa3e ba81 2e3e
00000210: 2de1 3dbe e750 9ebd 9871 703d 5eb6 333e
00000220: 8418 88be fd47 7e3d 687f b33e 76bc 81be
00000230: 19e2 24bd 9663 53bb 33c0 ccbd d568 bb3d
00000240: 118a 0d3d 0e3c c13d 4f73 8bbe c8d8 023e
00000250: 080f a23b 260e 433e 0502 5cbd ff29 4abe
00000260: 4a59 04be dd03 0cbd e1a9 07bf eac5 2f3e
00000270: 6f09 ae3d 8c1d cf3e 5575 c3be aaef 58be
00000280: 7192 483e 6033 28be 1450 9dbe af1c d6be
00000290: c52b b5bd c560 40be 5334 7abe 9cad 173e
000002a0: 974b 823e 714e 843d 0531 f1bd 782e 8cbd
000002b0: a005 0ebd 5eaf 983e 3b82 fc3e 4a2f 74be
000002c0: eadc 123e b50f 1d3e 7831 993d d5be a0bd
000002d0: 4b8b 3a3e c101 c43e ad20 85bd e51a 8a3d
000002e0: 4690 203e 4f48 6e3d 7859 2abe b480 e83d
000002f0: 6f90 4fbe e133 c63d 9139 5b3e 582b ee3e
00000300: 00e8 953e a3a8 fb3e 2afb a1bd 35c4 0fbd
00000310: bb72 a8bd 7649 163e 373c 5a3c ec04 f43d
00000320: 1cd1 833d 0f42 3abe 0726 563d 7578 1fbd
00000330: b44a 3bbe 0ad0 a63e 882e 663e e7c2 6ebe
00000340: 8929 1a3e ed7b 1ebe 062a 2f3e 5305 62bd
00000350: 0c78 e5bc 9991 4f3d 2022 953e dd48 f23e
00000360: 8140 a6bd 9fa2 59bd 3006 84be 8761 3f3e
00000370: 3e80 20be 0867 89be ed17 5f3e ae33 25bc
00000380: 699c a5bd d3f3 6c3d 1bc6 74be 4094 bebc
00000390: 18ea 08bd a95a 98be 5d3d c03b dbd0 04bf
000003a0: 88be 833e 99da 8bbb 109f e9bd 449c 1bbd
000003b0: 3308 2f3e cfd4 083c ae4c 723e a781 5bbe
000003c0: 97fd e5bc f0f3 c8be 7935 3b3b 45f4 febd
000003d0: 6f79 81bd c5e4 1bbd b194 1d3e 66dc a9be
000003e0: a154 6b3c 8d72 14be fbe8 cebc 71c6 8e3e
000003f0: fb96 a4bd b8a7 bd3e 6aa5 bdbd bb2b b4bd
-0.23620267 -0.018733751 -0.11663632 0.0498355 0.3636917 -0.013453721 -0.020200111 0.09106152
0.010621853 0.089158125 0.094871566 -0.07173227 0.10221119 0.016489135 -0.16925153 -0.099122435
-0.02610185 -0.1274661 -0.08898117 0.23888288 0.002439225 0.3096555 0.06858604 -0.32273033
-0.17785722 0.05679467 0.0784554 0.15015788 0.22631592 0.01337503 -0.15481897 0.013663926
-0.051290583 0.06793146 -0.19372223 -0.08357082 0.06663962 -0.0007887587 0.23687632 -0.04401277
0.012841416 -0.079987526 -0.18450771 0.06254675 0.07192499 0.048968576 0.0120520415 -0.027316146
-0.12869602 0.31458765 -0.21910802 0.03222104 -0.040606562 -0.16235188 0.006679363 0.0120823765
-0.3586432 -0.026718227 0.15458554 0.30297622 -0.15681045 -0.1250708 -0.06173287 -0.07745547
0.1154944 -0.31387106 0.36483586 0.14246005 0.27500787 -0.09704038 0.22847894 -0.16749416
0.0805218 -0.088970445 0.28694886 0.14563976 0.10649373 0.20280278 -0.1118745 0.23594019
0.014909777 -0.39332145 -0.013010912 0.21639788 0.038505867 -0.18870308 0.4556488 0.0045511913
0.0021706931 0.00468041 -0.14598511 0.24896188 0.033777744 -0.13416179 0.33955535 -0.3995026
0.24998556 -0.15419632 -0.0138226375 0.072601005 0.16925684 0.39449468 -0.18760103 0.0015578445
-0.21919996 0.42185256 -0.058499087 0.03489086 -0.26501697 0.2394704 0.08955313 0.041208036
0.45938474 -0.17480373 0.45812157 -0.2376071 -0.09104416 0.26489273 -0.18168357 0.34830815
0.25204477 0.19698179 0.2405856 0.005643942 -0.019816393 -0.18914886 0.27954224 0.064806156
-0.23729455 -0.1101759 0.49010494 0.17041674 -0.18542929 -0.07730275 0.05870208 0.17550036
-0.26581204 0.062080372 0.3505814 -0.25339097 -0.040254686 -0.0032255403 -0.099975966 0.091508545
0.0345555 0.09435283 -0.2723641 0.12778008 0.0049456395 0.19048366 -0.053712863 -0.19742583
-0.12924686 -0.03418337 -0.5299359 0.17165342 0.08497893 0.4045223 -0.38175455 -0.21185175
0.19587113 -0.16425848 -0.30725157 -0.4181876 -0.08846239 -0.18786915 -0.24434023 0.1481232
0.25448295 0.06460274 -0.11776928 -0.06844801 -0.034673333 0.29821295 0.49318108 -0.23846164
0.14342085 0.15338023 0.074801385 -0.07848898 0.18217199 0.38282588 -0.06500373 0.06743411
0.15680036 0.058174428 -0.16635692 0.11352673 -0.20269941 0.09677864 0.21408679 0.46517444
0.29278564 0.49152097 -0.07909234 -0.035099227 -0.08225008 0.1467646 0.01332002 0.11915001
0.06436369 -0.18189262 0.05228236 -0.038933236 -0.18290216 0.32580596 0.22478688 -0.23316537
0.15054907 -0.15476961 0.17105874 -0.05518086 -0.028011344 0.050675962 0.29127598 0.47321215
-0.08117772 -0.053133603 -0.2578597 0.18689547 -0.1567392 -0.2683642 0.2178647 -0.010083122
-0.080864735 0.057849716 -0.23903696 -0.02326405 -0.033426374 -0.29756668 0.00586669 -0.5188119
0.257313 -0.004268002 -0.11407292 -0.037990823 0.17092972 0.008351519 0.23662063 -0.21436177
-0.028075023 -0.3924861 0.0028565808 -0.124489345 -0.0632199 -0.03805997 0.15388753 -0.33175963
0.014363439 -0.14496823 -0.025257578 0.27885774 -0.0803661 0.37042022 -0.09260066 -0.087974034

204 f4 [6]
00000000: 52e2 0cbc f2a2 8dbe bd78 3cbe 8d2a ddbe
00000010: 1ed8 0d3f 010b 0d3d
-0.008598881 -0.2766338 -0.18405433 -0.43196526 0.55407894 0.034434322

206 f4 [6, 6, 3, 3]
00000000: 8b5d 59be c24f 98bd f64f 363d 395d 3c3f
00000010: 2890 a2bd cf15 80bd 0997 f13c 036d 0f3d
00000020: 78ca 593d 9262 043f 3c06 81be e60f 5e3e
00000030: 4b59 9cbe a27c 793d 7cda a8be bed7 14be
00000040: f1c1 a7bd 882b ca3e 73fe 02bd ed04 883e
00000050: 94af 92bd 9d9e d33c 2452 403e bbe6 1bbf
00000060: 6af7 38be 4c94 37be 1515 7f3d 80a0 c0bb
00000070: 80dd 40bd 7efa 86bd 9c88 643d 28c2 0dbe
00000080: 7abe f63d cdf5 2cbe 3b32 833e 337d 85bb
00000090: 5a9a af3e 8c4c eebd 1357 05be 4576 69bc
000000a0: 49ae c23d 5707 383e 72bd bb3c de6f e23d
000000b0: d110 48bd 2b0a 933e f2bc 4a3c bdd5 bc3d
000000c0: c353 803d 8564 0ebd d27f ce3d cafc 17be
000000d0: 5628 2c3e d39e 283d 07ef 8f3d ae63 313e
000000e0: 60ee ee3d e11f a2bd d284 11be 365f 5abd
000000f0: a0f2 fa3d 653f 40be 2f79 c9bd 0f7c 26be
00000100: cca1 713e a2c0 a4be 32e0 b33d fc57 b03e
00000110: bc04 9f3e b287 d33e 4cc7 3b3e f3e1 183e
00000120: 02c0 d23d be45 80bc abbb dabd 2cea 97bc
00000130: 9fd7 073d 7a22 9d3c 7e6e ae3c f094 b4bd
00000140: 2ad1 1bbe 0b5b c83d 5f2a 093d d79f 0cbc
00000150: 4701 303e 07d9 023e 844e 4c3e fd4f e83d
00000160: 7570 913c 9d86 2bbd fa3c a0bd bc4b 863e
00000170: d347 7d3d ae85 6bbe ba38 80bc 993c 04be
00000180: a9cb b1be 270c c2bd 5020 04bf 51d9 fabd
00000190: 7be5 bf3d 60f9 ea3c f16d 6c3d 4811 6d3c
000001a0: e14f 2ebd e4f5 1f3d 938c 0e3e 0ad6 313e
000001b0: dc27 243d e570 9f3e 552a 44bd 666e e33d
000001c0: 9cce e53d 19be 52bc 0b4d 863e 5bfe a3bd
000001d0: d131 0cbe 8fde 02be cc24 923e 2fbc 323e
000001e0: 0a9e bf3d 38ec 243d c12c c83e 7410 1b3d
000001f0: 8181 51be afa0 39be 7500 c03c 81f5 b4be
00000200: 008a 06be a364 cbbe f900 93be 92fa 09be
00000210: f5c9 52be 90af aa3d 31f1 b7be 9cbe a13a
00000220: 02a9 f8bb bbe5 10bc ab03 c0bd 775f 91be
00000230: 729b 053d 674f 24bc 718d 37be 8b9d 103e
00000240: 6c84 113e 3ffa 2c3e 3655 c9be cb16 0e3e
00000250: 819c 94be b9a4 59be e9ba 123e f871 b33e
00000260: 84f3 273d ca26 053e 0baa 313e c8d1 bfbd
00000270: ebf8 ca3c cdae c63e 5bb5 0cbe d963 03be
00000280: 74fe 3dbe 03f1 413e dd57 5b3e 2fb4 53be
00000290: 1fca 0bbe 1c0e 163d dffc d23d 1d07 6f3c
000002a0: 3cdc 463e dc28 393e b243 12be c7e4 f5be
000002b0: 4b53 1dbc a245 d63e 1bda c2bd 8f76 023e
000002c0: 7b32 53be 21fa d7bd dd9b 993e 041c a53d
000002d0: 9614 d4bd 2428 c0bd c445 b5bd 01a3 8dbe
000002e0: cd4c 6d3e bc6a c73d ce32 f93b 8601 443d
000002f0: 18f7 58bc 6b20 aabe 3b55 a5be 9f7c 71bd
00000300: 9a43 ff3c 680b 82bd a445 b93d 177c 22be
00000310: 6366 32bc bd34 f0bd 7723 b0bd 36e7 a93e
00000320: 64ed bb3d 0f71 d23e dbf6 1bbe a150 8a3d
00000330: 469c 77bd 4f80 533e e157 233e 8ed2 3f3c
00000340: 930f b23e 6f1b fa3d b9a5 463e 75a9 113d
00000350: e97a b2be 3009 c43c d703 68be 7931 84be
00000360: d6d2 4b3e a9b0 53bd 4693 273d 32c6 153e
00000370: d216 b1bc f955 92be 0c88 ae3e 2f1d 403d
00000380: ca95 3e3e 82cb e23e a5d6 1fbe 34d9 87be
00000390: 017b 703e 2b2b a1be 8e7d 483e 2460 d33d
000003a0: 4ca0 96be 7367 21be e599 5bbe a4b7 cfbe
000003b0: 56c6 74be fa31 8d3d aedd 96bd f03e aa3d
000003c0: b0d2 29be 6b7b 0abd 3827 683d a315 533e
000003d0: f5e5 7cbc 9f75 64be 78df 283e e7b4 833e
000003e0: 7d5c b3be 0b29 6ebd 92c8 d0bd d090 a2bc
000003f0: 32bb d83d a246 703e 6574 06bd 13f7 b4bd
-0.2122709 -0.074370876 0.04450985 0.73579746 -0.07937652 -0.0625416 0.029490964 0.03501607
0.053171605 0.51712906 -0.2520007 0.21685752 -0.30536875 0.060909875 -0.3297919 -0.14535424
-0.08191288 0.39486337 -0.031980943 0.26566258 -0.07162395 0.025832469 0.18781334 -0.6089894
-0.18063131 -0.17927665 0.062275965 -0.005878508 -0.04708624 -0.06590746 0.055794343 -0.13843596
0.12048049 -0.1689064 0.2562426 -0.004073763 0.34297448 -0.11635694 -0.13021497 -0.014249389
0.095058985 0.1797155 0.022917483 0.11056493 -0.048844162 0.28718695 0.01237415 0.09220455
0.06265976 -0.03476383 0.100829735 -0.14842525 0.16812262 0.04116709 0.07028013 0.17323181
0.1166656 -0.07916237 -0.14210823 -0.053313456 0.12253308 -0.18774183 -0.09837567 -0.16258262
0.23596877 -0.32178217 0.08782996 0.34442127 0.310583 0.41314465 0.18337744 0.14929943
0.10290529 -0.015658256 -0.10680326 -0.018544279 0.033164617 0.019181479 0.021292921 -0.0881747
-0.15216509 0.0978299 0.033487674 -0.008583031 0.17187987 0.12778102 0.19951826 0.113433816
0.017753819 -0.041876424 -0.0782413 0.26229656 0.061836075 -0.23000214 -0.01565205 -0.12913741
-0.34725693 -0.09474974 -0.51611805 -0.12248481 0.09369942 0.028683364 0.057722036 0.014469452
-0.042556647 0.03905286 0.13920812 0.17366806 0.040077075 0.3114082 -0.047891933 0.11105041
0.11221048 -0.012862706 0.26230654 -0.08007499 -0.13690878 -0.12780212 0.285437 0.17454599
0.093563154 0.04026434 0.39096645 0.037857488 -0.20459558 -0.18127702 0.023437718 -0.35343555
-0.1313858 -0.39725217 -0.2871168 -0.13474491 -0.20584853 0.08334267 -0.35926202 0.0012340131
-0.0075885067 -0.0088438345 -0.093756996 -0.28393146 0.032618947 -0.010028697 -0.1792505 0.14122598
0.14210671 0.16892336 -0.39322823 0.13875882 -0.29025653 -0.21254243 0.14329113 0.3504789
0.04100372 0.13003078 0.17350022 -0.093661845 0.024776896 0.38805237 -0.13741057 -0.12831058
-0.18554097 0.18939595 0.21420236 -0.20674203 -0.13651322 0.03663455 0.103021376 0.014589098
0.1941995 0.18081993 -0.14283636 -0.48026106 -0.009602378 0.4185 -0.095142566 0.12740539
-0.20624726 -0.10545755 0.30001727 0.08061984 -0.10355489 -0.09382656 -0.08851197 -0.27663425
0.23173828 0.09737155 0.0076049333 0.047853015 -0.0132425055 -0.33227858 -0.32291588 -0.05895674
0.031160165 -0.06349832 0.09046486 -0.15867649 -0.010888669 -0.11728809 -0.086005144 0.33184212
0.09176138 0.41101882 -0.15230887 0.0675366 -0.06045177 0.20654415 0.15951492 0.011707915
0.34777507 0.12212264 0.19399156 0.035561997 -0.34859398 0.023930162 -0.22657715 -0.25818995
0.19904646 -0.051682148 0.040911935 0.14626387 -0.021617327 -0.28581217 0.3408817 0.04690283
0.18611827 0.4429589 -0.15609224 -0.265329 0.23484422 -0.31478247 0.19579145 0.10321072
-0.29419172 -0.15762119 -0.21445425 -0.40569794 -0.23903784 0.06894298 -0.07366501 0.083127856
-0.16584277 -0.033809107 0.056678027 0.20613723 -0.015435685 -0.22310494 0.16491497 0.25723955
-0.350315 -0.05814461 -0.10194506 -0.019844443 0.1058258 0.23464444 -0.032825846 -0.08836188

207 f4 [6]
00000000: 23dc 15bd ebe3 32bd 39ea d63c 8442 a43b
00000010: 49bc c83d aa41 05bd
-0.03658689 -0.04367439 0.026234733 0.005012812 0.098015375 -0.032533325

209 f4 [6, 6, 3, 3]
00000000: 23f3 1bbe 4fd4 fe3d 86f9 0d3e 435b 51be
00000010: 53da efbd fa2f 86be d702 fabd 629c 9b3d
00000020: e678 7fbe 2cfa 02bd e460 563e 97cf eabd
00000030: 6c61 41be 2d44 8cbd 3850 91be 2acb 4dbd
00000040: 1b2d 7cbe 406a 6bbe 74c9 40bd 8b2f 513e
00000050: 8ae4 38bd bfa6 b33d 4b0a d03d 257d a73e
00000060: e197 c13e 25de 473e 89cd 113c d851 a4bd
00000070: 117f c8bd 20c5 e3be bd84 70bd 1918 cfbd
00000080: 23c9 c33d 928d 03be 4810 9e3e 5937 4f3c
00000090: 9256 aabe 6657 45be b295 65bc 57ba 963e
000000a0: 0fc0 033e f678 3bbd a2f8 b4bd 6ccd 583d
000000b0: 2d82 f0bb 7433 a33c 3e8c 923e 99c5 49bc
000000c0: 5095 c8bd d0ba 9e3e 95cc 04bd efe9 86ba
000000d0: 060a f43b 8927 9cbd 98e4 b5bd 2787 653e
000000e0: c43f a33e 2546 fbbd 8521 0abf d813 21bc
000000f0: 33e1 833e 3f4d 74be af69 793c 4202 0cbe
00000100: 1b48 b83e 3cb2 563d ca75 d1bc 9671 203e
00000110: b6eb 3fbe c16d 3abe 2f9c 0fbe 9724 263e
00000120: eaea a13c ee41 5cbe b267 563d 2eb6 1a3e
00000130: d78d 243d 4092 b6bd acce 88be 4088 4b3e
00000140: 05c2 8cbd 095c a63e fad2 573e 5fd9 c9bd
00000150: 317b 15be f523 3ebe ca1b c63c 0853 e73d
00000160: e2f5 16be 7807 953d a2cc 913d d1f9 9f3c
00000170: ac11 283e d543 9a3e 3f38 5d3b cd95 0a3d
00000180: ea04 5abe c190 a1bc cdd0 163e eb0f 873e
00000190: aaaa 6abd 0a2f 6b3e 7fde 033e 535e 0f3e
000001a0: 9c77 d03c 397c fabe dae1 ca3d 6769 e9be
000001b0: 8326 9ebe fee4 80be fe77 eabd a61b 09be
000001c0: 4699 99be 3224 c73d 7312 7ebe 64de 5a3e
000001d0: 5e50 83be 7277 35be b4cb 963c b60b 59be
000001e0: 278b 873e afd2 b3bd 5b24 4dbe c14f 53be
000001f0: 1988 713c 06a8 97be b23a adbb db49 64bd
00000200: 51ce b2be 68ad fe3c 0a7b adbc 227a 2cbe
00000210: 2947 19be 5718 ac3e 6454 073d 4fc5 2d3e
00000220: c214 3cbe 5b11 173e 14a2 2c3e a3e5 d5bd
00000230: 4f8b 033e 7a70 07bc 5629 f0bd 00c5 63be
00000240: d4dc e43d 8103 aeb9 a2b2 52bd 9a1b 00be
00000250: 803b 84bd aae8 223e 2458 f5bd 75c0 82be
00000260: 1660 5cbe e635 833e e35d 833e 8d42 003f
00000270: 4c2a 3bbe f0e8 32be 6625 3c3c 62ff 8f3e
00000280: c898 55bd 8576 7dbd 4c04 f5bd 8fe9 5d3e
00000290: dcd9 2fbe c6ed 663e 09ee b03e c7e0 de3b
000002a0: 9e2f d5bb 4317 26be b28f eabd 0ca8 7d3d
000002b0: 0213 15be 37ff b6be d3e5 2abe 1271 8dbd
000002c0: 8a8f cf3d 833d 97be 10d4 50ba 2609 453e
000002d0: bf59 4ebd 9a85 ebbb 61d0 2d3e 7a1d 80be
000002e0: a6d7 cdbd 8adf 373e 1015 73bc ce67 3bbe
000002f0: e747 8c3e e4ff 6abd 2fc5 9b3d f7f6 16be
00000300: eebc 82bc bf50 3b3e 4bb7 cd3e 7f4d 783e
00000310: cd18 943d 2e94 f2bd e833 e3be 445c 813e
00000320: 556b 0ebe d9e5 303d d8cb 47be 5be2 5ebe
00000330: ba08 90be 251d eebd 0436 b9bd d55e 05bd
00000340: d97f 573e 2e93 9dbe e5c9 93be dfe4 78bd
00000350: 338e 81be 3226 61bd 9157 12bd 8916 553e
00000360: f483 12be b4a1 063e 1a9c 58be 787c 483e
00000370: cdbe 9cbd 7a3d e53b 61e3 e3bc ca2c 15be
00000380: d7f7 84bd a880 99bd 81f5 a73d 0ab9 e13d
00000390: 3b77 33be e445 833d afd0 543e 96d9 c33e
000003a0: fe34 3f3d b73f 083d b0a8 813e de47 2dbe
000003b0: ee36 bd3c 1694 f2bb ee7c a3be 81d1 353e
000003c0: d5af 93bd c561 2cbe 8639 e6bb 30c7 c03e
000003d0: 73cb 70be 2449 90bd 348e 393e 2d99 86bc
000003e0: b2f2 3cbe bda3 f03c 2934 83be 73cb 76bd
000003f0: 3b1b c0bd cf1a ff3a 0fec 26be b761 923d
-0.15229468 0.124428384 0.13864717 -0.2044497 -0.11711564 -0.26208478 -0.12207573 0.07598187
-0.24948463 -0.031976864 0.20935398 -0.11465376 -0.1888482 -0.06848941 -0.28381515 -0.05024258
-0.24626581 -0.2298975 -0.04706712 0.20428292 -0.045139827 0.08772039 0.10158213 0.32712665
0.37811187 0.19518335 0.008899101 -0.08023423 -0.09789861 -0.44486332 -0.05872034 -0.10112018
0.09559848 -0.12846974 0.30871797 0.012647473 -0.33269173 -0.19271621 -0.014012741 0.2943904
0.12866233 -0.045769654 -0.088364854 0.05293028 -0.007339737 0.019921996 0.2862262 -0.012315177
-0.09794104 0.31001902 -0.032421667 -0.0010293106 0.007447484 -0.07624728 -0.088814914 0.22414838
0.31884587 -0.122692384 -0.53957397 -0.009831391 0.2575775 -0.23857592 0.015222951 -0.13672736
0.35992512 0.05241607 -0.025568862 0.1566833 -0.1874226 -0.1820593 -0.14024423 0.16224895
0.019765336 -0.21509525 0.052344985 0.15108559 0.04017433 -0.08914614 -0.26720178 0.19876194
-0.06872944 0.32492092 0.21076575 -0.09855913 -0.14597775 -0.18568404 0.024183173 0.11295134
-0.14742234 0.07276815 0.07119109 0.019528301 0.16412991 0.30129877 0.003375545 0.033834267
-0.21290937 -0.019722344 0.14728089 0.26379332 -0.057291664 0.22967163 0.12877844 0.14000826
0.02544766 -0.489229 0.09906359 -0.45588228 -0.30888757 -0.25174707 -0.11448668 -0.13389453
-0.2999975 0.097237006 -0.24811725 0.21373898 -0.25647253 -0.17721346 0.01840768 -0.21195874
0.26473352 -0.08780419 -0.200334 -0.20635892 0.014741921 -0.2962038 -0.005286538 -0.055734497
-0.34923032 0.031088546 -0.021176834 -0.16843465 -0.14968552 0.3361232 0.033039466 0.16969799
-0.18367293 0.14752714 0.16858703 -0.1044419 0.12846111 -0.008266563 -0.11726634 -0.22243118
0.11174932 -0.00033190477 -0.05143989 -0.12510529 -0.06456661 0.15909067 -0.11979702 -0.25537458
-0.21521029 0.2562706 0.25657567 0.5010155 -0.18277854 -0.17471671 0.011483526 0.2812453
-0.052147657 -0.061880607 -0.1196371 0.21671127 -0.1717295 0.22551641 0.34556606 0.006801698
-0.0065059206 -0.16219811 -0.11453189 0.06192784 -0.14558032 -0.35741588 -0.16689233 -0.06906332
0.101348 -0.29539117 -0.000796617 0.19241771 -0.050378557 -0.0071875574 0.16974021 -0.2502249
-0.10050897 0.17956367 -0.014836565 -0.18301317 0.27398607 -0.057372943 0.07605969 -0.14742647
-0.01595923 0.18292521 0.40178904 0.24248312 0.07231293 -0.11844669 -0.4437554 0.25265706
-0.13908131 0.04318795 -0.19511354 -0.21766035 -0.28131658 -0.11626653 -0.09043506 -0.032561142
0.21044864 -0.30776352 -0.2886497 -0.060765143 -0.25303802 -0.054968067 -0.03572804 0.20809378
-0.14308149 0.13147622 -0.21153298 0.19578731 -0.0765358 0.006995854 -0.027818384 -0.14567867
-0.06492584 -0.07495242 0.08201123 0.110216215 -0.17525952 0.06409815 0.20782731 0.38251942
0.046681397 0.03326389 0.2532401 -0.16921946 0.023097482 -0.007402907 -0.3193125 0.177557
-0.07211272 -0.16834171 -0.0070259003 0.37651968 -0.2351511 -0.070452005 0.18120652 -0.016430462
-0.18451956 0.029374951 -0.25625733 -0.060252618 -0.09380194 0.0019462946 -0.16300987 0.07147544

210 f4 [6]
00000000: 727c 043e bb98 0dbd 66f5 b03e c91a 773e
00000010: 6e8b 613d 0825 80be
0.12938097 -0.034569483 0.34562224 0.24131311 0.05506461 -0.25028253

212 f4 [6, 6, 3, 3]
00000000: 1813 6f3e 36e5 f1bd 3bcb 813c 2f9c a13d
00000010: 1858 873e 43e6 8cbe f7a3 2fbd da3d 17be
00000020: 86f2 c83d 0a33 103e b228 05be 2c24 e9ba
00000030: 01a6 8abe 88a9 0abe 8381 17bb 0350 39bd
00000040: d444 ab3e d77d 133e c78e 673c 6bcf d43d
00000050: 8033 15be 04dd 8f3e a36d 2dbc 3944 1a3e
00000060: 7265 24bd 8e53 803d 3621 b93d 8f1b d7bd
00000070: 0ac3 62be c78f 74be 626c 843e c290 b5be
00000080: d06e bdbd c43b 343e 49be 61be 472c 403d
00000090: 2365 813d fcd9 ac3d 95d9 1f3e eea4 bdbd
000000a0: 099d ccbc b983 6c3e 7f68 293d 7402 13be
000000b0: d954 483e 0984 323e a892 82be 9b26 903c
000000c0: 7264 663e 7d35 09be aa24 cebd 89a4 693e
000000d0: d933 a53d 944e a5be 4c2f 243e a44e c1bd
000000e0: d3fe 02bc e532 1b3e d705 61be dec2 5e3e
000000f0: 6ca2 0e3e a4d4 4f3d 9a6b c43d bf30 a13d
00000100: f00d 57be 3f7d 583d f5e1 57bd f83c 673e
00000110: 22cc cbbd d646 ae3d 1ea7 9cbe 1fbe 073e
00000120: 40e8 53be 4fd0 40bd 6e51 5f3e 4f56 ff3d
00000130: 6fef 08be 567b 6fbe 3cd9 22be 2d09 54be
00000140: 4033 453d 2043 3abc 4e44 dd3c 21bc d53e
00000150: 6b7b 8e3e 48ce dbbd ba30 50be 5988 6d3d
00000160: 06b2 3bbe aa79 5ebe 6fa7 11bd d60f f5bd
00000170: 52dc a6be 545c 433d e0fc 2bbd c7c3 1ebe
00000180: ff7d eabd 9ff7 92be e17d 8f3e 8ab5 df3b
00000190: af4a 82bd 715a 84bd 60d2 bb3e 05bf e13e
000001a0: f87b 053e 8626 613d 331d 7ebe 6fad 953e
000001b0: 2f7e a0bd f1d1 b6bd b9d3 213e 0f28 603e
000001c0: 7e50 ce3c 5e01 683e dd39 bf3e 39ed 893d
000001d0: 5547 533e 82be b93a 29aa bdbe 5b40 053e
000001e0: 7ddd 35be e09c 80bd f419 c3bd 63d2 a9bc
000001f0: 826e bdbc a854 de3e fb38 bfbd 9336 ab3e
00000200: a9c3 c73c 3d57 c8be a083 92bd ee27 30be
00000210: 0cdf 8fbe fa72 923d 8f2d d33d 6522 b7bd
00000220: f474 1fbe b54b 9b3e 5b52 4abb 6995 abbe
00000230: 7df3 e23d d2c4 4a3e 2e03 b3bd d657 d7be
00000240: de60 9d3e d439 33bd 02bf 953d f30f 82be
00000250: af0c 10bc 8f47 5abe cab1 8b3e 7eb0 66be
00000260: e5d4 d3be 861b 713d eb8b 10be fa96 883e
00000270: 77d6 a8be 3a0e 0cbe a3ed a13d d0dd ac3d
00000280: 6df4 85bd 4695 873d 84d8 3bbc a879 a33c
00000290: e277 f13c a72d 023d d0e3 3fbe 0478 03be
000002a0: 6f9b 1d3d 0e97 3d3e 7562 82bd ae93 34bd
000002b0: 1b94 b3bd 9326 273e b1e3 81be 83ed 42be
000002c0: 7afe 1dbd 6501 4a3e d783 8d3e 7e3f 31be
000002d0: b920 7bbe 7375 56be 0a88 3bbe e33f 1f3e
000002e0: aacd 18be 4996 1fbc 97aa 2bbd de51 c23d
000002f0: d420 1cbe 76ed 1b3e 31ce 5abe bedc 21bc
00000300: 629e f73c 5361 1abe 42cb b0bd d199 703e
00000310: ba25 5fbe 4140 9ebd 5576 3b3e ccd5 373d
00000320: 82af acbe 210f 89bc 6ee2 1b3e c19b 5ebe
00000330: 5439 1bbe 3ad5 ad3e f684 003e 5f67 3ebe
00000340: fabe 913e b030 8cbd 6db5 dabd 3c84 743e
00000350: 6388 6c3e fda6 a93d 2726 be3d 5999 23be
00000360: 675d 80be d0ad 4fbe dee2 1fbd d8dd 00be
00000370: c9fa 513e c071 9fbe 9526 b83e c92d 1bbe
00000380: 1fa1 10be d389 a0bd bec9 2f3d b8fb ba3d
00000390: 3d45 87bb 1025 bd3d e954 3b3e 2af1 9dbe
000003a0: 43ad 0e3e 5f82 70be 76ae 063e f1bb 75bd
000003b0: f258 d4bd ea01 ae3e 6ec7 28be 7bd4 693d
000003c0: 45e6 873b 2e81 4cbc f958 b93c 460d 82bd
000003d0: 262a 62be 5eb1 fb3d 37fe 85bd 66e7 a7be
000003e0: d29a c63d 87b2 7f3e 9613 a83c 48c7 ac3c
000003f0: c16f 8d3e a7b7 093e b1f1 84be e327 1e3e
0.23347127 -0.11811297 0.015843978 0.07891118 0.26434398 -0.27519426 -0.04288098 -0.14769688
0.09811883 0.1408197 -0.13003805 -0.0017787269 -0.27079776 -0.13541234 -0.0023117966 -0.04524232
0.3345095 0.14403473 0.014133162 0.10391124 -0.14570427 0.2809831 -0.010585221 0.15065087
-0.04013581 0.06265937 0.090395376 -0.10503303 -0.22144714 -0.23882972 0.2586394 -0.35462004
-0.092496514 0.17600924 -0.22045244 0.046917226 0.063181184 0.08440015 0.15610345 -0.092599735
-0.024977224 0.23097123 0.04135942 -0.14356405 0.19563617 0.1743318 -0.25502515 0.017596534
0.22499254 -0.1339931 -0.10065587 0.22816671 0.0806653 -0.32286513 0.16033667 -0.09438828
-0.007995325 0.15156133 -0.21974884 0.21754023 0.13929147 0.0507399 0.09590836 0.07870626
-0.2100141 0.05285382 -0.052705724 0.22581851 -0.099510446 0.08509605 -0.3059625 0.13256119
-0.20694065 -0.04707366 0.21808407 0.12467634 -0.13372587 -0.23386893 -0.15903181 -0.20706625
0.04814458 -0.011368543 0.02701011 0.41745093 0.27828535 -0.107327044 -0.20331088 0.05799136
-0.1832963 -0.21726099 -0.035560068 -0.11965911 -0.32589966 0.047695473 -0.041989207 -0.1550437
-0.11449813 -0.28704545 0.28025725 0.006827061 -0.06361901 -0.06462563 0.3668394 0.4409105
0.13035572 0.05496838 -0.24815826 0.29233882 -0.078365676 -0.08926762 0.15803422 0.21890281
0.025184866 0.22656772 0.37348834 0.067347 0.2063268 0.0014171156 -0.37043884 0.13012831
-0.17760272 -0.062799215 -0.095264345 -0.020730203 -0.023123983 0.43423963 -0.0933704 0.33440074
0.02438529 -0.39129058 -0.07154012 -0.17202732 -0.2809986 0.07150836 0.10311424 -0.08942107
-0.15571958 0.30331197 -0.0030871842 -0.33512428 0.11081598 0.19801643 -0.08740841 -0.420592
0.30737966 -0.04375632 0.073118225 -0.25402793 -0.0087920865 -0.2131636 0.2728408 -0.22528264
-0.41373363 0.05886414 -0.14115874 0.26677686 -0.32976124 -0.13677302 0.07906654 0.08440745
-0.06540761 0.066202685 -0.011465196 0.019955471 0.02947611 0.03178182 -0.18739247 -0.12838751
0.03847831 0.18514654 -0.063664354 -0.04408615 -0.08768483 0.16323309 -0.25369027 -0.19035916
-0.038572766 0.19727094 0.27639648 -0.17309377 -0.24524201 -0.20943241 -0.18313614 0.15551715
-0.14922205 -0.009740421 -0.041910734 0.09488271 -0.15246898 0.15227303 -0.21367718 -0.009879289
0.03022689 -0.15076189 -0.08632518 0.23496176 -0.21791735 -0.07727099 0.18306859 0.044881627
-0.33727652 -0.016730847 0.15223095 -0.21739103 -0.15158588 0.3395174 0.1255072 -0.1859412
0.28466016 -0.06845224 -0.106791355 0.23878568 0.23098902 0.082838036 0.09284621 -0.15976466
-0.2507126 -0.20281148 -0.039034717 -0.12584627 0.20505823 -0.31141472 0.35966936 -0.15154184
-0.14123963 -0.07838788 0.042917006 0.09130043 -0.004128127 0.09235585 0.1829411 -0.30848056
0.13933282 -0.23487233 0.13152489 -0.059993688 -0.103685275 0.33985835 -0.16482326 0.057087403
0.0041473233 -0.012481971 0.022625433 -0.06350188 -0.22086391 0.122896895 -0.06542628 -0.3279373
0.096974984 0.24970447 0.020517152 0.021091118 0.27624324 0.13448964 -0.25965646 0.15444903

213 f4 [6]
00000000: d8f7 42bc c130 a3b9 bf54 dd3c 94b8 ea3c
00000010: ed82 053c 6205 333c
-0.011899911 -0.00031126107 0.02701795 0.028652467 0.008148891 0.010926576

215 f4 [12, 6, 1, 1]
00000000: 2a0d 9e3e 4d5d 2fbe 43a5 02bf 7732 8dbe
00000010: 2d10 ebbe bf8a b53e 5cdf ddbe f5a4 b13e
00000020: 3493 eabe 35b8 92be 8fd6 cebe 93ea e8bd
00000030: 3873 243f 673b 0abe 15d9 063f b561 513e
00000040: d2ea 143e 309e 1b3f c2fd 29be 8de3 523e
00000050: b7f8 1e3f ce7a a63e 6eef 313e bb23 683f
00000060: 58d2 c53e 9324 9dbe 2034 f0bd 81a5 973e
00000070: 1530 23be 828f cc3c 99dc 4bbf 2aa0 d03e
00000080: e53d a6be 7aa8 e13e e2d8 e1bb 9729 88be
00000090: 9a3a 103e 6cf1 f13e b6d6 3b3f 1b90 663e
000000a0: 012c 493e 5b45 dbbd 1bf8 203f e666 a6be
000000b0: 8a99 a43e 43d3 2f3e fcd4 e53d 5885 eb3e
000000c0: d358 6f3e 3f5e b53e 1a4d dbbe 2bc9 293c
000000d0: 2ebe bebd 384d 283f 7432 203e ac66 083d
000000e0: 8ab7 33be 432f 163f 269a f23e 5eba 1cbf
000000f0: a3e6 f3bd da1e e5be 33b4 553d 24c2 933e
00000100: 4f5c 2d3e 2764 943c d12f bf3b cb22 013f
00000110: 0a84 d3bd 54e4 99be e573 c23d 910e 02bd
0.30869418 -0.17125435 -0.5103342 -0.27577564 -0.4591078 0.35457417 -0.43334472 0.34696165
-0.45815432 -0.28656164 -0.4039807 -0.113728665 0.6423831 -0.13499223 0.5267499 0.20447429
0.14542702 0.6078825 -0.16600707 0.20594616 0.6209826 0.32515568 0.17376491 0.9067952
0.38637042 -0.30691966 -0.11728692 0.29618457 -0.1593631 0.024970774 -0.7963348 0.40747195
-0.32469097 0.4407385 -0.0068923095 -0.2659423 0.14084855 0.47254503 0.733745 0.2251591
0.19645692 -0.10706588 0.6287858 -0.3250038 0.3214839 0.17170434 0.11222264 0.4600017
0.23373728 0.35423467 -0.4283226 0.010362904 -0.09313618 0.65742826 0.15644246 0.03330104
-0.17550483 0.58665866 0.4738323 -0.61221874 -0.11909225 -0.447501 0.052173804 0.28859055
0.16929744 0.018114163 0.0058345576 0.50443715 -0.10327919 -0.30057013 0.094947614 -0.031752173

216 f4 [12]
00000000: 5d4f fe3d 3732 593e e0d8 9ebe 10cf a4be
00000010: 939c 8ebc 6e11 a83d bb64 88be beef 58be
00000020: 2baa e6bd a4ac a2bd 5a6a f93b 80d4 f2bc
0.12417481 0.21210562 -0.31024837 -0.32189226 -0.017408645 0.082064494 -0.2663935 -0.21185204
-0.11262926 -0.07943085 0.007611555 -0.029642344

218 f4 [12, 6, 3, 3]
00000000: ee1e f5bc b9e7 513d ec10 1e3e aa2c 4cbe
00000010: 4c65 3dbd 5f71 6f3d 6610 0dbe 9128 90bd
00000020: 152b c8bd 5c87 3dbe 668b 763d e660 08be
00000030: 946d 73bd ca3b eb3c 351b 31be cef0 1e3d
00000040: 2983 d93d 4663 cabd b771 eb3d 4e4c 88bd
00000050: 247c a13d 0261 663d 4935 88bc 30d8 4fbe
00000060: 4869 c3bd e694 203e 2478 c03c 2904 c6bc
00000070: 9f31 90bd c80d bc3b 152b 63be d930 1fbd
00000080: 1a0c f23d 84b2 fe3c 46d8 e2bc 349b c83d
00000090: d0fd 373d b751 8dba bcbf b2be 1b38 12bc
000000a0: 4200 393e 1a76 0b3e 1242 b4be 9b42 ccbd
000000b0: 6d9f a23d 299d 07bd fdff 583d 0a2a 64bd
000000c0: cb6b faba de9c 2d3e 26f7 d33d 4901 b53d
000000d0: f8e9 8d3c 491d 4d3e 42e2 8c3b cfac 4fbe
000000e0: e8e7 13be 4f62 293d 75e3 22be 6e52 9dbd
000000f0: 2c3e 33be 3e7b 7abd dd0b f0bd 6bd9 963c
00000100: 0286 aebc 08b7 68bb 61fd 823d 152f 62bd
00000110: 0207 143e 0da3 d73d b763 8bbd bfef 303d
00000120: a9d6 06be 98dd a63d d175 baba 60a3 d6bb
00000130: 4a6d 3dbe a353 8d3e 5e5f 0c3e 1907 d5bc
00000140: 59d5 49be 24fe b83c ad4b 32bc 6295 603e
00000150: a64c 7d3d 5354 11be 9d19 4fbe 0aed 78bd
00000160: 0ef0 d5bc f759 ccbc 0fec 173d 2e7d fd3d
00000170: abf2 d73d 32ba 0bbe 44c3 d4bd 7040 eebc
00000180: d3ea 1a3e b935 033e 38a6 4abe 4fcc 853b
00000190: 95e3 abbd 1d30 e93d 5cab c7bc 3646 c83c
000001a0: c640 47bd c148 4d3e 4df6 b2bd 833b e8bd
000001b0: d1a7 16bd 5b27 663e 25b9 663d bca8 cfbd
000001c0: 35b3 1c3e 9297 55bd f605 39bd 11f8 92bd
000001d0: cbcf 033c 13f0 a2be 94cc e73d fb9a 47bd
000001e0: 683e 57be 46e1 0cbe 4e7b f5bd ffd4 f03c
000001f0: 93ba cebc ef0a 44be eaeb b0be d442 0ebd
00000200: d514 8dbd 52d8 893c 7b17 bc3d 83f7 2d3e
00000210: a60c aebd b71b 42bd f7bc 073e 6bc3 b63d
00000220: cb9c f5bd b4ff 283e eacd 883e 9020 ed3c
00000230: ac2e 623e d08c e13d 0e15 f0bd 4d7b 403d
00000240: f1b3 17bc 37f3 0a3d c2ba cf3d 0fec 483e
00000250: fe17 3b3c 72db d8bd f6b2 39be 0455 66be
00000260: 23f1 6d3d f627 b2bd 906d 8ebe 0836 4e3d
00000270: ca49 493d 2bab 2dbe 8e38 27bc d9b1 f03d
00000280: 094b ccbc 5c9f 4bbe 37a0 253d 2fc6 4ebc
00000290: 645f acbd ed48 a4bd 9daa 03bd af32 48bd
000002a0: 4e32 58be 763b 973c c6ae dbbd 133c 1cbd
000002b0: d68a 053e 1472 453d 109c 973d 3c48 c43d
000002c0: 2f93 fc3d 4e78 88be 5931 3a3e 8e4d c63d
000002d0: 2996 41bd 6fb5 8e3b d30c 683e 947c 873c
000002e0: c4ad 33be 5646 ecbd 85be fe3d 5d71 96be
000002f0: f688 1d3e 0c43 b9bb 5bf8 2dbd 55e2 da3c
00000300: 91e9 d93d 06ae 0ebd 9d97 15be 00ea 3ebe
00000310: 1fa6 8a3e 3c11 3a3d db0f 20bc b91f 853e
00000320: c611 19be 3a3f 45be f047 a5bd 3cda 613c
00000330: 4c37 91bc bcc9 993d 39b4 4abe 0ff1 0a3d
00000340: 20ce 003e 4047 943d fb92 283b a65f 03be
00000350: f200 edbd 2b5c 183e 9930 eabd 9a34 053e
00000360: 06a6 1bbe 1a4b 85be 9db7 75bd dc9e 213c
00000370: 0347 bb3d 873b d83d 1ab5 3d3e 2ff8 a03d
00000380: a9e7 c5bb 7cfb 30be 4c77 f93d 71bd 66bd
00000390: 1fca ee3c fc76 4abe 80cc 303e c48a 6a3c
000003a0: 60e7 073e 20d2 5ebd a4eb c03c 189d 133e
000003b0: 8e94 cd3d 96bf 953d 7f32 25be bdce d13c
000003c0: 7060 aabd 4057 233e ac70 e0bd fae6 d9bd
000003d0: abe0 d73c e8ff 173e 9bea ad3c 478c 4cbd
000003e0: 006f 0c3e f26e 613e 5729 303d fc98 12bd
000003f0: f15e 083e 003e 80bd 977d babc c66c 823e
-0.029921975 0.05124638 0.15436143 -0.19938913 -0.046239182 0.05845773 -0.13775787 -0.070389874
-0.09773842 -0.18508667 0.060191534 -0.13318214 -0.059430674 0.028715033 -0.17295535 0.038803868
0.1062072 -0.09882216 0.11496299 -0.06655179 0.07885006 0.056244858 -0.01662697 -0.20297313
-0.09541565 0.156818 0.023494788 -0.024171906 -0.070407145 0.0057389475 -0.22184403 -0.038864944
0.118187144 0.031090982 -0.027691018 0.09795228 0.04491979 -0.0010781799 -0.34911907 -0.008924509
0.18066505 0.13619271 -0.35206658 -0.099736415 0.07940564 -0.033108864 0.052978504 -0.055704154
-0.0019105611 0.16954371 0.10349874 0.08838136 0.017323479 0.20030703 0.004299433 -0.20280765
-0.14443934 0.04135352 -0.1590708 -0.07681738 -0.17504185 -0.06115269 -0.11721013 0.01841422
-0.021304134 -0.0035509486 0.063959844 -0.055220682 0.14455798 0.10529146 -0.068061285 0.04319739
-0.13167824 0.081477344 -0.0014225786 -0.0065502375 -0.18498722 0.27602872 0.13708255 -0.026004361
-0.19710292 0.022582121 -0.0108823 0.21931985 0.061840676 -0.14192323 -0.20224614 -0.060772933
-0.026115444 -0.024945242 0.037090357 0.12377392 0.10544332 -0.13645247 -0.103888065 -0.02908346
0.15128641 0.12813462 -0.1978997 0.0040831934 -0.08393017 0.1138613 -0.024373703 0.024447542
-0.048645757 0.20047285 -0.087383844 -0.11339476 -0.036781136 0.2247595 0.05632891 -0.101396054
0.15302737 -0.0521465 -0.0451717 -0.07176221 0.008045147 -0.31823787 0.11318317 -0.048731785
-0.210199 -0.1375781 -0.11986409 0.02939844 -0.02523545 -0.19144796 -0.34554988 -0.0347317
-0.06888739 0.016826782 0.09184166 0.1698895 -0.08498506 -0.047389712 0.13255678 0.08923992
-0.119927965 0.16503793 0.267196 0.028946191 0.22088116 0.11013186 -0.11722766 0.04699259
-0.00925921 0.033923354 0.10143043 0.19621299 0.011419294 -0.10588731 -0.18134674 -0.22493368
0.058091294 -0.08699028 -0.27817965 0.050344497 0.049142636 -0.16959827 -0.010206355 0.11752672
-0.024938123 -0.1988501 0.040435996 -0.012620493 -0.08416632 -0.08021722 -0.03214513 -0.04887646
-0.2111294 0.01846097 -0.10726695 -0.03814323 0.13041243 0.048204497 0.074028134 0.0958409
0.123327605 -0.26654285 0.18182887 0.09682761 -0.047262345 0.0043551247 0.22661142 0.016538896
-0.17546755 -0.11536853 0.124386825 -0.29383364 0.15384278 -0.0056537446 -0.04247318 0.026719252
0.106402524 -0.03483393 -0.14608617 -0.18643951 0.27079865 0.045426592 -0.009769405 0.26000765
-0.14948186 -0.192624 -0.080703616 0.013784941 -0.017726563 0.07509181 -0.19795312 0.033921298
0.1257863 0.07240152 0.0025722373 -0.12829456 -0.11572446 0.1487891 -0.114350505 0.13008347
-0.15200052 -0.2603386 -0.05998956 0.009864535 0.09144404 0.10558229 0.18526116 0.07859837
-0.006039579 -0.17283434 0.12180957 -0.05633301 0.029149113 -0.19771951 0.1726551 0.014315311
0.13271856 -0.05439961 0.023549862 0.14415395 0.100381 0.07311933 -0.16132544 0.025611276
-0.08319175 0.15951252 -0.109589905 -0.106397584 0.026352247 0.14843714 0.021230033 -0.049938466
0.13714218 0.22014979 0.043008175 -0.03579043 0.13317467 -0.062618256 -0.022764964 0.25473613

219 f4 [12]
00000000: ca0f d33d 11a7 013e baa2 103e 9602 303d
00000010: 28c7 49be b272 12bd 0a92 8cbe b32b 7cbb
00000020: 30a9 b1bd efb7 85be d095 38bc 87a7 ebbc
0.10305746 0.12661387 0.14124575 0.042971216 -0.19704878 -0.035753913 -0.2745517 -0.0038478195
-0.08674848 -0.26116893 -0.011266187 -0.028766407
