NTUT_111-1/Code/slp.onnx (onnx, 407491 bytes, 4 tensors)

slp.0.weight f4 [128, 784]
00000000: bcd8 2e3c f821 dbbc 6a46 7bbc e59c 09bd
00000010: 5510 89bc 706e d2bc dcdb 943c a822 6f3c
00000020: 1047 52bb 8017 11bc 6a7b ddbc c4a7 623c
00000030: 10e2 a23c 0e2b 12bd a030 d93c e261 bb3c
00000040: 6656 a83c cc18 bcbc e09d 98bc 900d 5cbb
00000050: 78da 30bc a88d d03c 1ce0 f7bc b6e0 f93c
00000060: 67f2 013d dd3a 123d 53c5 9dbc debd eb3c
00000070: 3ced d7bc 8059 0d3a 2f88 02bd 5cc1 a7bc
00000080: 00ad 4ab9 40b0 df3a 4751 013d e8f9 8dbb
00000090: 38e2 893c 469b 9e3c 0034 0eb8 2e6b 60bc
000000a0: 60ea 78bc 7816 613c 02c6 8c3c 1c92 d93c
000000b0: 58da 803b 2e9f dbbc 8e1c c63c b0f8 a7bc
000000c0: b848 bd3b 63ca 083d dcf5 acbc 301b 7e3b
000000d0: e80c 943b 3f71 0d3d ce9b 883c 900e 533c
000000e0: b6bf be3c 75e3 b0bc 4e5f e03c e02e 843a
000000f0: a792 97bc ec52 8f3c 7091 943c 7ee5 a93c
00000100: 861a 41bc 1ed8 f73c fc6e d73c 165d a83c
00000110: f8b8 bc3b d320 d3bc 58c2 d23c c8e1 ebbb
00000120: 6cfe 8d3c e9a1 073d e20b fe3c 9c6b 47bc
00000130: 514d 0c3d 33fd 043d 60d6 8cbc 7ae7 d23c
00000140: 78ef debb 0032 8ebb 4e70 debc 00ae 693a
00000150: 60c4 18bc fce3 05bc 4843 fa3b 1af2 f0bc
00000160: b014 dfbc e6a0 f33c 43b8 c4bc 00c2 5eba
00000170: 3590 e2bc a0a5 653b c814 ac3c 7eb1 0dbd
00000180: 6008 123c cade fc3c 924a 1dbc 3aed 0ebd
00000190: fcf4 b43c 1239 fa3c d0e9 73bb 82eb 863c
000001a0: 0026 d3bc d06b 7dbb 606d d0bc f5ec 8ebc
000001b0: ed8a 0e3d eadb aebc b213 ac3c 1a70 b33c
000001c0: 0802 c8bc 40d9 a8ba 1edd a23c 007f 9cba
000001d0: 0ab5 f63c 403a 94bc ecbf b53c 669c 5dbc
000001e0: c0e5 9cbb cafe 54bc 5545 093d e65e b33c
000001f0: aeec 35bc 205b bbba c85d ecbb f89c cf3b
00000200: 953c debc 0e19 2dbc 0e94 c93c b768 8cbc
00000210: 7c8f 6fbc 834a f4bc 665d b23c 1064 723b
00000220: ae1b f93c c8bb b7bc 04a2 4e3c c020 02ba
00000230: 45df bcbc f81b 0ebd c281 fd3c a0aa 783b
00000240: d528 94bc 2809 bf3b 70fa b63b e0d2 f2ba
00000250: 827f 9e3c da0c 85bc 4ed3 53bc 07da 0fbd
00000260: 6dc4 02bd 5095 5b3c da3e c83c cf02 0a3d
00000270: 93f3 00bd b5a4 d0bc 40f4 27bc db44 02bd
00000280: 0601 a13c 0020 bdbb 1213 fe3c d056 973c
00000290: 1c41 57bc fead c5bc 7cce 183c 9670 9b3c
000002a0: fc6a 6abc 8024 aeb9 f0a7 733b 30b8 b3bc
000002b0: 3a35 bd3c 1640 f43c e01c 57bb c0a9 7abc
000002c0: c023 5b3c a0b6 e1bc f035 163b c0c4 1f3a
000002d0: c8c7 b6bb 2e1e bfbc e52b 043d 808c debc
000002e0: 22ff c63c aae5 66bc 40c0 083c a0db d5bc
000002f0: c8a7 ce3c ba8c e53c c83c f7bc 9ad7 e2bc
00000300: 1013 c53b 0e6b 0dbd 28fe 5e3c bec1 e83c
00000310: 7864 383c 98b8 303c 3c4d 21bc 309c bebc
00000320: 50e4 eb3b 45ce e4bc fee8 913c b7c2 8dbc
00000330: 52d2 e73c 9ce6 0c3c 00a3 983a 0838 6a3c
00000340: ca9a 8dbc 5ec4 bcbc 6c3b bc3c 286e b23c
00000350: bbf9 02bd f530 9cbc 56c5 dc3c 353b b9bc
00000360: b917 053d 7834 9f3c 1cb5 7d3c 8ee9 e4bc
00000370: 5e73 fd3c f45b 043c 0744 8ebc d865 39bc
00000380: 5cd1 3dbc 60ab 4fbb 3067 843b a455 063c
00000390: 2277 803c 2ad3 21bc 17f9 0e3d c801 2e3c
000003a0: 5e25 a6bc c8f2 b13b 2249 953c 6a3c 8fbc
000003b0: b0cc acbb 813a 053d 3dae 0a3d 7a0c 8c3c
000003c0: 408e 353c 8680 e03c 6e24 0cbd 327a 01bd
000003d0: f356 9fbc dc87 e2bb e85d c4bc 50e8 643c
000003e0: 470d 9ebc 6c2b 92bc 6280 e53c 30a3 713b
000003f0: 08a9 943b dce6 ccbc 00d7 673b 82d0 0dbd
0.010671791 -0.026749596 -0.015336612 -0.033596892 -0.01673142 -0.025687426 0.018171243 0.014595665
-0.0032085814 -0.0088557005 -0.027036387 0.013833944 0.019883186 -0.03568559 0.026512444 0.022873823
0.02054901 -0.022961043 -0.018629968 -0.003357742 -0.0107942745 0.025458172 -0.03025823 0.030502658
0.031725314 0.035700668 -0.01925913 0.02877706 -0.02635824 0.00053920597 -0.031868156 -0.020477943
-0.00019328669 0.0017066076 0.031571653 -0.0043327697 0.016831502 0.01936115 -3.3903867e-05 -0.013697429
-0.015192598 0.013738267 0.017184261 0.026558928 0.0039322786 -0.026809301 0.024183538 -0.020504326
0.005776491 0.033396136 -0.021113329 0.003877353 0.00451814 0.034531828 0.016675856 0.01288189
0.023284774 -0.021592835 0.027389195 0.0010084771 -0.018502546 0.017495595 0.018135756 0.020739313
-0.011786109 0.03025442 0.026298039 0.0205522 0.0057593547 -0.025772488 0.025727436 -0.007198546
0.017333232 0.033113394 0.031011526 -0.012171652 0.034253422 0.032468032 -0.017192066 0.025745142
-0.0068034492 -0.0043394566 -0.02715316 0.00089141726 -0.009324163 -0.0081720315 0.007637415 -0.029412318
-0.027231544 0.029739808 -0.024013644 -0.0008497536 -0.027656654 0.0035041347 0.021006003 -0.034593098
0.00891313 0.030867953 -0.0096002985 -0.034894206 0.022089474 0.030544791 -0.003721822 0.01646972
-0.025774956 -0.0038668998 -0.025442779 -0.017446974 0.03480046 -0.021345098 0.021005485 0.02190404
-0.024415031 -0.0012882128 0.019880828 -0.0011939704 0.030115623 -0.018094182 0.022186242 -0.013526058
-0.0047881305 -0.0130002 0.033513386 0.021895837 -0.011103792 -0.0014294125 -0.007213328 0.006335851
-0.027128497 -0.0105650555 0.02460673 -0.017139776 -0.014621612 -0.029820686 0.021773051 0.0036985911
0.030408707 -0.022428408 0.01261187 -0.00049639866 -0.023055682 -0.03469464 0.030945662 0.0037943497
-0.018085876 0.005829949 0.0055840537 -0.001852598 0.01934791 -0.01624148 -0.012928797 -0.035120036
-0.031925607 0.013402298 0.024444032 0.033694085 -0.03148229 -0.025469163 -0.010251105 -0.031803947
0.019653808 -0.005771637 0.031014953 0.018474013 -0.013138082 -0.024130818 0.009326573 0.018974584
-0.014307734 -0.0003321506 0.0037178956 -0.021938413 0.02309667 0.029815715 -0.0032823607 -0.015299261
0.013375223 -0.027552903 0.0022920333 0.00060946867 -0.005578015 -0.02332982 0.032268424 -0.027166605
0.024291579 -0.014092842 0.008346617 -0.026105702 0.025226489 0.028021205 -0.03018035 -0.027690697
0.0060142353 -0.034525923 0.0136104 0.028412696 0.011254422 0.010786198 -0.009845074 -0.023267835
0.007198848 -0.027930388 0.017811295 -0.017304761 0.02829853 0.008599903 0.0011645257 0.014295585
-0.017285723 -0.023042854 0.022977553 0.021781042 -0.031976443 -0.019066313 0.026949566 -0.02261124
0.032493327 0.019434199 0.015485074 -0.027943399 0.0309388 0.008078564 -0.017366422 -0.011315785
-0.01158556 -0.003168784 0.004040621 0.008199129 0.015681807 -0.009877006 0.03490552 0.010620542
-0.02028149 0.005430553 0.018223349 -0.017484862 -0.005273424 0.032526497 0.033857573 0.017095793
0.011081278 0.027405035 -0.03421443 -0.031610675 -0.01945064 -0.0069131684 -0.02397056 0.013971403
-0.01929344 -0.01784297 0.02801532 0.003687095 0.0045367517 -0.025012426 0.0035375953 -0.034622677

slp.0.bias f4 [128]
00000000: e4b2 0ebc 82ad d63c 2839 b93b b599 9dbc
00000010: 6e94 dc3c 38e0 e1bc b8c3 7fbc 648b 323c
00000020: 7096 673b 12c6 b83c c520 95bc bef3 ecbc
00000030: 0434 483c a044 1b3b 6cd6 8f3c f307 0d3d
00000040: a637 2bbc 7798 0abd f82b aabb 1cbd 8abc
00000050: 9ace 9bbc 3c75 a7bc 8849 4f3c 109c 553b
00000060: 9570 0d3d 6e88 84bc 94ef 163c 5a59 dd3c
00000070: e04c be3c 9408 0f3c 9e3d 08bd b0fb 9bbc
00000080: dc7f c9bb 5a73 a53c 7c58 383c beb6 ff3c
00000090: 8e65 61bc e356 c9bc 886c c83c e189 0a3d
000000a0: 905a 1fbb 1c1a 583c b891 abbc 2a97 b6bc
000000b0: a832 f8bc 3079 8e3c ae54 4bbc 25ff bebc
000000c0: 00a5 753c 546a 173c 18ce 333c 2e3b e13c
000000d0: e0c2 293b 9277 07bd 06a9 bd3c 5564 f8bc
000000e0: 67de 02bd 5652 c63c ce36 f43c 7f1a 05bd
000000f0: ce65 61bc 3916 113d 3863 c9bc 851f adbc
00000100: 6e8e e7bc ea02 6ebc c4c8 333c 00b5 d13b
00000110: d37d e6bc 4274 8e3c a751 0e3d 4247 e73c
00000120: f800 e7bb f0d8 663b 00fb 033b 82aa 01bd
00000130: 508b cc3b 9c3f 1c3c b873 aebb e43f d2bb
00000140: ea13 05bc 68e8 943b 04c0 133c 6594 09bd
00000150: 70cb 6f3b 0eee a93c ea6f 11bd fc16 b23c
00000160: 00c0 8139 8e77 c93c 28df 873c c0d6 ba3a
00000170: 20e8 3dbc 9a01 e93c 3058 71bb bca4 28bc
00000180: b87e d23b 3857 973b e004 d83a 5416 0ebd
00000190: 90a9 37bb 7270 d93c 6b6c 0f3d 88d8 ae3b
000001a0: 00bc 64bb 6b25 11bd d73e 023d 3060 2abb
000001b0: 0079 753b 0835 b53c 6860 a6bc 086a abbc
000001c0: 2488 743c 6e72 cd3c aada 02bd 208a 5b3c
000001d0: e715 86bc 4eab a63c 4200 a13c 3eec 993c
000001e0: c0e4 e6ba 9455 3c3c ac29 da3c 10a1 a3bc
000001f0: b091 5d3c bbb2 0ebd c040 eb3b be64 9e3c
-0.008709643 0.026205782 0.0056525655 -0.019238332 0.026926246 -0.027572736 -0.015610628 0.010897491
0.003533747 0.022555385 -0.018204102 -0.02892482 0.012219433 0.0023692027 0.017558299 0.03443141
-0.010450279 -0.033836808 -0.0051932298 -0.016935878 -0.019019414 -0.020441644 0.012651809 0.0032594241
0.034531195 -0.016178336 0.009212393 0.027020145 0.023230016 0.0087300725 -0.033261888 -0.019040912
-0.006149275 0.020196605 0.011251565 0.031215068 -0.013757123 -0.024577564 0.024465814 0.033822898
-0.0024315454 0.013189819 -0.020943508 -0.022288878 -0.030297592 0.017391771 -0.012410326 -0.023315022
0.014992952 0.009241659 0.01097443 0.02749404 0.0025903508 -0.033073016 0.023151886 -0.03032128
-0.03195038 0.024209183 0.02981129 -0.03249597 -0.013757182 0.035421584 -0.024583444 -0.021133194
-0.028266158 -0.014527062 0.010973159 0.0063997507 -0.02813617 0.01738942 0.03474584 0.02823222
-0.007049676 0.003522452 0.0020138621 -0.03165675 0.0062421933 0.00953665 -0.0053238533 -0.0064163078
-0.008122424 0.0045443065 0.009017948 -0.033588786 0.0036589764 0.020743396 -0.03550712 0.021739475
0.00024747849 0.02459314 0.016585901 0.0014254674 -0.011590987 0.028443146 -0.0036826245 -0.010293182
0.0064237975 0.0046185516 0.0016480945 -0.034689263 -0.002802465 0.026542876 0.035015505 0.005335871
-0.0034902096 -0.035436075 0.03179821 -0.0025997274 0.0037456155 0.022120014 -0.020309642 -0.020924583
0.014925037 0.025078978 -0.031946816 0.013399631 -0.016367866 0.020345356 0.019653443 0.018789407
-0.001761578 0.011495013 0.026631199 -0.019974262 0.013523504 -0.03483842 0.0071793497 0.019335147

slp.3.weight f4 [10, 128]
00000000: f46e f3bc 706e 71bd 78b6 343c ec49 883c
00000010: 6505 2abd 84cd 9abd a2b8 4e3d 3962 35bd
00000020: 17f5 853d b09e 103d e301 b1bd 77bc 35bd
00000030: a4b3 9bbd 2b39 803d 7b56 3fbd a4db 8cbd
00000040: 9923 8f3d 6ca3 b0bd ad56 963d 8257 f3bc
00000050: b6df 193d ba0e 1b3d e0a4 d1bb 9025 6abd
00000060: d8b2 ea3c bf8e 933d a824 a6bd 40da 3b3c
00000070: c0e3 18bb c06d cdba b89f f8bc 2aad 4d3d
00000080: a0bb a4bd fad1 233d 1c1f a63c f091 acbb
00000090: 8887 18bd 801b a8bd 6f75 acbd 40ac 44bc
000000a0: a282 1e3d c015 e6bb 00fa 233a 79ab 863d
000000b0: 0299 243d e0d9 b43b e21b 97bd 8c4f 2fbd
000000c0: ef23 803d b7bb 46bd 7f70 a4bd ac16 b3bd
000000d0: f6ff 0f3d 65a5 933d 0da6 853d ceb3 8cbd
000000e0: 4045 d4bb 48b1 4bbc 2984 9f3d cb3c 1bbd
000000f0: ab40 41bd 1f9b 24bd 6572 0dbd 19e5 2bbd
00000100: de14 debc 489f fa3c 1f84 a23d b958 a7bd
00000110: 707c 0d3c 2eca 6d3d ba4d 91bd 884e 8c3c
00000120: 3a57 8ebd bd55 a5bd 10af 14bc 3b20 95bd
00000130: 66c2 4a3d 0223 693d 005d 7abc b803 793c
00000140: 8878 143c a1f6 a93d 4f38 8cbd de6e 433d
00000150: 988a 043c 1152 9abd 0f6c 99bd 880f 093c
00000160: 771b 59bd 4544 61bd 804e 073b 2fde abbd
00000170: 5028 29bc b66b 0b3d 0060 3ebc 6c0b 48bd
00000180: c2f6 383d 401f a0bc a49b ef3c c8d4 0a3c
00000190: 10c7 c53b 90e2 223c 1af9 7c3d 68bd 353c
000001a0: b0b8 713c f40f 18bd fd92 ae3d 70e0 84bd
000001b0: cc5f 8bbd 5565 0abd 99b4 a03d b833 c73c
000001c0: 22bf 0c3d 4efd 9cbd 1c43 76bd 38ed 513c
000001d0: f089 ef3c 1456 893c 00fa cc3a 771d a73d
000001e0: d8f6 6b3c 8868 63bd f402 56bd 004b 9f3b
000001f0: 907c 8c3c 20fd 17bb 4f77 b23d 904f 243c
00000200: 6055 ca3c f02a b9bb 6769 9e3d 60b0 2c3b
00000210: 0621 59bd 2853 63bc dafa 593d 0b0d 983d
00000220: 586e 90bd 88c2 8a3c 7e44 65bd 4492 063d
00000230: 35d3 54bd 8ea7 54bd b836 bfbc a6af 233d
00000240: 76eb 89bd 02fe 80bd 32bc 3d3d 8e5f 0ebd
00000250: ffaf 8f3d d4ff c73c 6724 b1bd fdf9 4bbd
00000260: a670 7a3d f242 263d f0db 813b 03c2 923d
00000270: 026b 793d 6380 b03d a226 1c3d f52b a53d
00000280: d48a ad3c 1ae3 583d 34c8 e83c 6028 8e3b
00000290: db9f 06bd dcd1 82bd 8505 873d 11e1 8c3d
000002a0: 21d4 84bd 10f4 a7bb cc6c 153d 80a5 48bb
000002b0: 605e 493b 848e 3dbd 4322 963d 2888 b2bc
000002c0: cb38 ad3d b456 71bd f52c 843d 9238 4c3d
000002d0: 2a49 343d c8b2 133d 18ad 513c 006b b9bc
000002e0: 92a3 4f3d 400c 90bb addd 853d 904d 473c
000002f0: ed3b 8c3d f90e 94bd 74c9 b1bd 015d ae3d
00000300: 32a2 533d 07f4 46bd 1990 8f3d 0005 b4ba
00000310: 2aa7 113d 26e8 223d 372f 4bbd b29b a5bd
00000320: 2d27 863d 523b 72bd bc61 86bc 00e8 2eb8
00000330: 9c6e 69bd eab9 7abd c0de e8ba e6a9 663d
00000340: 7e49 313d edd4 99bd 4181 a13d 0058 8d3b
00000350: e8d3 a9bd 9434 aebd 64ee cd3c a0bd 323c
00000360: a8c3 32bc e2b6 573d a047 14bc f0eb 4bbd
00000370: c79f a4bd bffe a03d 62ef 023d b744 23bd
00000380: cf82 a0bd 77de 903d 6cc5 a43c 1905 88bd
00000390: b08d 9fbc ee1e 6bbd aedf f2bc b052 76bc
000003a0: 4476 e43c f6a9 573d 809d b1bb ed1f 93bd
000003b0: cece 383d 4a59 743d 3a83 93bd 2605 dfbc
000003c0: d010 3abd 4d8c 91bd 4b34 a63d 721d 7ebd
000003d0: 6500 a73d 0fce 9c3d 3341 8e3d 0955 8cbd
000003e0: b53b a7bd 44aa a3bd 548d 893c cedf 263d
000003f0: a89f 86bd e07e 953c c892 a13c afee 853d
-0.029715993 -0.058943212 0.011029832 0.016636811 -0.04150905 -0.0755873 0.05046905 -0.044283126
0.06540888 0.035307586 -0.08642938 -0.044369187 -0.07602623 0.06260904 -0.046713334 -0.068778306
0.069892116 -0.0862492 0.07340751 -0.029704813 0.037566863 0.03785584 -0.0063978285 -0.05716473
0.028649732 0.07204961 -0.081124604 0.011465609 -0.002332911 -0.0015672967 -0.030349597 0.05021397
-0.08043599 0.03999517 0.020278506 -0.0052664205 -0.037238628 -0.0820837 -0.08420836 -0.012003958
0.0386988 -0.007021636 0.00062552094 0.065756746 0.040184982 0.005519137 -0.07378365 -0.04280047
0.06256854 -0.048518863 -0.080292694 -0.08744559 0.035156213 0.07209281 0.06525812 -0.068702325
-0.006477982 -0.012432404 0.077888794 -0.037899774 -0.047180813 -0.040186998 -0.034532923 -0.04196653
-0.02710956 0.03059353 0.07935356 -0.081712194 0.008635625 0.05805414 -0.07094903 0.01712729
-0.06950231 -0.08072994 -0.009074941 -0.07281538 0.0495018 0.05691815 -0.015280962 0.0151986405
0.00906194 0.08298994 -0.068466775 0.047713153 0.008089684 -0.07535184 -0.07491314 0.008365519
-0.05300471 -0.054996748 0.0020646155 -0.083919875 -0.010324553 0.034038268 -0.011619568 -0.048839018
0.0451572 -0.019546151 0.02924902 0.008473583 0.006035693 0.009941712 0.061761 0.011092521
0.014753506 -0.03712459 0.085241295 -0.064881206 -0.06805381 -0.033788044 0.07846946 0.024316654
0.034361966 -0.076655015 -0.060122594 0.012812905 0.029240578 0.016764678 0.0015638471 0.08159917
0.014402114 -0.05551961 -0.05224891 0.0048612356 0.01714924 -0.0023191646 0.087141626 0.010028735
0.024698913 -0.0056508705 0.07734948 0.0026350245 -0.05301001 -0.013874806 0.053217746 0.07424363
-0.070522964 0.016938463 -0.055973522 0.032854334 -0.051959235 -0.051917605 -0.023341522 0.039962433
-0.06734364 -0.06298448 0.046322055 -0.034759097 0.070159905 0.02441398 -0.08649521 -0.049798954
0.061142586 0.040591188 0.003962986 0.07165911 0.060893066 0.08618238 0.03812278 0.08065025
0.021184362 0.052950956 0.028415777 0.004338309 -0.032867294 -0.06387684 0.0659285 0.068788655
-0.06485773 -0.00512553 0.03648071 -0.0030616224 0.0030726418 -0.04627849 0.07330754 -0.02179344
0.08458098 -0.058920577 0.064538874 0.049858637 0.044015087 0.03605917 0.012797616 -0.02263403
0.050693102 -0.0043959916 0.06536422 0.012164488 0.068473674 -0.07229418 -0.08681002 0.08513833
0.051668353 -0.048572566 0.07009906 -0.00137344 0.03555981 0.039772175 -0.049605574 -0.08086337
0.06550441 -0.059138604 -0.016404025 -4.17009e-05 -0.05699025 -0.061212458 -0.001776658 0.05631437
0.04328298 -0.075113155 0.07885981 0.004313469 -0.08292371 -0.08506122 0.025138088 0.010909468
-0.010910906 0.052664645 -0.00905028 -0.049785554 -0.080382876 0.07861089 0.031966574 -0.039860453
-0.0783745 0.07073682 0.02011367 -0.06641597 -0.019476742 -0.057402544 -0.029647674 -0.015034363
0.027888425 0.05265232 -0.005420387 -0.07183824 0.0451191 0.059655465 -0.07202764 -0.027224135
-0.04542619 -0.071068384 0.08115443 -0.0620398 0.08154372 0.0765649 0.069460295 -0.06852157
-0.08165685 -0.0799146 0.016791023 0.04074078 -0.06573421 0.018248975 0.019723311 0.06539666

slp.3.bias f4 [10]
00000000: 18dc 28bc 903e c63c 45ac 35bd 243a 113d
00000010: ad8e 3cbd c01d 433c ecb1 d0bc cced bfbc
00000020: b0aa 79bd 0496 cb3c
-0.010306381 0.024199754 -0.044353742 0.035455838 -0.046034504 0.011908948 -0.025475465 -0.02342882
-0.060953796 0.024851806
