NTUT_111-1/Code/ViT_MNIST.onnx (onnx, 44074 bytes, 115 tensors)

class_token f4 [1, 8]
00000000: c1b1 0a3f da19 cb3f 7285 5b3f 9f26 a9bd
00000010: 95e9 a53d 1cc6 293f 93b5 873d 70a6 92be
0.5417748 1.5867264 0.85750496 -0.082593195 0.08101193 0.66317916 0.066264294 -0.28642607

linear_mapper.bias f4 [8]
00000000: 4fcb 50be e126 fcbe 3b55 053f 3fd1 d9bd
00000010: e086 bebd a114 eabe 4aff a8bc a478 f93e
-0.20390056 -0.49248412 0.52083176 -0.10635614 -0.09303069 -0.45718864 -0.020629544 0.48724854

blocks.0.norm1.weight f4 [8]
00000000: 581a 1b3f 8629 3e3f ffd1 4b3f d2d4 733f
00000010: 77bf bc3e a447 1a3f c50d 2d3f ccf0 d43d
0.6058707 0.7428211 0.79617304 0.95246613 0.36864826 0.60265565 0.67599136 0.10397491

blocks.0.norm1.bias f4 [8]
00000000: 92aa 4f3e 9f9f cd3e c6dc 9cbe 7461 113f
00000010: d6bd 303e 7f3e 75be 80c0 92be 394d 94bd
0.20279911 0.40160844 -0.30637187 0.56789327 0.17259917 -0.23949622 -0.2866249 -0.072412916

blocks.0.mha.q_mappings.0.bias f4 [8]
00000000: d718 073f 6493 10bf 8786 cdbe 14c7 a3bd
00000010: c38d 813e c358 0f3d 10c8 44be 1c94 8bbe
0.5277228 -0.564749 -0.401417 -0.079969555 0.25303468 0.03499676 -0.19216943 -0.27261436

blocks.0.mha.q_mappings.1.bias f4 [8]
00000000: 5378 48bf 459e b23f 07be 623e a6c5 eb3d
00000010: c36c bebd fad9 30bf 1cc9 893f 47cc 33be
-0.783086 1.395455 0.22142802 0.11512308 -0.092980884 -0.69082606 1.0764499 -0.17558394

blocks.0.mha.k_mappings.0.bias f4 [8]
00000000: 6ed7 823c 89ed 1e3e 53ef 81be d5ea 3c3c
00000010: 8d7e 943e 320b e53e 7a04 8bbe d3b3 18be
0.015971866 0.155203 -0.25377902 0.011530598 0.290028 0.44735104 -0.27151853 -0.14912347

blocks.0.mha.k_mappings.1.bias f4 [8]
00000000: 6adf 24be 9221 b63e 3eae c03d 3c1b 3d3e
00000010: b4d6 593e a759 643e cd45 3cbe 85cc a7be
-0.1610085 0.35572487 0.09408234 0.1846742 0.21273309 0.22299825 -0.18386002 -0.32773224

blocks.0.mha.v_mappings.0.bias f4 [8]
00000000: 0c49 46bd 6b7c 0cbd 5170 6ebb bda5 8abb
00000010: 931b 8e3c f735 333e 0d65 193c 680c 0fbd
-0.048409507 -0.03429834 -0.0036382864 -0.0042311833 0.017347133 0.17501055 0.009362471 -0.03492394

blocks.0.mha.v_mappings.1.bias f4 [8]
00000000: 1da6 1fbd cc55 1abb a90d 95bc f623 58bc
00000010: 3161 eabc 941a 113c 1263 98bc 41ec 37be
-0.038976777 -0.0023549674 -0.01819499 -0.0131921675 -0.028610798 0.008856434 -0.018601928 -0.17961217

blocks.0.mha.o_mappings.bias f4 [8]
00000000: f42d 263e d0a2 0c3e 1680 09be aad8 423e
00000010: c7fe f83c ee9b 8cbe 3081 10bf b33b 9abd
0.16228467 0.13733983 -0.13427767 0.19027963 0.030394925 -0.27462715 -0.56447124 -0.07530918

blocks.0.norm2.weight f4 [8]
00000000: 0522 7a3f 3b04 5b3f 7518 e23f b755 9f3f
00000010: 5681 823f 7f2d 993f e107 213f 9d42 213f
0.9770816 0.8555333 1.7663714 1.2448033 1.019572 1.1967009 0.6290265 0.6299227

blocks.0.norm2.bias f4 [8]
00000000: 47d8 c83d 1ed3 52be 59fa 13bf 370e 8d3e
00000010: 877f 003f 038b 3a3d 708f d33b 91af b2be
0.09806877 -0.20588347 -0.57803875 0.27549908 0.5019459 0.04554273 0.006456308 -0.34899572

blocks.0.mlp.0.bias f4 [32]
00000000: 362c 4cbf e552 e6be c9b7 9a3e 2c14 d6be
00000010: 9758 8abf a694 853e 3217 c6be aac1 2fbf
00000020: da7d e3bf db70 94be 5866 8dbf 0f9b 32bf
00000030: 178b 2bbf e640 16bf e1ae edbe 3572 63be
00000040: 5f9e 93bd 10f3 82bf 2b90 70bf 232d 0a3e
00000050: 9c60 7cbf c129 88be d900 29bf d792 7abf
00000060: f472 1dbf 3d42 cdbd a8e5 c6be 626a 86bf
00000070: c273 55be c686 14be 4e3a 0fbf 92e2 3c3e
-0.7975496 -0.44985119 0.30218342 -0.41812265 -1.0808285 0.26089972 -0.38689572 -0.6865488
-1.7772782 -0.28992352 -1.1046858 -0.6976785 -0.6700911 -0.5869278 -0.46422485 -0.22211535
-0.07207941 -1.0230427 -0.9396998 0.13493781 -0.98584914 -0.26594356 -0.6601692 -0.9788031
-0.6150353 -0.100223996 -0.3884709 -1.0501215 -0.2084494 -0.14504537 -0.5594834 0.18445805

blocks.0.mlp.2.bias f4 [8]
00000000: 6694 c0be 16d5 ca3e 012a a9be fa61 4ebe
00000010: 4f4f e2be 6626 4cbe bbf9 213e a7d7 563f
-0.3761322 0.39615697 -0.3303986 -0.20154563 -0.44201133 -0.19936523 0.15817921 0.8392281

blocks.1.norm1.weight f4 [8]
00000000: 7558 223f 1511 5e3f 0a73 513f 0cd4 523f
00000010: 5da2 0d3f 32a4 3c3f 1f61 4f3f 6b7a f13e
0.63416225 0.86744815 0.8181616 0.8235481 0.5532587 0.7368804 0.8100757 0.4716371

blocks.1.norm1.bias f4 [8]
00000000: 8ea8 aa3c f0cb 5fbd e95a 9fbd 240a 28bd
00000010: 59a5 0dbc cd82 813e 505b aa3d 5f23 5cbe
0.020832326 -0.05463785 -0.077810116 -0.041025296 -0.008645379 0.25295106 0.08318198 -0.21497868

blocks.1.mha.q_mappings.0.bias f4 [8]
00000000: 8b88 443f 2020 423e cdc7 06be 7eb5 98bf
00000010: 43a7 fb3e 2b57 73be 084f 84bd cc10 cdbc
0.7677085 0.18957567 -0.13162155 -1.1930387 0.49151048 -0.2376372 -0.064603865 -0.025032423

blocks.1.mha.q_mappings.1.bias f4 [8]
00000000: e631 3fbd 5e18 803e 8d4c 7a3e 7574 0d3f
00000010: 22fe 09bf a5c6 c23e db0e e43e 0334 603d
-0.046678446 0.2501859 0.24443264 0.55255824 -0.539034 0.3804218 0.44542584 0.054737102

blocks.1.mha.k_mappings.0.bias f4 [8]
00000000: 8389 8bbd 89b7 d93d 7b16 d33e 6bb1 3bbd
00000010: 3a59 303e 870a bb3b e739 94be ae24 c4bd
-0.06813338 0.1063071 0.4122809 -0.045823496 0.17221537 0.005708042 -0.28950426 -0.095773086

blocks.1.mha.k_mappings.1.bias f4 [8]
00000000: 300f 9ebd 9ce6 fabe 4073 c0be 1ea4 f5bd
00000010: 8313 b93e 1271 2a3e 8512 153e eef3 8b3e
-0.077177405 -0.49004066 -0.3758793 -0.119941935 0.361477 0.16644695 0.14557846 0.2733454

blocks.1.mha.v_mappings.0.bias f4 [8]
00000000: 9791 49be b430 a13c 1cfe afbe 4a33 d5bd
00000010: 3270 673e 338c c7bc a7c6 123e 86f3 fab9
-0.19684444 0.019676544 -0.34373558 -0.10410173 0.22601393 -0.024358844 0.14333592 -0.00047865155

blocks.1.mha.v_mappings.1.bias f4 [8]
00000000: d44c f4bd f99d 3a3d 1cc1 61be af23 65bd
00000010: 5866 04be adf4 9a3c 7530 833e 99ed 203e
-0.11928716 0.04556081 -0.22046322 -0.055942234 -0.12929666 0.018915499 0.25622907 0.15715636

blocks.1.mha.o_mappings.bias f4 [8]
00000000: 981e 843d 2842 be3e 3a5e cdbe 8441 b73d
00000010: ce99 4dbe a56c 943e 5db9 e1be b5b1 503e
0.06451148 0.37159848 -0.40110952 0.08948043 -0.20078203 0.2898914 -0.44086733 0.2038029

blocks.1.norm2.weight f4 [8]
00000000: 1561 013f 4fdb 913f ee38 623f 0d43 8a3f
00000010: c5a0 5f3f b2fa 913f dcb3 703f afaf 793f
0.5053876 1.1395053 0.8836812 1.0801712 0.8735469 1.1404631 0.94024444 0.97533697

blocks.1.norm2.bias f4 [8]
00000000: fba7 0e3e 7379 35be a99c a4be 2fe9 913e
00000010: 9f16 1d3e be74 4fbe fae8 26be 750e cebe
0.13931267 -0.1772211 -0.32150772 0.28498217 0.1534066 -0.20259377 -0.16299811 -0.40245405

blocks.1.mlp.0.bias f4 [32]
00000000: 4614 c6bf 3e00 9dbf f29a 10bf 79d6 89bf
00000010: 3274 5dbf a94d 50bf 8f0c efbe a5cd 02bf
00000020: 2edb c3bf 36ed 85bf b423 b6bf 8ddc d4be
00000030: 64d4 63bf b8d5 b7bf f6e8 83bf 3663 88bf
00000040: 39f7 84bf 7812 83be 994a abbf d4e7 eabc
00000050: c85e 3d3e c043 84bf 1792 22bf 3144 46bf
00000060: cc29 93be 9f9b a6be eb55 a9bf 2ed2 3abf
00000070: c78f 2bbf d90f c0be 8ffa 42bf aaab 10bc
-1.5474937 -1.2265699 -0.5648643 -1.0768577 -0.86505425 -0.813685 -0.4668927 -0.5109504
-1.5301263 -1.0463016 -1.4229646 -0.41574517 -0.8899596 -1.4362097 -1.0305469 -1.0655277
-1.0387946 -0.25600028 -1.338214 -0.028674997 0.18493187 -1.0333176 -0.63504165 -0.774478
-0.28742826 -0.32540604 -1.3229345 -0.7297696 -0.6701626 -0.3751209 -0.7616357 -0.00882999

blocks.1.mlp.2.bias f4 [8]
00000000: 1f28 963e 9161 243f 567b 19be 95a5 c6be
00000010: 77b8 2fbf bbcc b1be 08f6 ad3e 8eba 993e
0.29327485 0.64211375 -0.14988455 -0.38798204 -0.68640846 -0.3472651 0.3397677 0.30025142

blocks.2.norm1.weight f4 [8]
00000000: 4da6 7a3f b231 3d3f ac4b 863f c054 803f
00000010: 846f 513f 08af 3f3f f620 4f3f af30 633f
0.97910005 0.73903954 1.0491843 1.0025864 0.81810784 0.7487645 0.8090967 0.8874616

blocks.2.norm1.bias f4 [8]
00000000: e193 a03c cf29 39be 7751 54be 4d2d 0dbe
00000010: a477 44bd 3550 353e bc9d 6d3e 9287 0dbe
0.019601764 -0.18082355 -0.20734201 -0.13786812 -0.04796566 0.17706378 0.23204702 -0.13821247

blocks.2.mha.q_mappings.0.bias f4 [8]
00000000: dd4d 10be 16f8 90bd 2cf2 783f a9cb e43d
00000010: 1bc0 a5be ac96 a63d 3f04 9d3e 0dab e13e
-0.14092202 -0.07078569 0.97244525 0.111716576 -0.32373127 0.08134207 0.30667302 0.44075814

blocks.2.mha.q_mappings.1.bias f4 [8]
00000000: a553 4c3f 39f9 46bf 4e99 e03e dfb0 c8be
00000010: 6bfc f0bd 079f 473d f053 82be d3e0 33bf
0.7981513 -0.77724034 0.43866962 -0.39197442 -0.11766895 0.048735645 -0.25454664 -0.7026493

blocks.2.mha.k_mappings.0.bias f4 [8]
00000000: 77a5 94be 9429 8e3e 0460 c83c c986 ba3e
00000010: 8d8c a2bd dc37 8fbe 70c6 5b3d 8c25 923e
-0.2903249 0.27766097 0.024459846 0.36430958 -0.07936964 -0.27972305 0.05365604 0.2854427

blocks.2.mha.k_mappings.1.bias f4 [8]
00000000: 41d2 7cbe af49 b13d 46f1 8e3e 4bdf 443e
00000010: 9776 1a3e 60bd 363d 871b da3c 2600 70b9
-0.2468958 0.08656632 0.27918452 0.19225805 0.15084301 0.044614196 0.026624454 -0.00022888239

blocks.2.mha.v_mappings.0.bias f4 [8]
00000000: 7697 943e 2e43 48bf 2734 913e 4889 2cbf
00000010: 641a 02be c491 f8be a9a1 03bd c332 fe3b
0.29021806 -0.7822751 0.28360102 -0.67396975 -0.1270538 -0.4854871 -0.032136593 0.007757516

blocks.2.mha.v_mappings.1.bias f4 [8]
00000000: 9d50 11bf 1ff1 48bf 627c c0be 1773 e83d
00000010: dd5a 953e 1645 e13e e2b6 40bf 636c 8abe
-0.5676363 -0.7849292 -0.37594897 0.11350077 0.29170886 0.4399802 -0.7527906 -0.27035818

blocks.2.mha.o_mappings.bias f4 [8]
00000000: 418b 783f fffd 5b3e 8fee 9dbf 2a34 4fbf
00000010: 5c7a 87bd 7b63 40bc 4943 d93d 6b88 01bf
0.97087485 0.2148361 -1.2338427 -0.8093897 -0.06615135 -0.011742468 0.10608537 -0.5059878

blocks.2.norm2.weight f4 [8]
00000000: 69a2 8c3f 9b87 b43f 6bfe 073f 7a10 743f
00000010: f649 8b3f 7b94 9e3f 2a8b 063f 1947 413f
1.0987064 1.4103884 0.53122586 0.9533764 1.0881946 1.2389063 0.525561 0.7549911

blocks.2.norm2.bias f4 [8]
00000000: e23c 84be 3711 ff3e 7394 923e ec2b 513d
00000010: 9d1e 0dbe c10e 89be 24f7 c43e 64a2 493d
-0.258277 0.4981782 0.28628883 0.051067278 -0.1378121 -0.2676907 0.38469803 0.049227133

blocks.2.mlp.0.bias f4 [32]
00000000: bc98 97bf 127f 46bf 0c7a 7ebf afbd 3bbf
00000010: d4f1 67be 8b86 3ebf 4040 25bf fb5e 73bf
00000020: bc9c 81be afc6 9fbe f6f7 c3bf d2c4 54bf
00000030: a47b c4bf 445a 97bf 5578 bfbf f8a5 16bf
00000040: e7c2 debe f2c0 67bf 50e9 07bf f198 a1bf
00000050: b4d7 78bf 0bc3 15bf b408 aabe bd82 5ebf
00000060: 8817 00bf 898b 98bf 4787 c4bd 3746 a4be
00000070: c08d c4be a16b ee3e c224 ffbd 46db 76be
-1.1843486 -0.77537644 -0.9940498 -0.7333631 -0.22650844 -0.74424046 -0.6455116 -0.95066804
-0.2531489 -0.3120627 -1.5310047 -0.83112824 -1.5350232 -1.1824422 -1.4958597 -0.58847
-0.43508074 -0.90528786 -0.5309038 -1.2624799 -0.97204137 -0.58500737 -0.33209765 -0.8691824
-0.50035906 -1.1917583 -0.095961146 -0.3208482 -0.38389397 0.4656649 -0.12458183 -0.24107084

blocks.2.mlp.2.bias f4 [8]
00000000: 7335 793f 2200 01be 13a9 65bf fe9b 1dbf
00000010: 364d 913e 421d 55bd 528d 483e 9c4c d2be
0.9734718 -0.12597707 -0.8971111 -0.6156615 0.2837922 -0.052029856 0.1958516 -0.41074073

blocks.3.norm1.weight f4 [8]
00000000: c5a6 453f 040b 573f 5c85 663f a4d9 183f
00000010: fc22 203f 1907 953f febf 2f3f 1ba1 383f
0.77207595 0.84001184 0.9004724 0.59707093 0.6255338 1.1642791 0.6865233 0.7212083

blocks.3.norm1.bias f4 [8]
00000000: 3177 b2be 8a0d 27bd 7f57 063f d3ee dcbd
00000010: ea09 c6bc 0a4f 813e 8dc3 b03e 559b 42be
-0.3485656 -0.040784396 0.5247726 -0.107877396 -0.02417465 0.25255615 0.34524193 -0.19004567

blocks.3.mha.q_mappings.0.bias f4 [8]
00000000: 36a2 6f3f 9d84 a53d 737c 06bf 8daf 663e
00000010: ba3e c03b 477e 003f 6150 debf 72f4 ff3d
0.9360689 0.080819346 -0.52533644 0.22527905 0.0058668526 0.50192684 -1.736828 0.12497796

blocks.3.mha.q_mappings.1.bias f4 [8]
00000000: 99e4 9abf 08e6 afbf 36e5 3b3f e9ec 54bf
00000010: c8fd 9d3e 774f 8cbf 6b15 44bf afe9 6d3f
-1.2101012 -1.3742075 0.73396623 -0.83173996 0.30857682 -1.0961751 -0.7659518 0.929347

blocks.3.mha.k_mappings.0.bias f4 [8]
00000000: c35b cabd a025 803d 7413 6a3b 4b81 38bd
00000010: b031 333d 5e3d 343e a3fb 263d a7cb 80be
-0.098807834 0.062571764 0.0035717161 -0.04504518 0.043748558 0.17601535 0.040767323 -0.25155374

blocks.3.mha.k_mappings.1.bias f4 [8]
00000000: fc97 233d 20c2 55be 9d20 aa3e 5c04 9bbe
00000010: 28cc f1bd 4aa6 79be 8a30 aa3d 5219 133e
0.039939865 -0.20874834 0.33228007 -0.30276763 -0.11806518 -0.2437984 0.08310039 0.14365128

blocks.3.mha.v_mappings.0.bias f4 [8]
00000000: da0c e83c 3566 053f 2809 9b3e 5c5f 84be
00000010: 347a ce3e d4e6 8c3e d690 17be 36bf 853e
0.02832644 0.5210908 0.30280423 -0.25854003 0.4032761 0.27519858 -0.14801344 0.26122445

blocks.3.mha.v_mappings.1.bias f4 [8]
00000000: e173 69be d5e1 d93e 5d08 903d 253e 143f
00000010: 722f 0fbf d9c4 f9bd e728 293f f9eb 83be
-0.2279811 0.4255511 0.07032845 0.57907325 -0.5593177 -0.12195749 0.6607804 -0.2576597

blocks.3.mha.o_mappings.bias f4 [8]
00000000: c83d 8cbd aa17 c5bd a401 3bbe d514 e63d
00000010: 91c4 4d3e 5962 b3be 4062 d73e 507f 6cbe
-0.06847721 -0.09623654 -0.18262345 0.11234442 0.20094515 -0.3503597 0.42067146 -0.23095441

blocks.3.norm2.weight f4 [8]
00000000: 4ca7 d13e 76ec 1a3f e224 673f ef52 5a3f
00000010: 5dc0 503f ef60 683f 5f38 263f d39f 833f
0.4094795 0.6051706 0.90290654 0.85282797 0.81543523 0.9077291 0.64929765 1.028315

blocks.3.norm2.bias f4 [8]
00000000: 7fd7 20be 9132 1dbf a6f6 f3be ca31 de3e
00000010: 812f eb3e 5520 67bc 2c0f b43e 05c5 943e
-0.15707205 -0.61405283 -0.47649115 0.4339736 0.4593468 -0.01410683 0.35167825 0.29056564

blocks.3.mlp.0.bias f4 [32]
00000000: b67e a8bf 5781 f3be 4202 c0bf c778 18be
00000010: 4e53 c8be a957 f5bc c108 15bf e7b0 53bf
00000020: 854d 1bbf 5790 b6be b220 d5be 925c 0dbf
00000030: ef03 c5bc b764 10bf 2390 80bf 90b5 24bf
00000040: 9971 f6be 8ce8 74bf d8f5 72bf 20d9 45bc
00000050: 1bb9 97bf 2d52 f3be 05ff fdbe 319c 08bf
00000060: 3576 643c 05e1 36bf 6163 46bf 8aac f5be
00000070: f3fc 0fbf ff88 50bf 0da2 26bf 377d ebbe
-1.3163669 -0.47559616 -1.5000689 -0.14889823 -0.39126056 -0.029949026 -0.5821648 -0.82691807
-0.6066516 -0.35656998 -0.41626507 -0.55219376 -0.024049727 -0.5640368 -1.0043987 -0.6433954
-0.48133543 -0.9566734 -0.9490638 -0.012075692 -1.1853365 -0.47523633 -0.49608627 -0.5336333
0.013944198 -0.714371 -0.7749539 -0.479832 -0.56245345 -0.8145904 -0.6509102 -0.4599397

blocks.3.mlp.2.bias f4 [8]
00000000: 0909 543e de06 6dbe 3d44 b13d ee40 bcbd
00000010: 5f73 bd3e fbf0 64be d72a e93e fcb5 19bf
0.20706572 -0.23147151 0.086555935 -0.09192072 0.37002084 -0.22357552 0.45540497 -0.6004331

blocks.4.norm1.weight f4 [8]
00000000: e0bd 523f dbda 773f 491e 123f 622d 553f
00000010: 5abe 243f 2611 fb3e 2708 da3e 4fd5 893f
0.82320976 0.9681832 0.5707746 0.83272374 0.64352953 0.4903652 0.42584345 1.0768222

blocks.4.norm1.bias f4 [8]
00000000: accf 1dbf ebb9 273e 2c52 f83e 431b 4d3e
00000010: d107 1abe 2b61 533e 93f3 863d 744f afbe
-0.6164501 0.16379516 0.48500192 0.20029931 -0.15042044 0.20642535 0.06589427 -0.34240305

blocks.4.mha.q_mappings.0.bias f4 [8]
00000000: e737 00be 3b65 67bf b6b3 43bd c799 0dbf
00000010: 49e0 f2be 4537 483e 66bd eebe 2ac2 8abe
-0.12521325 -0.9038884 -0.047778808 -0.5531277 -0.4743674 0.19552334 -0.46628875 -0.2710126

blocks.4.mha.q_mappings.1.bias f4 [8]
00000000: 4b9b 193f 0594 f4be a50e e1be 8820 023f
00000010: f19c 8b3e d93b 1a3f cc8e 6bbe f194 67be
0.60002583 -0.4776918 -0.43956485 0.5083089 0.27268174 0.6024757 -0.23003691 -0.2261541

blocks.4.mha.k_mappings.0.bias f4 [8]
00000000: 241e 703e 3370 7dbe 99da ba3e 4844 4fbe
00000010: 6c46 24be 1597 cd3c cb95 a1bd 33bd e93d
0.23448998 -0.24749832 0.36494902 -0.20240891 -0.16042489 0.025096456 -0.07889899 0.1141304

blocks.4.mha.k_mappings.1.bias f4 [8]
00000000: eff6 66be ae32 163e f588 50bd ac58 a3bd
00000010: cd52 a2be 8584 663e 5c83 133e d0b8 593e
-0.22555135 0.1466777 -0.050911862 -0.07975897 -0.31703797 0.2251149 0.14405578 0.21261907

blocks.4.mha.v_mappings.0.bias f4 [8]
00000000: 3e18 12bf 64cc 10be 4c22 07bf 60a0 b13e
00000010: c78d 63be 2d3a f6be eb30 14be 6634 5cbd
-0.5706824 -0.14140469 -0.5278671 0.3469267 -0.22222053 -0.4809126 -0.14471786 -0.05376091

blocks.4.mha.v_mappings.1.bias f4 [8]
00000000: 2c19 02be 528d 4e3e 9bdc f23e cdd6 cd3e
00000010: 7262 a73d d95f 303d 4241 d83e 52ce a9be
-0.12704915 0.20171097 0.47433934 0.40202942 0.08173074 0.043060157 0.42237288 -0.33165222

blocks.4.mha.o_mappings.bias f4 [8]
00000000: fd8a 14bf 97cc 493d 32bf aebd b7c2 01be
00000010: 82e9 01be 78b1 a13e f1d1 763d 9d65 ed3e
-0.5802458 0.049267378 -0.08532561 -0.12671934 -0.12686732 0.3158071 0.06025881 0.46366587

blocks.4.norm2.weight f4 [8]
00000000: 6a82 433f c6d6 dc3e c2d3 623f 668b 6d3f
00000010: f784 123f 1190 553f be41 3e3f f1e5 b83f
0.7637087 0.4313261 0.88604367 0.9279083 0.5723414 0.8342295 0.74319065 1.4445173

blocks.4.norm2.bias f4 [8]
00000000: 7990 c1bd 0375 863d 2db0 85be f0b7 363f
00000010: 111d 273f 5b45 03bf eefa 233d 5c31 0d3e
-0.09451384 0.06565287 -0.26110974 0.71374416 0.65278727 -0.51277703 0.040034227 0.1378836

blocks.4.mlp.0.bias f4 [32]
00000000: 1050 3cbf cf4f 0bbe d4b7 95bf 1780 bbbf
00000010: 3d34 3cbf 3ce8 02bf 958f 60be f2d9 8bbf
00000020: 8671 35bd 2d77 95bf 5591 c4be 367a 84be
00000030: 1047 a9bf 2be7 5abf 1970 8cbf 6c4f 04bf
00000040: 5765 2abf 1438 8dbf 9784 a2bf 37c8 92bf
00000050: 27f9 58bf e36a 7fbf a577 b1be 576a 9fbe
00000060: 7156 6dbf e81d 94bf 0e68 92bf 79ae 34bf
00000070: 3701 78bf e70f 9a3b 8a19 cdbf f6e3 11bf
-0.73559666 -0.13604663 -1.1696725 -1.4648465 -0.7351721 -0.5113561 -0.21929772 -1.0925887
-0.044297718 -1.1676995 -0.3839213 -0.2587449 -1.3224812 -0.85508984 -1.097171 -0.5168369
-0.6656088 -1.1032739 -1.2696713 -1.1467351 -0.84755176 -0.9977247 -0.34661594 -0.31135818
-0.92710024 -1.1571627 -1.1438005 -0.70578724 -0.96876854 0.0047016027 -1.6023419 -0.56988466

blocks.4.mlp.2.bias f4 [8]
00000000: d71d ffbe aa11 f4bc 6dc6 033f 12e3 efbe
00000010: d7dc 58be 1cd0 0f3f 359a 1b3f 9b3f 523e
-0.49827453 -0.02979358 0.5147465 -0.46852928 -0.21177994 0.56176925 0.60782176 0.20532076

mlp.0.weight f4 [10, 8]
00000000: 1d0f cebf 6cce 66bf 49cb ed3d 411e b9bf
00000010: a4c7 833e adb2 c4bf c7c0 e7be 937e 2b3f
00000020: 2e15 b7bf 4111 b33f b809 43bf 445a 97be
00000030: d7d1 98bf ff72 313f c716 8d3f 18c2 203f
00000040: 28df c0bf 5e28 2a3e 5b2f 2d3f 2052 9ebf
00000050: d39e ee3e 2360 fe3d 6056 0abf 3a8a b0bf
00000060: 8c9e 10bf 329f 0dbf a5ef 823e f2cc bd3f
00000070: 780b 623e 2400 823f f1ff a8bf dc65 1c3f
00000080: bd93 463f 4a94 8b3f c954 6f3f 8e82 303e
00000090: cda8 2ebf f7a1 4e3d 244f c53f 4f04 e1be
000000a0: 0be9 b93e 2feb 843e 021c 05bf b4e6 a53f
000000b0: 504f 023f 19de 77bf 8459 15bf e77d 913f
000000c0: 3a36 72bf 4fb2 bc3d 996d 3dbf 6e21 1c3f
000000d0: 9d25 b1be 2acb d6bf e853 2f3f 8b74 adbf
000000e0: 4d26 923e 94c4 eebc 7797 b43f 45b7 0bbc
000000f0: 82be 953d 1d1f ac3f 6a6c 7f3f e541 be3f
00000100: ab1b e13e 9e71 94be aab7 abbf 1296 3cbf
00000110: 7fe6 993f e31a b83e 15d0 fbbd 6c58 e8be
00000120: 462a 873f 1e2d 20bf 3162 b83e 3539 66bf
00000130: beba c5bf 27ab cc3e 55cf 94be b772 043f
-1.6098362 -0.90158725 0.11611039 -1.4462358 0.2573825 -1.5367028 -0.45264265 0.6699001
-1.4303339 1.398964 -0.76186705 -0.29561055 -1.1939038 0.69316095 1.1022576 0.62796164
-1.5068102 0.16616961 0.67650384 -1.2368813 0.46605548 0.124206804 -0.5403805 -1.3792183
-0.56491923 -0.5532104 0.2557346 1.4828169 0.22074687 1.0156293 -1.3203107 0.61092925
0.7756918 1.0904629 0.93488747 0.17237303 -0.6822632 0.05044743 1.5414777 -0.439486
0.3631061 0.2596068 -0.5199586 1.296103 0.5090227 -0.9682327 -0.58339715 1.1366547
-0.94613993 0.09213697 -0.7399536 0.6098851 -0.3459901 -1.6780751 0.68487406 -1.3551191
0.28544846 -0.02914647 1.4108723 -0.008527582 0.07311727 1.3446995 0.997748 1.486386
0.4396642 -0.28992933 -1.3415425 -0.7366649 1.2023467 0.35958013 -0.12295548 -0.4537996
1.0559776 -0.62568843 0.36012414 -0.8993104 -1.5447614 0.3997433 -0.29064432 0.5173754

mlp.0.bias f4 [10]
00000000: d00e 9b3e 1b10 013f 4d47 1c3f 1c78 bfbe
00000010: c116 af3e d1b6 0e3f 55e5 babf d967 46bf
00000020: 7b82 993e 15f5 8fbe
0.3028474 0.504152 0.61046296 -0.37396324 0.34197047 0.55747706 -1.4601237 -0.7750221
0.2998236 -0.2811667

518 f4 [16, 8]
00000000: 5d8b 163f 6a60 64be db08 b73e 0b2f 17bd
00000010: 472f ddbd eed8 543f fbd2 1ebe b7b5 18be
00000020: 758f cfbe c9b8 81bd e6a0 91bd 4e85 463e
00000030: 34b1 8b3e e19c ce3e df5a 403e 00a4 85bf
00000040: f6de cbbe da99 303e 191a 81bd 0f45 ec3d
00000050: ca9e 9ebe fc46 673e 2d50 853e c45a fabe
00000060: 21bc 99be 1fb6 793e 875c edbd eb90 1cbe
00000070: 99e7 cabe f4f8 a33e f243 843e 78c7 efbd
00000080: eff2 073f 9f11 86be 527e 273e 4a76 22be
00000090: 6ebe a53d 88bf 5e3e 5138 99be ea91 42be
000000a0: 4a88 a0bc 8d6c 483d 8077 0dbe 1e45 b63d
000000b0: 756b 513e 397a 5ebe 3b9b d03e 1f0e 3abf
000000c0: 820c c5be a0c2 473e 626a 1bbe a2fe d23d
000000d0: 74d1 4fbe 965c 17be 5b50 b13e 30ed 23be
000000e0: fd5c 1bbe 4697 50bc 92a7 87bd a31c f93c
000000f0: 4621 24bf 3cc7 4e3c 34cb 693e fd68 eb3e
00000100: 27da 3b3f 5a8f 94be adfe 673e adb5 1bbe
00000110: 18c8 bf3d 5946 f73e a35c 43be 5412 e1be
00000120: f416 a3be 857f 3e3e a0f4 11bd c21c 5f3e
00000130: 2327 1c3d d88a 80bc 1dc7 023f 600a dcbe
00000140: 0d79 0dbd eab4 c03d 604b aebd 3b2d e33d
00000150: f804 27be 4e5e c23d 94b0 843e 0a3d 6abd
00000160: ebd2 33bd 4f17 ffbd ba4c dbbd ba4b 84bd
00000170: cfa4 19bf 4221 333d 1c80 503d 6850 bc3e
00000180: 2a9f be3e 97b4 06be ab0b af3d 3a0e 4cbe
00000190: c442 c23e e0fc 53be b749 203d 1969 91bf
000001a0: a0af c6be a494 843e b4e4 dcbd b1a4 053e
000001b0: 94c3 8e3d 1ef0 29bf 58d3 263f 59ea e7be
000001c0: cb6b ddbd 884c d43c 3f3d 32be d806 fcbd
000001d0: 61f7 acbe 1d97 07bf b3b7 203f 2bcb 3abe
000001e0: e14b f9bd 0374 a7bd 622c 223e f8d7 45be
000001f0: 83b9 15bf 0d9f d8be a29d 133f 2fdf 1a3f
0.588064 -0.22302404 0.35748944 -0.036910098 -0.10800033 0.8314351 -0.1551017 -0.14913069
-0.40539137 -0.06334073 -0.07110767 0.19386789 0.27283633 0.40354064 0.18784665 -1.0440674
-0.39818543 0.1724619 -0.06303806 0.115366094 -0.3098052 0.22585672 0.26037732 -0.48897374
-0.30026343 0.2438588 -0.11589914 -0.15289657 -0.3962982 0.32025874 0.25833088 -0.117079675
0.5310506 -0.2618532 0.16356781 -0.15865436 0.08092962 0.21752751 -0.29925779 -0.19000974
-0.019596238 0.048931647 -0.13815117 0.08899902 0.20451148 -0.21726312 0.4074343 -0.726778
-0.38486105 0.19507837 -0.151773 0.103024736 -0.20294744 -0.14781412 0.3463162 -0.16008449
-0.15172191 -0.012731379 -0.066237584 0.030409163 -0.6411327 0.012620743 0.22831422 0.45978537
0.7337975 -0.2901562 0.22655745 -0.15206023 0.09364337 0.48295859 -0.19078307 -0.43959296
-0.3185345 0.18603332 -0.035633683 0.21788314 0.03812326 -0.015691206 0.5108507 -0.42976665
-0.03453927 0.094095066 -0.085104704 0.110926114 -0.16310489 0.094906434 0.25915968 -0.057187118
-0.04390232 -0.12455618 -0.10707994 -0.06459756 -0.600171 0.04373289 0.050903425 0.36780095
0.37230808 -0.13154827 0.08547147 -0.19927302 0.37941563 -0.20701933 0.0391328 -1.1360198
-0.38805866 0.25894654 -0.10785809 0.13051106 0.06970897 -0.66382015 0.65166235 -0.4529598
-0.108115755 0.0259154 -0.17406176 -0.12305993 -0.33782485 -0.52964956 0.627803 -0.18241565
-0.12172676 -0.08176424 0.15837243 -0.19320667 -0.58486193 -0.42308846 0.57662404 0.604968

525 f4 [8, 8]
00000000: e976 d43d de0c dcbd da74 6d3e dc29 ab3d
00000010: 8692 8abf 6349 97bf bf65 e7bd 3799 1f3f
00000020: c2c2 a83f f8e1 80bf 1732 8a3f f3cf e33d
00000030: 81fb 58bf 05ee 94be 5347 c33d 4850 813e
00000040: ff5f c6be ec68 d93e 52ad fb3e 658c 1b3d
00000050: 5950 87bf 7f22 13bf 5dde 373e 7add c13e
00000060: bb2c ca3f 9ec4 cdbf b335 ac3e 2268 cb3d
00000070: f7d7 63be eddf 4bbe ed71 16bd cf69 1abf
00000080: 2560 61be 9513 c43e a0de 18bf 64b4 cc3e
00000090: 5888 5e3f 681e 4a3f 07bc 1b3e 8fcd 75bf
000000a0: 2977 cabe b6be e73e 785a 4c3e 61ef 843e
000000b0: 010e 013f 4b4b d23e 1142 b3be 3b09 46be
000000c0: 7d76 abbf 3115 6b3f 02be 61bf d8d5 00bd
000000d0: 433b 0a3f 128b 273f dc5b 863d 8f4b 1cbe
000000e0: c620 b0be ff86 903e 696d aabe be0f 2ebc
000000f0: afeb b83e 842e 313f 9bdd 2c3d 08c9 78be
0.10374243 -0.10744642 0.23189107 0.083575934 -1.0825965 -1.1819271 -0.112987034 0.6234316
1.3184435 -1.006896 1.0796536 0.111236475 -0.84758765 -0.29087844 0.095350884 0.25256562
-0.38745114 0.42462862 0.4915567 0.037975688 -1.0571395 -0.5747451 0.17955919 0.37864286
1.5794901 -1.6075628 0.3363472 0.09931971 -0.22250353 -0.1990964 -0.03672974 -0.603177
-0.22009332 0.3829619 -0.597147 0.39981377 0.86926794 0.78952646 0.15208445 -0.9601678
-0.39544037 0.45262688 0.19956386 0.25963882 0.50411993 0.4107307 -0.35011342 -0.19339459
-1.3395535 0.9182921 -0.88180554 -0.031453937 0.53996676 0.6544658 0.065604895 -0.15263198
-0.34400004 0.28227994 -0.33286598 -0.01062387 0.36117312 0.692116 0.042203527 -0.24295437

526 f4 [8, 8]
00000000: 481b b73f 742a 6abf b7a9 9a3f 1d0e 203e
00000010: 7412 dc3b ece2 fabe 3693 36be e2b2 af3e
00000020: 052d 2f3e ee1a 9bbd 0ffe 6bbe 9469 25be
00000030: 1b7b 313f 0205 6b3e 3076 9bbe 36db dc3d
00000040: d6eb 95bf bbd7 8c3f ff0e 53bf 8d6c b63d
00000050: ff00 c63f 756b 813f a6be ed3d 173b dcbe
00000060: 584e 713e 5abd 81bd 3c28 173f b655 0d3d
00000070: 75e0 bfbd fca8 94be 31e4 9b3c 8589 8c3e
00000080: 4d30 cbbe af17 153f 28cb 93bd 14be a4be
00000090: 5a99 85be 03c0 a73e d88f 043f 99be 2c3f
000000a0: ff31 1fbf 5a90 4d3e 1254 82bd 550f fb3e
000000b0: fe75 07bf 8076 9abe 9896 1ebe 4c75 13bf
000000c0: 885c 713f 3cb8 8bbf c561 493e 6001 55bc
000000d0: fda2 3fbe f92c b63d f892 ea3d c1ea 3dbe
000000e0: d470 b7be e4b5 193f 6cf9 21be aa3e 063f
000000f0: 4535 4bbf a06e 08bf ee48 3fbe 6db3 b53e
1.43052 -0.9147103 1.2083043 0.15630384 0.006716067 -0.49001253 -0.17829594 0.34316164
0.17107017 -0.07573496 -0.23046134 -0.16153556 0.6932847 0.22951129 -0.30363607 0.10783999
-1.1712596 1.1003336 -0.8244476 0.08907423 1.5469054 1.0110918 0.11608629 -0.43013832
0.23565042 -0.06334944 0.5904577 0.03450557 -0.09368984 -0.29035175 0.019029709 0.2744867
-0.39685288 0.58239263 -0.07216483 -0.32176268 -0.2609356 0.3276368 0.5178199 0.6747833
-0.62185663 0.20074597 -0.063636914 0.49035135 -0.52914417 -0.30168533 -0.15487134 -0.57600856
0.94281816 -1.0915599 0.19666202 -0.013000816 -0.18714519 0.088952966 0.11453813 -0.18546583
-0.3582827 0.6004317 -0.15817803 0.5243937 -0.7937816 -0.532938 -0.18680164 0.35488454

527 f4 [8, 8]
00000000: a171 c5be 8be1 883d a4d4 a9be fcd3 303e
00000010: 93b5 3dbd dbc0 213f 2398 70bc ae51 c73e
00000020: c09f 1abf 2b5b b23d 9418 3bbb 75cc da3d
00000030: 31e8 1d3e 09b2 10be 4a5b a63c 4790 6bbc
00000040: 19b6 cebd e06c 143f 3ede 89bd 2a99 973d
00000050: 7fb9 69bd a6e4 363e 3589 013d 5e30 793d
00000060: 8b3a 33be a062 c3be 5f8d 2a3f 81c4 2abe
00000070: ab9d 253b 3951 5fbf 43f7 debc 2d1e b2be
00000080: b13c 87be 64fe 71be d8eb bbbc 7f49 ae3e
00000090: 685a a4be ce22 8abe 3585 09bc e1ed e63e
000000a0: ece9 253e eeb9 08bf 7e78 403c 3d11 28be
000000b0: 2202 20be 15b3 11bb 0011 633d 2d90 70bf
000000c0: 4b2d b83e 2ac0 96be 87d2 e43d 6586 adbd
000000d0: ad12 39be 1bfb 6e3f 9956 4dbd d2aa a7be
000000e0: db6e e1bc 46f8 00be 9bd1 d0be 702d 47be
000000f0: 8048 87bc 10f0 ebbc 57e4 813d 93f8 94be
-0.38563254 0.06683644 -0.33170044 0.17268366 -0.04631574 0.631849 -0.01468471 0.38929504
-0.6040001 0.08708795 -0.0028548585 0.10683528 0.15420605 -0.14130415 0.020307202 -0.01437766
-0.10093326 0.5797863 -0.067318425 0.074022606 -0.05706167 0.1786066 0.03162499 0.060837142
-0.17502801 -0.38161182 0.66621965 -0.16676523 0.002527098 -0.8723331 -0.027217513 -0.34788647
-0.2641349 -0.23632199 -0.022939608 0.34040448 -0.32100224 -0.2697968 -0.008393575 0.45103362
0.16202515 -0.53408706 0.011747478 -0.16412826 -0.15625814 -0.0022231985 0.055436134 -0.93969995
0.35972056 -0.29443485 0.111729674 -0.08472899 -0.1807353 0.93351907 -0.050131414 -0.32747513
-0.02751868 -0.12594709 -0.40784916 -0.19450927 -0.016514063 -0.028800994 0.063423805 -0.29095897

528 f4 [8, 8]
00000000: a663 cebe 0a89 653e 96e3 afbd 0986 e23e
00000010: d101 ef3e f628 a53e 90c9 79be 8aa9 76be
00000020: 6688 1cbf e2a3 23bf a4c0 a5be ae6b b93f
00000030: c921 4f3f 61c1 4dbf 37b6 7fbe fd15 ff3d
00000040: ca21 af3e 9273 2dbf 5b6d 87be 1a5f 9e3d
00000050: 0891 b2be a39d 4cbd d8be f6bf 2cc5 88bd
00000060: 393a f6bc 4d96 163f 964f b33d b5e8 513f
00000070: 79c0 42bd 89d6 8a3e 45ac 3e3e 74ac 31bd
00000080: 048f 1bbd b304 853f bb92 0e3c c3b3 853e
00000090: 08ac 0c3f 14ce 323f af03 543f 63ef fbbe
000000a0: e5e7 a6be 6009 9cbd 20c1 0abf e2e1 d3be
000000b0: 0c56 333f 8763 51bf 8887 1a3f 0201 14bf
000000c0: 4c4b f4bd 5bd4 e53c 62cf 47be a43f 4bbf
000000d0: e964 293e 8ab1 00bf c14c 973c 22f8 8dbe
000000e0: 93cc fe3e cc70 87be c187 44bd 382c 6abf
000000f0: ed84 b6be 56bf 9e3e d5a8 4dbe 6af6 e9bd
-0.403104 0.22415558 -0.085883304 0.44242886 0.46681073 0.32257813 -0.24393296 -0.24088112
-0.6114563 -0.6392194 -0.32373536 1.4485986 0.8091093 -0.803732 -0.24971853 0.12455366
0.34205467 -0.6775447 -0.2645062 0.07732983 -0.34876275 -0.04995502 -1.9276991 -0.066782326
-0.03005706 0.5882309 0.08755414 0.8199571 -0.047546837 0.27116802 0.18620403 -0.043377355
-0.037978187 1.0392059 0.008701975 0.2611371 0.5495 0.698457 0.8281812 -0.49206075
-0.32598796 -0.07618976 -0.54200935 -0.41383272 0.7005317 -0.8179249 0.60363054 -0.5781404
-0.11928424 0.02805536 -0.19512704 -0.7939398 0.165424 -0.50270903 0.018469216 -0.27728373
0.49765453 -0.26453245 -0.047981028 -0.9147372 -0.3564829 0.31005353 -0.20083936 -0.11423953

529 f4 [8, 8]
00000000: 386a 7d3d 4ed5 d53e 26f0 14bd 97bf 66be
00000010: bd42 1fbe 10c2 44bf 2aa5 033f a446 b1be
00000020: 7e9f a53e 463e dd3e 924d ee3d 6fe4 febe
00000030: 64e8 04bf 8c4f 3c3e 9853 00bf 5d72 41be
00000040: a3eb df3d f209 dabd ac12 c9bd 7af3 e03e
00000050: 147d eb3e 4e69 163f e446 1b3f c2f6 073d
00000060: 48da b03e d50b 45bd 3408 ab3d b49f 8bbf
00000070: 349c c0bd 4bc1 9a3e 4e28 d13e 7bfe 1a3e
00000080: ac55 8f3e 58e8 95bf 4254 853d 3a10 debe
00000090: 76e3 863e f0ec c13d 825a b1bf ea49 9a3d
000000a0: 4510 20bf 8dc4 3cbf dbdc 34bf 955c 943f
000000b0: 6843 b73f 5295 31bf 5118 493f 0ab2 2d3e
000000c0: 9476 92bf bc6e bc3f 14d3 22bd 9018 843f
000000d0: ec1d 1f3f e6b5 72bf 9c8a b13f 0c65 973c
000000e0: 166c 673f 0602 5bbf a726 b73e 10b5 c73e
000000f0: f722 41bf 8fe8 88be fad8 8dbf 6770 293f
0.061868876 0.417643 -0.036361836 -0.22534023 -0.15552802 -0.76858616 0.51423895 -0.34624207
0.32348245 0.43211573 0.11635889 -0.49783656 -0.519171 0.1838972 -0.50127554 -0.18891282
0.10933616 -0.10646428 -0.098180145 0.43935758 0.45993865 0.5875443 0.60655046 0.03319431
0.34541535 -0.048106987 0.08351174 -1.0908113 -0.094047934 0.30225596 0.40851063 0.15136139
0.2799505 -1.1711531 0.065102115 -0.43371755 0.26345414 0.0946902 -1.3855746 0.07533629
-0.62524825 -0.7373741 -0.706495 1.1590754 1.4317446 -0.6936847 0.7855273 0.16962448
-1.1442437 1.4721293 -0.03975208 1.0319996 0.6215503 -0.94808805 1.3870425 0.0184808
0.903993 -0.8554996 0.35771677 0.39005327 -0.7544398 -0.26739928 -1.1081841 0.6618714

530 f4 [8, 8]
00000000: 3efa 7f3e 2efa 9d3d 39c5 64bf a063 89bd
00000010: 52ba 2bbf cc55 883d 5676 a23c 32ef 483f
00000020: 36e2 803d d057 cabc 90ee 883e ebff 37bd
00000030: e444 7dbf 6916 a43d c2ff 9dbd c13f 53bf
00000040: ab26 873f 44b8 ae3d 9024 dabe cc9c 963d
00000050: 4717 a83d adf9 6c3d cc54 253e 60ef 6ebf
00000060: bed2 5abf 474d 843d 990f 9fbf dead f63c
00000070: 147e 0abf 9d93 aa3d 875b 0a3d 8c16 3fbe
00000080: e8be f1be 690d 81bc f870 3c3e 49cd 91bd
00000090: f4f5 a83e 3748 ee3d 6ae9 12be 8f21 ec3c
000000a0: 93aa 863e 6443 a93d 84a8 333e d594 953d
000000b0: 8e6f 2ebd d9ea 043e 5ef8 8f3d dcc3 de3c
000000c0: 47e5 9c3d 4fb3 943a 7e96 643d 209b a13c
000000d0: 7522 aa3e 70af e7b9 9d48 593b 27ed eb3e
000000e0: 5629 97bc 68d1 8c3d 8d20 c83d 589b 203e
000000f0: 8096 c73d b329 8b3e d9a3 8a3d 4f4e d13d
0.24997804 0.077137336 -0.8936344 -0.06708455 -0.6708118 0.066569895 0.019831818 0.78489983
0.06293146 -0.024700075 0.2674451 -0.044921797 -0.98933244 0.08012087 -0.077147976 -0.82519156
1.0558676 0.0853124 -0.4260602 0.073541254 0.08207565 0.057855297 0.16145629 -0.9333401
-0.8547782 0.06460052 -1.2426635 0.030112203 -0.5409863 0.08328936 0.033778694 -0.18660945
-0.47215962 -0.015753465 0.18402469 -0.07119233 0.33000147 0.11634868 -0.14346853 0.028824596
0.26302013 0.08264807 0.17544752 0.07303778 -0.042586856 0.12980212 0.07029794 0.027193002
0.07660919 0.0011344942 0.055807583 0.01972729 0.33229414 -0.00044190465 0.0033154853 0.4607937
-0.018452328 0.068758786 0.097718336 0.15684259 0.097455025 0.2718025 0.06769533 0.10220014

531 f4 [16, 8]
00000000: 5e59 b8bc b3eb 80bc 421d d3bc 8845 c2bd
00000010: 27c5 1b3d cc3a ebbd 4f78 1dbe f638 ffbc
00000020: b97b a0bd 8e47 ccbe 45c6 4d3c 8640 9ebe
00000030: cd3c 0cbe 2fbf bc3e 4fe5 3b3f afe2 493e
00000040: dc83 853e 397d e13c 6306 103e 6758 de3d
00000050: 7c3e 0c3e da4c 4ebd d600 c03e 83b4 083d
00000060: f273 03be 2b5d debd 6b65 04be 8a67 17be
00000070: 5e80 39be 9176 75bd ca5b 5abe d1ee 97bd
00000080: b2bf 95bc 3f8a 973c ca76 01bc 067b e43b
00000090: 48ef c93c 0682 a2bc a91a ba3d 48ab 963b
000000a0: 0020 67be 5188 883b b6d0 4a3d e418 663e
000000b0: b26c 743f a4c7 1abe 4fc3 64bf 837d e0be
000000c0: a6b7 d7bc 3a17 ac3c c0d1 d93b b57f 893c
000000d0: 0a1d ee3b 5c12 1fbd e574 af3d f316 7a3d
000000e0: bd12 9bbe b4e2 98be f4df 2abe 7b0d 5abe
000000f0: 80d9 e8be 33a0 a93d 689d cebe 213b 61bd
00000100: 0bd4 183e a3ce 613e a918 6dbe effb 5c3e
00000110: bcfd ef3e abb0 33bd 5de2 f23e 0ecd edbe
00000120: ca0a 2dbd 2161 c1bc 9fe0 37bd 0e09 94bd
00000130: 58a1 e8bc edb9 b6bc f6a4 47bd c45c 1abd
00000140: 5a5b 7b3e a188 223d dfbe 3dbe ba7a 863e
00000150: d2cf 0ebd 0fe4 4cbd e958 d5be 9c25 edbe
00000160: 9c4e 95bd 81c8 b3bd 91d2 97bd 8104 b1bd
00000170: ae17 7abd e601 2ebd 0d9f 97bd ea1d b4bd
00000180: c4fd 79be 010c f23e 7fbe 38be 70a0 4c3d
00000190: 4cfb d5be de2a 92be 4f61 463e f74a aabe
000001a0: 8791 963b a0dc de3d ce85 2d3d dc1e 913d
000001b0: 4bd9 4c3d 50b3 003d 54e3 b93d b7c3 883d
000001c0: 8db8 10bc 2f76 4ebd cdd4 23bc e273 89bd
000001d0: 9ea9 673c a6ff 3c3d ad4f debc 7df6 41bd
000001e0: 926b 4ebf 56bb e23e 69ca f63d fbf8 b93d
000001f0: 6997 28bc a53a a33d f46a a63e 6598 12bf
-0.022503551 -0.01573739 -0.025770787 -0.09485918 0.038029816 -0.11485824 -0.15377925 -0.03115509
-0.07836098 -0.39898342 0.012559478 -0.30908602 -0.13695069 0.36864612 0.7339677 0.19715379
0.26077163 0.027525531 0.14064936 0.10856705 0.13695711 -0.05036626 0.37500638 0.033375274
-0.12837198 -0.10857614 -0.12929313 -0.14785591 -0.18115374 -0.059927527 -0.21324077 -0.074185975
-0.018279884 0.018498538 -0.007901857 0.0069726733 0.024650231 -0.01983739 0.09087116 0.004598055
-0.22570801 0.004166641 0.04951545 0.22470433 0.95478356 -0.1511522 -0.8936052 -0.43845758
-0.026332688 0.021007169 0.0066473186 0.016784528 0.0072666453 -0.03883587 0.08567218 0.061057042
-0.30287734 -0.2986046 -0.16686994 -0.21294205 -0.4547844 0.08282509 -0.40354466 -0.05498803
0.14924638 0.22051482 -0.23153938 0.2158048 0.4687327 -0.043869656 0.47438326 -0.46445507
-0.042246617 -0.023605885 -0.04489195 -0.072282895 -0.028397247 -0.022305453 -0.048741303 -0.037686124
0.24546567 0.03968108 -0.18529843 0.26265508 -0.03486616 -0.05002218 -0.41669396 -0.46317756
-0.07290384 -0.087784775 -0.07413209 -0.08643437 -0.06105774 -0.04248228 -0.074033834 -0.08794768
-0.2441321 0.47274783 -0.18041418 0.049957693 -0.41793287 -0.2854833 0.19373058 -0.3326032
0.004594985 0.10881925 0.042363934 0.07085964 0.050011914 0.031421006 0.090765625 0.06677955
-0.008833063 -0.050405677 -0.009999466 -0.06711556 0.014139561 0.046142243 -0.027137602 -0.04735421
-0.8063289 0.4428355 0.120503254 0.090806924 -0.010290005 0.0797017 0.32503474 -0.57263786

532 f4 [8, 32]
00000000: 8261 363f 8577 b83f 62a4 1ebf 9748 703d
00000010: 9041 2abf ed3c 2f3e 5db7 243f c2de 61bf
00000020: 215d f23e b359 2cbf d3b5 8a3f d42b f3bd
00000030: dad0 6abf 9c92 f83d 4519 803f d3b7 a43d
00000040: eb4b 3e3f c33f bf3e 3b64 ba3f c7b5 9e3e
00000050: 047c 973f 0bd3 963f 3245 553f 5efc febe
00000060: 1377 113f 7c94 d6bd fff3 2abf b88f 583f
00000070: 1b68 433f 3984 c43f 6638 00be ea66 a73e
00000080: e8e8 bebe 989e 98be a35d 82bf fd6a 86bf
00000090: e510 0fbf 3691 823f c31f 063f 7cb3 653e
000000a0: 3f2d 80be 6ae5 1b3f 2ca2 debe e8e5 0cbf
000000b0: 3196 9e3e fcc3 c83e edab 70be d2b4 2c3e
000000c0: 7b6a 4dbe f7bf d63e 0af6 8a3f 64ba 7e3f
000000d0: 933f b8be 7ea7 eabe b425 373f 8eb3 92bf
000000e0: 3591 41be d417 903e 5b4f 75be 3cad 1d3a
000000f0: de2f f83c dc93 5a3f 9bf2 6e3f c69c 11be
00000100: dfcc 7abf 456e 5c3e 6c53 893d bf51 fbbe
00000110: f16c 22bf 47ef 773f 0f54 14bf fa13 653e
00000120: 8151 6cbe f469 8b3f b385 863f 46cd f33e
00000130: 2a86 37bf 3c97 373f 102e 1a3f 44e6 c73f
00000140: 0e69 19bf d9a7 64bf ff82 0e3f ab94 f83e
00000150: ab4c 25bf 0bb9 0b3f 405f 63bf f5a9 e03e
00000160: 02ac 7abe f90f 3c3f f41a c2bf e136 b8bf
00000170: 1ccc 02bf 5831 08bc 0098 903f e5d5 d2be
00000180: e4cd 0c3f 53ef b93e b01f 1abe da48 46bd
00000190: 6924 253f a633 733f 62ef 89bf 22da 3d3e
000001a0: 53e8 2bbf 3962 d33d 933f b1bd bcea 9e3f
000001b0: 6f6e 923e f63f 683d 4824 bd3f c820 4f3e
000001c0: 6d98 733f 3f20 69bf 8eed 3fbf 5a46 87bd
000001d0: a9df dcbe e72a 2e3f 1d48 863f b8a0 913f
000001e0: f55a 5ebf 9d49 1dbe 442c 633e c5e9 723f
000001f0: 0c87 893e abd4 bc3c bc55 87bf f5bd b93f
00000200: 45e8 b4be 486c 80be 2862 2d3e f942 a4be
00000210: af64 893f 87bd 92bf 73cb 5b3e 36f4 67bf
00000220: 09d0 053f ae66 e7be 47c1 39bf a04c 6fbf
00000230: 8e22 dabe effd 5abe 3851 183e 8127 27bf
00000240: af90 8abf 9d8f 22bf 1636 adbf ee46 debf
00000250: c418 07bf 6e18 213e 6d65 50bf 106e 3fbf
00000260: 802d ac3e 09b6 bc3e ac87 163f e342 4a3e
00000270: 1399 913e ef49 94be f37c 913a a14e f2be
00000280: 5572 b03e fc33 753c 7d3a 02be d2a6 4f3f
00000290: c2aa e83e 3a58 cbbe 53f8 afbf 7a89 a23f
000002a0: 389a 673f eb3d 73bf 87ba a1bf 0692 2bbf
000002b0: f609 ebbe 275b aabf dd21 a0bf e50f 82be
000002c0: d9e6 53be 7f27 b63e fa6d 67bf 1610 2a3e
000002d0: 96b0 07bf c32c 9cbf 1e39 9fbf 8b0b 163f
000002e0: 908b 97bf 8eaf 22bd 4fbe 443f 5b8e 07bf
000002f0: 102a 803e bef2 63bd b1d2 b13e b502 a13e
00000300: 166b 0e3f 514d 84bf 2980 5b3f 61fb 803f
00000310: 1cb5 c4bd ac35 92be 6038 0f3f 337a 4bbe
00000320: 74de 2dbf 0e67 fdbb ee9f ec3e d8c4 f53e
00000330: 6669 d6be 8831 0dbf 7a31 46be 338c 82be
00000340: 718f a8bf 2337 483f 8609 eaba 9015 b6be
00000350: fe4a 363f 96c5 29bf 4808 e03e 8fce 873e
00000360: 8d8f 823f 2529 9dbf f8cd e63e 890f 6c3e
00000370: 3a1e 193f 5e11 03bf 5978 3c3f d6a6 a0bf
00000380: 9d9a 51be aa04 f63e 1d29 3f3f 4258 6a3e
00000390: 10c0 4e3f eb73 69be 67f8 833f a3cc 1ebe
000003a0: b027 ecbe 4159 2e3f 988f 31be f18a c2be
000003b0: 0f6c b03f 928e 2f3f 6e75 3abf 7a19 50bf
000003c0: ccbf b23f 98b3 94bc 4209 373f ea22 49bf
000003d0: fc4a 823e 0f47 b93d 4d97 d3be e2ca 643d
000003e0: 8214 c5be 4852 a53e 653d d73e e167 26bf
000003f0: 6585 64bf 9686 6bbf d741 8cbe 61b7 fcbd
0.71242535 1.4411474 -0.6196958 0.058662977 -0.6650629 0.17113085 0.6434229 -0.88230526
0.47336677 -0.6732437 1.0836738 -0.11873594 -0.9172493 0.121373385 1.0007712 0.08042874
0.7433459 0.37353334 1.4561838 0.3099806 1.1834722 1.1783155 0.8330871 -0.49801916
0.5682232 -0.1047754 -0.6677856 0.845943 0.7633073 1.5352851 -0.12521514 0.32695705
-0.37287068 -0.29808497 -1.0184826 -1.05014 -0.55885154 1.0200565 0.52392215 0.22431749
-0.2503452 0.60896933 -0.43483102 -0.5503831 0.30973962 0.39212024 -0.23503084 0.16865852
-0.2006015 0.41943333 1.0856335 0.9950316 -0.35986003 -0.4583091 0.71541905 -1.1461046
-0.18903048 0.2814318 -0.23956053 0.00060148886 0.030296262 0.85381866 0.93338937 -0.1421996
-0.9796886 0.2152644 0.067053646 -0.49085805 -0.6344748 0.96849483 -0.57940763 0.22370902
-0.23077966 1.0891709 1.0509552 0.4761755 -0.71689093 0.7171514 0.60226536 1.5617146
-0.59925926 -0.89318615 0.55668634 0.48550925 -0.6457011 0.5457923 -0.88817215 0.43879667
-0.24479678 0.7346187 -1.5164475 -1.4391748 -0.51092696 -0.008312546 1.1296387 -0.41178814
0.55001664 0.36315402 -0.1505115 -0.04840932 0.6450868 0.95000684 -1.0776179 0.18540242
-0.67151374 0.10321469 -0.08654704 1.2415385 0.2859988 0.056701623 1.4776697 0.20227349
0.9515446 -0.9106483 -0.74971855 -0.06605215 -0.4313939 0.68034214 1.0490757 1.1377172
-0.8685754 -0.15360112 0.22184855 0.94887954 0.26860845 0.023050627 -1.0573039 1.4511095
-0.35333458 -0.25082612 0.16931975 -0.32082346 1.0733851 -1.1464089 0.21464328 -0.9060701
0.5227056 -0.45195526 -0.7256054 -0.93476295 -0.42604488 -0.2138593 0.14874732 -0.65294653
-1.0825404 -0.63500386 -1.3532131 -1.7365396 -0.52772164 0.15731975 -0.81404763 -0.7477732
0.33628464 0.36857632 0.5880077 0.19752078 0.284371 -0.28962657 0.001109986 -0.47325614
0.34462228 0.014966007 -0.12717624 0.8111392 0.45442778 -0.3971575 -1.3747658 1.2698205
0.90469694 -0.95016354 -1.2635049 -0.6701969 -0.45906037 -1.3309067 -1.2510334 -0.25402752
-0.2069353 0.35577008 -0.90402186 0.16607699 -0.53003824 -1.220116 -1.2439306 0.58611363
-1.1839466 -0.039718203 0.7685289 -0.5295159 0.2503209 -0.05565142 0.34731057 0.31447378
0.5563215 -1.0336095 0.8574243 1.0076715 -0.09604856 -0.28556573 0.55945396 -0.19870834
-0.6791756 -0.0077332323 0.46215767 0.48001742 -0.41877288 -0.55153704 -0.19354811 -0.2549759
-1.3168775 0.7820913 -0.0017855621 -0.35563326 0.7120818 -0.6631712 0.43756318 0.2652478
1.0200058 -1.2278181 0.45079017 0.23052801 0.5981175 -0.51198375 0.73621136 -1.2550914
-0.20469137 0.48050433 0.7467211 0.2288523 0.80761814 -0.22798125 1.0310181 -0.1550775
-0.4612403 0.6810494 -0.17339933 -0.3799663 1.3782977 0.6857692 -0.72835433 -0.81288874
1.3964782 -0.018152043 0.714985 -0.785689 0.25447834 0.090467565 -0.4132637 0.055857547
-0.3849221 0.32289338 0.42039028 -0.65002257 -0.89266044 -0.92002237 -0.27393982 -0.12339664

533 f4 [32, 8]
00000000: d238 d1bb d70a 0dbf 191e 42be b169 d1be
00000010: ffc3 fc3e bc95 343d 455e 333e 62c4 063f
00000020: 3fc6 af3f e2ce 98be 8526 87be 4d68 41bf
00000030: 3b46 843d 2b7d ab3d 1798 ef3e bc24 a53e
00000040: 3de3 bbbe 74e6 b8be cd68 4fbd fe1f 3fbe
00000050: a4f9 10bf 69e1 183e 6b9b 243f 681b 893f
00000060: 2328 753e 9aaf 67bf b341 ddbe 1942 033f
00000070: 91b1 b3be 0618 753f 56e2 993e 7453 043f
00000080: 1c5a c83f f234 27bf 75dd 613b bd9b 3bbd
00000090: b7bd b6be 7711 00bf c602 bebb 2ce7 1d3f
000000a0: cc70 e13e 76aa 1fbe 0ed6 0b3f a9ce 5d3f
000000b0: abd6 ad3e 50eb a8bf e8bf 1abf aa3b 03bf
000000c0: b266 64bf e1d8 c23f e755 ccbe 675e 03bf
000000d0: 9fec 99be aa7e 293f 406b 43be 70ac b5be
000000e0: 3c98 99bf af35 4ebd 5301 853e 2f3f 8a3e
000000f0: 3d93 5d3f 3ad2 463f e52b febe b5f5 92be
00000100: c2ac 25be a663 e13e 7fb6 06bd 17c0 873e
00000110: de20 6dbf ff33 eb3d d24c b03f ccf5 76bf
00000120: ba6b 2cbf 6d1a a5bd 7c83 573f 7143 9dbe
00000130: 84d9 af3d 40d9 90bf 14de 8f3e f50b bf3e
00000140: 26cd 363e 3ff8 68bf 4202 593f 63f3 023f
00000150: 2546 463f f154 38bf afc8 f93e bb39 83bf
00000160: 4702 5bbe 3a7e 56bf 7819 d7be 6802 cd3f
00000170: 4763 183e 9108 febe e859 693e 8ef8 afbe
00000180: 9903 153d f602 283e 9a07 d2be 8803 b63e
00000190: dc62 8d3f b103 a4bf ed3b d0bd ab32 a73e
000001a0: 0572 073f fca7 4dbe 2b1b e73e 0282 f73d
000001b0: 457b 53bf 4244 1fbf 7be6 b3be f773 033f
000001c0: 93dd 4c3f 44c2 90be 7b37 b7bf c4bb 4d3f
000001d0: aa8c 383f 2bf8 5b3f aa3a 2dbf 8112 f93e
000001e0: 78d6 433f 1110 36bf b482 af3f 71da 4b3e
000001f0: ad9a 053f 5f7f 67bf 71c3 2d3d 4fa1 1fbf
00000200: 0aaa 113e 7faf 8d3f f081 88bf d1ef 30bf
00000210: 9620 e33e 7eb7 9cbe c751 53be e9eb c93f
00000220: 1eeb 26bf d77e b53d 4920 42bf 27a2 413f
00000230: ee0f 4dbe acfd 453f 16fb 913e 2529 3cbf
00000240: 29a5 b03f 164b 6b3f 36c6 f33e 492f d63b
00000250: 8aa3 b9bf e902 8e3e 333e 4dbf 6280 54bf
00000260: 67bc a0bd fb67 833f d00f 813e b447 4d3f
00000270: 8672 8fbf 9c5e 51bf 14f9 10bf 5f6f 08bf
00000280: 2dc5 a0be 0dc4 38bf f0a1 8f3e 3422 2bbd
00000290: 87c2 773f b592 d63f 2f19 213d 98ac 6bbf
000002a0: f55a 543f 2d51 cbbf c00e 303d b416 d0be
000002b0: 8daf 553f 9315 6d3e 8952 8e3e d549 b53e
000002c0: 0664 093f 983b a53f 765d d8be e7b9 02bf
000002d0: 0f9b e3bf bf83 b53b 9e90 3fbe 476b ef3e
000002e0: a909 8ebf 0567 94bf 5b7f 0f3f a659 423f
000002f0: b195 5f3f e9df 033f 3998 823c a008 28be
00000300: 3cca 1ebd 9d1d 16bf 6006 133f bdf5 74bf
00000310: 5f88 133f 7a57 8b3f 0d45 69bd 8035 ddbd
00000320: b1d0 dd3e 32da 75bd b32d 3a3f bafc 5cbf
00000330: 4236 ae3e 3367 863e 5e58 31bf dd0c c83e
00000340: 343c 593f 38c2 6c3c a304 84bf 2957 2f3f
00000350: 58dc 963f c9d4 9ebf b212 5ebe f496 68be
00000360: e37f f93f 5a65 89bf bb16 573f 43e2 18bf
00000370: eba9 4d3f 8052 873f b8a1 9dbe 0fb0 10be
00000380: 4270 953e 0d2e 1bbe 4c6c 4cbf bd52 393f
00000390: 4e95 2c3e 4912 1bbf 0d76 4e3f 4505 98be
000003a0: 2a1c 5c3f 1a03 483f f1be 78bf dc22 a93e
000003b0: c7d5 e03d 355e 07bf 222e f5be 0c0f f5bc
000003c0: f03f 1bbf 2d81 923f 5ccc f43e feea 58bf
000003d0: 183e 613c fff0 233f 3b21 803e f16a 62bf
000003e0: a75f 483f df56 a73e 733b 073e 2800 f5bd
000003f0: 184a 6b3f d881 023f d1b2 c1bf cf75 423e
-0.0063849473 -0.55094665 -0.18956794 -0.4090095 0.49368283 0.04408811 0.1751643 0.52643406
1.3732375 -0.2984534 -0.26396576 -0.75549775 0.06458708 0.08373483 0.46795723 0.3225459
-0.36696807 -0.36113322 -0.050637055 -0.18664548 -0.5663092 0.14929737 0.6429965 1.0711489
0.23941092 -0.9050232 -0.43214187 0.5127273 -0.3509641 0.9573978 0.30055493 0.5168984
1.5652499 -0.65315163 0.0034464274 -0.04580282 -0.35691616 -0.5002665 -0.0057986705 0.61680865
0.4403137 -0.1559237 0.54623497 0.86643463 0.3395284 -1.3196812 -0.60449076 -0.51262915
-0.892192 1.5222436 -0.39909288 -0.5131592 -0.3006334 0.662089 -0.19083881 -0.35483122
-1.1999583 -0.050344165 0.25977573 0.2700133 0.8655279 0.7766453 -0.49642864 -0.28703085
-0.16179183 0.44021338 -0.032888886 0.2651374 -0.92628276 0.11484527 1.3773444 -0.96468806
-0.6735188 -0.08061681 0.84185004 -0.30715516 0.0858641 -1.13163 0.2809912 0.3731381
0.17851695 -0.91003793 0.8476907 0.5115263 0.7745078 -0.7200461 0.48785922 -1.0251993
-0.21387587 -0.83786356 -0.4201162 1.6016359 0.14881621 -0.4961591 0.22788203 -0.3436932
0.036380384 0.1640738 -0.41021425 0.3554957 1.1045794 -1.2813627 -0.1016768 0.32655844
0.52908355 -0.20083612 0.45137915 0.12085344 -0.8260997 -0.6221353 -0.3513678 0.51348823
0.80025595 -0.28273213 -1.4313806 0.8036463 0.72089636 0.8592555 -0.6766764 0.4864693
0.7649913 -0.71118265 1.3711762 0.19907548 0.5218914 -0.9042873 0.042422716 -0.6235551
0.14225021 1.1069182 -1.0664654 -0.6911593 0.443608 -0.30608743 -0.20636664 1.5775119
-0.6520251 0.088620834 -0.75830513 0.7563805 -0.20025608 0.773402 0.28511876 -0.7350028
1.3800403 0.9191145 0.4761216 0.0065363985 -1.4503033 0.27736595 -0.80173033 -0.83008397
-0.07848435 1.0266107 0.25207376 0.80187535 -1.1206825 -0.8178499 -0.56630063 -0.5329494
-0.31400433 -0.7217415 0.28053236 -0.041780666 0.967812 1.6763521 0.039330658 -0.9206023
0.8295129 -1.5884148 0.042982817 -0.4064232 0.83470994 0.23152761 0.27797344 0.35407892
0.5366825 1.2908812 -0.42258805 -0.51064914 -1.7781695 0.005539387 -0.18707511 0.46761534
-1.1096698 -1.1593939 0.56053704 0.7591804 0.87337786 0.51513535 0.015941726 -0.1640954
-0.038767084 -0.58638936 0.574316 -0.95687467 0.5762996 1.0886071 -0.056950618 -0.1080122
0.4332328 -0.06002254 0.7272598 -0.8632313 0.3402577 0.2625061 -0.6927546 0.39072314
0.8485749 0.014450602 -1.0313915 0.6849237 1.1785994 -1.2408687 -0.21686819 -0.22713834
1.9492153 -1.0734055 0.8401906 -0.5972025 0.803374 1.0572052 -0.30787444 -0.14129661
0.29187208 -0.15154286 -0.7985275 0.72391874 0.1685383 -0.60574776 0.8064888 -0.2969152
0.85980475 0.7812973 -0.97166353 0.33034408 0.10978275 -0.52878124 -0.4788676 -0.029914401
-0.60644436 1.1445671 0.47812164 -0.8473357 0.013747714 0.64039606 0.25025353 -0.8844443
0.78270954 0.32683465 0.13206272 -0.119629204 0.91909933 0.50979376 -1.5132695 0.18990253

534 f4 [8, 8]
00000000: 1bcb ffbe 09a4 733f 49f9 8ebf e2ca 69be
00000010: df4b e0bd 5ac6 033f 2152 2abe d321 a83f
00000020: 0b76 4a3f b113 003e 08f4 333e 2bd8 153f
00000030: cb91 533f 794e 22be 00ae 4abe 1df8 d1bf
00000040: 063f 20bf 458e 473d 8f7a 1abf 3dae 4fbf
00000050: 8351 d4be 6f80 f33e 9c67 4abd 6bcd 58bf
00000060: 341d 19be 7c2e c23e 309c 953e 083c b6be
00000070: 8562 34bf 7b4f a4be 725d f23e e220 a53f
00000080: d1b1 913e 627a 633f b703 c83e a524 05be
00000090: bef7 513d d96f 86be 487c e33e afd6 bd3d
000000a0: 7b25 113e 1a4d 7dbf 1094 503f 3c35 ac3e
000000b0: 6e88 cf3e 44ad 56be 5149 f83e f39a 31bf
000000c0: 2022 fcbd 0cdd e1bf 6203 0cbf 7e74 b53d
000000d0: 65ef 193e b9a5 0dbe 65bc 2ebf b0f0 d53e
000000e0: b89e 33bf 8564 f63e 9079 ac3e 02cf f03e
000000f0: 4e43 2cbf cdf5 4d3e ba99 023f f3ad 23bd
-0.49959645 0.9517217 -1.1169826 -0.228313 -0.10951971 0.51474535 -0.16632892 1.3135322
0.7908637 0.12507512 0.1757356 0.5853297 0.8264434 -0.15850247 -0.19792938 -1.6403843
-0.62596166 0.048719663 -0.6034326 -0.8112524 -0.41468439 0.47558925 -0.049415216 -0.8468844
-0.14952546 0.3792609 0.29220724 -0.35592675 -0.7046283 -0.3209189 0.47336918 1.290066
0.28455976 0.88858616 0.39065334 -0.1300226 0.051261656 -0.26257208 0.44430757 0.09269463
0.14174454 -0.9894577 0.81475925 0.33634365 0.40533775 -0.20964533 0.48493436 -0.6937706
-0.12311196 -1.7645583 -0.5469266 0.0886011 0.15032728 -0.1383275 -0.6825622 0.41785192
-0.7016406 0.48123565 0.33686495 0.47032934 -0.672902 0.20113297 0.5101582 -0.039960813

535 f4 [8, 8]
00000000: c25c 2cbf 01f7 98bf b6b2 6cbf 4002 9ebd
00000010: 77fe 843d f314 ed3e 759e 6abf 9129 cbbc
00000020: edac ae3f 2028 053f 1fdd b2bd bc8e 8bbf
00000030: 9750 873f 071d 8cbd 40f3 93bd c747 95bf
00000040: 9e13 873e f8b5 77bf 8c0d 273f 456f 723f
00000050: d671 223f 8be6 bbbd bce8 f5be 54ff eebf
00000060: 7c61 59be 3940 d4be 6203 863e 53ba 04bf
00000070: c4eb febe 1efc 81be f661 8fbd 58f4 283e
00000080: feb6 a8bd b4d2 f23f 9e54 293f b4d5 fcbd
00000090: 0645 10be 5b6b 993e 1363 763f 53a2 95bc
000000a0: 22d2 ef3b d514 8dbe 979e 323f 0fe4 133f
000000b0: 8229 cbbd 075b abbe 4df9 163e 07b8 9d3f
000000c0: f6ad 563e 5ec7 553f 4578 9a3e d812 123e
000000d0: 2378 8c3e 0366 313d ec5a 2c3f 8b74 f0bd
000000e0: d878 dabe 092b 763e ab81 b6be a549 0c3f
000000f0: b510 01bf a68a 593e f162 1ebe 9c45 e23e
-0.6732904 -1.195038 -0.9246019 -0.07715273 0.06493848 0.46305045 -0.91648036 -0.024800094
1.3646523 0.5201435 -0.08733582 -1.0902934 1.0571469 -0.06841474 -0.07224131 -1.166253
0.26382154 -0.9676204 0.65255046 0.94701034 0.6345495 -0.09174832 -0.48029125 -1.867167
-0.21228594 -0.41455248 0.26174456 -0.5184681 -0.4978925 -0.25387663 -0.070011064 0.1649946
-0.08238028 1.8970551 0.6614474 -0.12345448 -0.1408883 0.29964718 0.96244925 -0.018265879
0.007318751 -0.27554956 0.6977324 0.57769865 -0.09920026 -0.33467886 0.14743538 1.2321786
0.20964798 0.83507335 0.30169883 0.14265001 0.27435407 0.043310177 0.67326236 -0.11740979
-0.4267032 0.24039854 -0.35645804 0.5479987 -0.5041612 0.21244296 -0.1546743 0.44193733

536 f4 [8, 8]
00000000: b933 da3e 1883 98be 3f22 213f 00e7 10be
00000010: e350 19bf 9ee4 59bf 89fd 33bf c05b cabd
00000020: c588 a83e aa5e 84be 7203 0a3f 4755 563f
00000030: 9ff6 d6bd 905b 023f 726c d73e aa72 7bbd
00000040: 9c9a 9bbe 373e 403d 173e 17bf 569b 9cbe
00000050: dba7 783e 6ba5 b6be cf68 b6bd 9791 69bd
00000060: 4dd1 443d 025a bdbd 8b26 c73e afad 44bf
00000070: ebce 2d3f adf5 8fbf 8d40 a8bf 5bf8 36bc
00000080: 9d60 30bf bd2a 843f 2215 8abf afb8 9ebf
00000090: 7156 983e 73f8 d63e 2cdd f63e 45e0 5bbd
000000a0: 2cc6 91bd 767b a5be c523 c8be 8fa8 81bd
000000b0: d70f 433e fcc1 c7bc 7452 6a3f 326e 9abd
000000c0: 44ae 823e 6cda 99bd f74e 58bf 9787 2cbf
000000d0: dd94 93bf 7d90 3fbe 6e3c 83bf db2d a1bd
000000e0: 3e32 0e3e c370 0fbf 0eef 263e 2aa3 b93f
000000f0: f981 193e 9461 8c3f e989 383e 02aa 57bd
0.42617586 -0.29787517 0.6294288 -0.1415062 -0.5988905 -0.8511447 -0.7030874 -0.09880781
0.32916847 -0.25853473 0.5391151 0.8372387 -0.10496258 0.50920963 0.42074925 -0.06138865
-0.30391395 0.046934333 -0.59079117 -0.30587262 0.24282782 -0.3567308 -0.089067094 -0.05702361
0.048051167 -0.09245683 0.38896593 -0.7682752 0.67893857 -1.1246849 -1.3144699 -0.011167611
-0.6889742 1.0325543 -1.0787699 -1.2400111 0.2975345 0.41986427 0.48215616 -0.053680677
-0.071178764 -0.32320756 -0.3908979 -0.06330978 0.19049011 -0.024384491 0.91532063 -0.07540549
0.2552358 -0.07512364 -0.8449549 -0.67394394 -1.1529804 -0.18707462 -1.0252817 -0.07870074
0.13886353 -0.56031436 0.1630213 1.4502919 0.14990987 1.0967278 0.18021359 -0.052652366
